experiments/fcn_ensembles/lightning_logs/version_11/checkpoints/epoch=10-step=12584.ckpt (torch, 15179 bytes, 18 tensors)

model.net.0.weight f4 [16, 9]
0	0xbbb12234	-0.0054056887
1	0x3ca82f6a	0.020530421
2	0x3d81b8d9	0.06334085
3	0xbdb93910	-0.09044087
4	0xbd50b903	-0.05095769
5	0xbc8bfa88	-0.017087236
6	0xbd6364f9	-0.055516217
7	0xbd5428b3	-0.051796626
8	0x3d48f8b2	0.0490653
9	0x3de80d3f	0.113306515
10	0x3e82916e	0.2550158
11	0x3eb447d5	0.35211053
12	0xbec31c20	-0.38107395
13	0xbc44977c	-0.011999007
14	0x3d88f910	0.0668813
15	0x3de66350	0.11249411
16	0xbe2eed82	-0.1708279
17	0xbe46b608	-0.19405377
18	0xbe2104c7	-0.15724479
19	0xbe31b216	-0.1735309
20	0xbe2a9ca8	-0.16661322
21	0xbccaa658	-0.024737522
22	0xbdcf0b5c	-0.101095885
23	0xbe1e49fe	-0.15457913
24	0xbc834a5e	-0.016026672
25	0x3d8a41e9	0.067508526
26	0x3b3cfcbb	0.0028837163
27	0xbc363695	-0.011121412
28	0xbc67b934	-0.014143277
29	0xbcdf368b	-0.027247688
30	0x3d8f3317	0.069921665
31	0x3cb97a12	0.022641215
32	0x3babb064	0.0052395333
33	0x3d1a4543	0.03766371
34	0x3d4f8d2e	0.05067175
35	0xbb7ad5f1	-0.0038274492
36	0x3a023809	0.00049674563
37	0xba0bb096	-0.00053287426
38	0xb9cbb2e6	-0.00038852467
39	0x3a645939	0.0008710805
40	0x377461e0	1.4566322e-05
41	0x38f564fe	0.00011701322
42	0xbb130ee8	-0.0022439305
43	0x38ab9850	8.182286e-05
44	0xb93455ac	-0.00017198053
45	0x3c93a7d5	0.018024364
46	0x3dbb53b3	0.09146824
47	0x3ebe47c1	0.3716412
48	0xbe8d9df5	-0.27659574
49	0xbdc3be4b	-0.0955778
50	0xbe2cce52	-0.1687558
51	0xbe440521	-0.19142582
52	0x3d5fe4ff	0.054661747
53	0x3e15f7aa	0.14645258
54	0x3e07d1be	0.13263604
55	0x3e605028	0.21905577
56	0xbe39126b	-0.18073432
57	0xbed9ffd6	-0.42578
58	0xbe4c1906	-0.1993142
59	0xbe27a365	-0.16370924
60	0x3d891499	0.06693382
61	0x3f687383	0.90801257
62	0xbde76e40	-0.113003254
63	0xbdfe809e	-0.124268755
64	0xbe533cfc	-0.20628732
65	0xbce1505b	-0.027504137
66	0x3ebe5030	0.37170553
67	0xbbbf481b	-0.005837453
68	0xbd6f0b5a	-0.058360435
69	0x3e794f77	0.2434672
70	0x3d29ba21	0.041437272
71	0xbd0a7363	-0.033801448
72	0xb822374c	-3.867531e-05
73	0x394db8ef	0.00019619217
74	0x359db8a0	1.1751144e-06
75	0x39dd1b84	0.00042172906
76	0x38f0665a	0.00011463156
77	0x38e11e13	0.00010734438
78	0x3932829b	0.00017024057
79	0x3a256f42	0.0006310829
80	0x39907bf4	0.00027558173
81	0xbca51eff	-0.020156382
82	0x3c172a09	0.009226331
83	0x3d0bb716	0.03411015
84	0xbdde26f0	-0.108472705
85	0xbd5de523	-0.0541736
86	0xbc9ba2da	-0.018998552
87	0x3cc0c459	0.023531126
88	0xbca054a6	-0.019571614
89	0x3ced7fc6	0.028991591
90	0xbe30c85e	-0.17263934
91	0xbe3eb775	-0.18624671
92	0xbe2b5c50	-0.16734433
93	0x3e51a403	0.20472722
94	0xbda65fe7	-0.08123761
95	0xbe344ee8	-0.17608225
96	0xbb5f9ffc	-0.0034122458
97	0x3e57ee02	0.21086887
98	0xbc13edcd	-0.009028864
99	0x3c849b8b	0.01618745
100	0x3a89232e	0.0010462755
101	0x3cc88f23	0.024482315
102	0x3d3f6056	0.046722732
103	0x3ca4af50	0.020103127
104	0x3c74888e	0.014925135
105	0xbd188dd6	-0.03724464
106	0xbabd2888	-0.0014431635
107	0xbb9cc00b	-0.0047836355
108	0xbb6e0ed3	-0.0036324754
109	0x3aec384a	0.0018022147
110	0xbc36c13a	-0.011154467
111	0xbc540e75	-0.0129429
112	0xbaec6d39	-0.0018037922
113	0xbb89499e	-0.004189684
114	0x3c8a6ba3	0.016897028
115	0x3bb8e040	0.005641967
116	0xbaf42a1d	-0.0018628273
117	0x3989209e	0.00026154978
118	0x3a601d59	0.0008549295
119	0x38ebb56c	0.00011239466
120	0x3a33b0ba	0.00068546424
121	0x3a027d3e	0.0004977769
122	0x3a0ef51b	0.00054533937
123	0x3a6edec1	0.00091121724
124	0x3b41939e	0.002953745
125	0x3aa2c96c	0.0012419648
126	0xbcadd150	-0.021217972
127	0xbbd815d3	-0.0065943985
128	0xbd007889	-0.03136495
129	0xbd46279f	-0.04837763
130	0xbc9c1ffe	-0.019058224
131	0xbce56e13	-0.028006589
132	0x3d2c4be9	0.04206458
133	0x3c91c9e4	0.017796464
134	0x3a790e9d	0.0009500774
135	0xbed510f6	-0.41614503
136	0xbe532891	-0.20620944
137	0x3ec35550	0.38151026
138	0x3efb2e90	0.49058962
139	0xbe87d93f	-0.26532933
140	0x3ee04616	0.4380347
141	0x3dcdd946	0.10051207
142	0x3e0399d2	0.12851647
143	0x3d587a62	0.05285109

model.net.0.bias f4 [16]
0	0x3d66ede4	0.056379214
1	0xbe4e8b32	-0.20170286
2	0x3d18bb51	0.037288014
3	0xbc3308e9	-0.010927417
4	0xb808e91e	-3.2642034e-05
5	0x3d2cd0cb	0.042191308
6	0x3eb6d580	0.35709763
7	0xbd02038b	-0.03174166
8	0x3a155041	0.00056958577
9	0x3d32fde8	0.043699175
10	0x3c8fb804	0.0175438
11	0x3c034920	0.00801304
12	0xbac614f8	-0.001511245
13	0x3b1771fc	0.0023108711
14	0xbc105e70	-0.008811578
15	0x3ed720e4	0.4201728

model.net.2.weight f4 [16, 16]
0	0x3c4a6d4b	0.012355159
1	0x3d720c13	0.059093546
2	0xbcb380f7	-0.021912081
3	0xbbcb9398	-0.006212663
4	0xb993d710	-0.0002819826
5	0x3d301abc	0.042994246
6	0x3dc68efd	0.096952416
7	0xbcde40d1	-0.027130516
8	0xb9056172	-0.0001272017
9	0x3c182678	0.009286515
10	0xbd06467d	-0.032782067
11	0xbb886f20	-0.0041636378
12	0x39af7e2f	0.00033472615
13	0xba07901c	-0.0005171315
14	0x3b6d6e68	0.0036229137
15	0xbdbe4ed1	-0.09292377
16	0x3c7dfecc	0.015502643
17	0x3ca395b5	0.019968847
18	0x3dee48af	0.11634957
19	0xbc008d7e	-0.007846234
20	0xb7ab239e	-2.0401374e-05
21	0xbd3c23d4	-0.045932606
22	0x3dd3c429	0.10340149
23	0xba143542	-0.0005653688
24	0xba178bbd	-0.00057810155
25	0x3d2f2465	0.042759318
26	0x3d89e9d4	0.06734052
27	0xbd088004	-0.03332521
28	0x3bf5b759	0.0074986634
29	0xbb028c12	-0.0019919914
30	0x3d1cd7c8	0.038291723
31	0xbd5aec3e	-0.053447954
32	0xbbfe7ddf	-0.00776647
33	0xbd657827	-0.05602279
34	0x3d515c4f	0.051113423
35	0x3b764950	0.0037580319
36	0x395bba61	0.00020954899
37	0xbd60eab2	-0.054911323
38	0xbd98bbf0	-0.07457721
39	0x3cdbab50	0.026815087
40	0x3825a413	3.949187e-05
41	0x3afaf089	0.0019145171
42	0x3d52b326	0.05144038
43	0xbb91d72c	-0.0044506993
44	0x3b06128f	0.002045784
45	0x396cf871	0.00022599266
46	0x3bcfe3be	0.0063442877
47	0x3da60633	0.08106651
48	0xb42ac83c	-1.5905329e-07
49	0x356fd197	8.933943e-07
50	0x3630f2a6	2.6367284e-06
51	0xb548a7c4	-7.4749937e-07
52	0x330b60c8	3.245148e-08
53	0xb69d939a	-4.6961477e-06
54	0x36aa4217	5.0740887e-06
55	0xb457cbca	-2.0097573e-07
56	0xb2be9ced	-2.2190273e-08
57	0x35a4d3a4	1.2280548e-06
58	0x365a8dcf	3.2567075e-06
59	0xb5ab5ef4	-1.2768128e-06
60	0x33cb8736	9.477519e-08
61	0xb33c3b45	-4.3826066e-08
62	0x35b1f569	1.3258951e-06
63	0xb61d2b2e	-2.3419957e-06
64	0xbcbce931	-0.023060413
65	0xbdc11578	-0.09427923
66	0xbca90868	-0.020633891
67	0x3c295d7e	0.010337232
68	0x3a2041c8	0.0006113318
69	0xbce04fc8	-0.027381793
70	0xbe428a05	-0.18997963
71	0x3d24095f	0.040048
72	0x398b2ee6	0.00026547088
73	0xbcfaebd7	-0.030630035
74	0x3caa1939	0.02076398
75	0x3ca08728	0.019595698
76	0xbb9e9f7a	-0.0048407884
77	0x3a64f883	0.0008734541
78	0xbca9771c	-0.020686679
79	0x3e1f2d5d	0.15544648
80	0x3c93350a	0.017969627
81	0x3dbafb1a	0.09129925
82	0xbd0ed705	-0.034873027
83	0xbc000087	-0.007812626
84	0xb9adda3f	-0.00033159737
85	0x3d88b0b4	0.066743284
86	0x3e0e1bdf	0.1387782
87	0xbd309ed7	-0.04312023
88	0xb92154d9	-0.00015385765
89	0x3c4667e5	0.012109731
90	0xbd61a9f8	-0.055093735
91	0xbb62ed30	-0.0034626238
92	0xb9396e15	-0.00017683984
93	0xba1f4d54	-0.00060768914
94	0x3b009ab4	0.001962346
95	0xbe05b0d8	-0.13055742
96	0xbc235510	-0.009969011
97	0x3ca87118	0.02056174
98	0xbddcfb84	-0.1079016
99	0x3ba0bb74	0.0049051587
100	0xb854531b	-5.0622137e-05
101	0x3d680d75	0.05665346
102	0xbc793055	-0.015209277
103	0xbc46b614	-0.012128372
104	0x3987c5a9	0.00025896475
105	0xbd0820f7	-0.033234563
106	0xbd9c8ea3	-0.07644393
107	0x3cd4bd3f	0.025969146
108	0xbbe9d64f	-0.0071361433
109	0x3a788724	0.0009480587
110	0xbcfa74bc	-0.030573241
111	0xbcae6229	-0.02128704
112	0xbc81a639	-0.015826331
113	0xbcc63435	-0.024194816
114	0xbded2373	-0.11579027
115	0x3c048cf1	0.008090244
116	0x3896997e	7.1811475e-05
117	0x3d396f5b	0.045272212
118	0xbde54ebc	-0.11196658
119	0x3aeda703	0.0018131438
120	0x3a179d85	0.0005783665
121	0xbd3117c4	-0.043235555
122	0xbd863cd7	-0.06554573
123	0x3d0a9942	0.033837564
124	0xbbfb0fa5	-0.007661777
125	0x3b0281a8	0.0019913707
126	0xbd1ee79f	-0.03879511
127	0x3d7859bb	0.06063245
128	0x3adaf293	0.0016704373
129	0x3b81d892	0.003962585
130	0x3d133164	0.035935774
131	0xbb045bf5	-0.0020196412
132	0x3951f92c	0.00020024617
133	0xbc937244	-0.017998822
134	0x3ccd6c3e	0.025076028
135	0x393c33ee	0.00017948422
136	0xb987061e	-0.00025753764
137	0x3c2393a3	0.00998393
138	0x3cb5532b	0.022134384
139	0xbc1a65d0	-0.009423688
140	0x3accb5c1	0.0015618132
141	0xba7cbbc7	-0.0009641018
142	0x3c2e4298	0.010635994
143	0xbc9880ab	-0.018616041
144	0xbd24c365	-0.040225405
145	0xbe340321	-0.17579319
146	0x3d8a4f9f	0.06753468
147	0x3c865b53	0.016400969
148	0x3a0742bd	0.0005159786
149	0xbda778c6	-0.081773326
150	0xbe82d468	-0.25552678
151	0x3dcbc002	0.09948732
152	0x394397b2	0.0001865316
153	0xbd104d93	-0.03523023
154	0x3ddf87fe	0.1091461
155	0x3bf27a6c	0.0073998477
156	0x38ae9946	8.325516e-05
157	0x3a32a610	0.00068149064
158	0xbb1e2382	-0.002413005
159	0x3e81a100	0.25318146
160	0x3bd24464	0.006416844
161	0x3cb411cf	0.021981148
162	0x3d148669	0.036260996
163	0xbb960f24	-0.0045794416
164	0xb8d30db4	-0.000100638164
165	0xbbc7bc58	-0.0060954504
166	0x3d6d2b7f	0.05790281
167	0xbbe0643a	-0.0068478854
168	0xb9807913	-0.0002450427
169	0x3c75ab33	0.01499443
170	0x3c85efbf	0.016349671
171	0xbc4a9bb6	-0.012366226
172	0x3b1d60be	0.0024013962
173	0xba925c63	-0.0011166449
174	0x3c624f4a	0.013812849
175	0xbd47d5f6	-0.048788033
176	0xbc362af3	-0.011118638
177	0xbcbb1312	-0.022836242
178	0xbda4b216	-0.0804178
179	0x3bd0c4c4	0.0063711125
180	0x3783ab19	1.569609e-05
181	0x3cd56680	0.026049852
182	0xbdb32e18	-0.08749026
183	0x3b9f5ef7	0.0048636156
184	0x3a010245	0.00049212977
185	0xbcf3c091	-0.029754909
186	0xbd329261	-0.04359663
187	0x3cc31aaf	0.023816435
188	0xbb9ca1e2	-0.00478004
189	0x3af51142	0.001869716
190	0xbcde6cfc	-0.027151577
191	0x3d740f2c	0.05958478
192	0x3cfbf671	0.03075716
193	0x3e5d114f	0.21588634
194	0xbe39c8c1	-0.18142988
195	0xbc6c98b4	-0.014440704
196	0x39c25a03	0.00037069627
197	0x3e5bbbc6	0.21458349
198	0x3e827650	0.2548089
199	0xbe0c59ee	-0.1370618
200	0xb9613d31	-0.00021480468
201	0xbbb7af63	-0.0056056245
202	0xbe49ccce	-0.19707033
203	0x3c9a2ea3	0.018821066
204	0xbc433bc9	-0.011916109
205	0xba8ce7ea	-0.0010750268
206	0xbd2aab30	-0.041667163
207	0xbe9ffb92	-0.3124662
208	0xbd72d558	-0.05928549
209	0xbe74f310	-0.23920846
210	0xbb078757	-0.0020680034
211	0x3cdb6576	0.026781779
212	0x3a9e6328	0.0012083994
213	0xbd60c938	-0.054879397
214	0xbec6edba	-0.38853246
215	0x3e007d7b	0.12547867
216	0x395bb536	0.00020952974
217	0xbd97c0c1	-0.07409812
218	0x3df23d63	0.11828115
219	0x3ce32231	0.027726265
220	0xbbea79ff	-0.0071556563
221	0x3a01edf6	0.00049564184
222	0xbcd59fa4	-0.0260771
223	0x3e8f89c2	0.28034788
224	0x3de070f4	0.10959044
225	0x3ed2f78d	0.4120449
226	0xbd6fc917	-0.058541384
227	0xbd989294	-0.074498326
228	0x39562db1	0.00020425652
229	0x3ecce9c4	0.400221
230	0x3f0e6efb	0.5563809
231	0xbeb49ae7	-0.3527443
232	0xb9e53186	-0.00043715182
233	0x3d73d655	0.059530575
234	0xbe87c0b2	-0.26514202
235	0xbc0168a7	-0.007898486
236	0x3acd0293	0.0015641026
237	0xba8aaefd	-0.0010580715
238	0x3c81ec75	0.015859822
239	0xbf150d83	-0.5822374
240	0xbc86ba4e	-0.016446259
241	0xbd4fc0d9	-0.050721023
242	0xbd9b73ed	-0.075904705
243	0x3c0f167b	0.008733387
244	0x39d33286	0.000402827
245	0x3c86dc98	0.01646261
246	0xbe10799f	-0.14108895
247	0x3c73bf12	0.014877098
248	0x39d1a965	0.00039989795
249	0xbd109f4c	-0.035308167
250	0xbcfa7dea	-0.030577619
251	0x3ce1be4b	0.02755656
252	0xbbd6a4f5	-0.006550426
253	0x3abf2a73	0.0014584794
254	0xbcfe4929	-0.031040745
255	0x3dd1d0ce	0.102449045

model.net.2.bias f4 [16]
0	0xbc1938a9	-0.009351888
1	0xbdb658c8	-0.089036524
2	0xbaf2696f	-0.0018494556
3	0xb59e012e	-1.1772261e-06
4	0x3d4c8a15	0.049936373
5	0xbc050fda	-0.008121455
6	0x3d6b9ecb	0.057524484
7	0x3dbb7f38	0.091551244
8	0xbce0b968	-0.027432159
9	0x3c781fd1	0.015144304
10	0xbd041aa5	-0.032251973
11	0x3d86911a	0.06570645
12	0x3c8ab070	0.016929835
13	0xbc2c435f	-0.010514109
14	0x3c336a33	0.010950613
15	0x3d987e94	0.07446018

model.net.4.weight f4 [2, 16]
0	0x3dbb3e00	0.09142685
1	0xbdc5ef3b	-0.0966477
2	0xbdf11858	-0.11772221
3	0xb60eb635	-2.1265707e-06
4	0xbdcf6c30	-0.10128057
5	0x3e183fe8	0.14868128
6	0x3e0d4dee	0.13799259
7	0x3dba319a	0.09091492
8	0xbcefc402	-0.029268268
9	0xbe95dbb1	-0.29269174
10	0xbc3d3e54	-0.011550505
11	0x3d55e70e	0.052222304
12	0x3f00a119	0.50245816
13	0xbe998fbc	-0.29992473
14	0x3f6d3ad5	0.92667896
15	0x3c4de78d	0.012567413
16	0x3de733b9	0.11289162
17	0x3e4a1722	0.19735387
18	0xbd8e5454	-0.06949678
19	0x368fb210	4.2824613e-06
20	0xbe808476	-0.2510106
21	0x3e212512	0.15736797
22	0xbdaa644c	-0.08319911
23	0xbe54e1d8	-0.20789278
24	0x3d564f44	0.052321687
25	0xbe9a5975	-0.30146375
26	0x3dc282f9	0.09497637
27	0xbe1fe401	-0.1561432
28	0x3e70595c	0.23471588
29	0xbeec969b	-0.46208653
30	0x3eaaf85e	0.33392614
31	0xbe62e9ea	-0.22159544

model.net.4.bias f4 [2]
0	0x3dc8813f	0.09790277
1	0xbea9be64	-0.3315307

exp_avg f4 [16, 9]
0	0x3be815fd	0.0070826993
1	0x3c169a15	0.009192009
2	0x3b9ba806	0.0047502546
3	0xbb1c2f24	-0.002383181
4	0x3bfa492d	0.0076381178
5	0xba3ddaa7	-0.00072423596
6	0xbc00e1aa	-0.0078663025
7	0x3c9f5679	0.019450413
8	0x3bba58bb	0.005686847
9	0x3d1cd9c5	0.03829362
10	0x3d4a95d3	0.04945929
11	0x3cd70d9d	0.026251609
12	0xbb1394c7	-0.0022519098
13	0x3d1d20c8	0.03836134
14	0x3bc83e59	0.006110948
15	0xbc86c81d	-0.016452843
16	0x3da05d47	0.07830291
17	0x3bcb3615	0.0062015154
18	0xba8eba21	-0.0010889211
19	0xbb3a0ce3	-0.0028389029
20	0xbb365130	-0.0027819388
21	0x3be614cc	0.007021522
22	0xba8851c6	-0.0010400347
23	0x3b9671e6	0.0045912145
24	0x3bed7d12	0.0072475756
25	0xbc6d5420	-0.014485389
26	0xbbee6f61	-0.007276461
27	0xbb94ce22	-0.0045411745
28	0xbbb9f302	-0.0056747207
29	0xbb28b489	-0.0025742373
30	0x3a6e6d79	0.0009095292
31	0xbb9bbce9	-0.0047527445
32	0x38aec98b	8.334507e-05
33	0x3b9d6950	0.004803814
34	0xbc44c8e2	-0.012010785
35	0xbb31c91b	-0.0027127925
36	0xb89ac4c3	-7.379942e-05
37	0xb8c01855	-9.1598056e-05
38	0xb83c64a4	-4.491642e-05
39	0xb728c852	-1.0060221e-05
40	0xb8ae309e	-8.306022e-05
41	0xb812e39c	-3.502109e-05
42	0xb79fe5b7	-1.9061246e-05
43	0xb8c6127c	-9.444819e-05
44	0xb5b89dec	-1.375503e-06
45	0x3c960b8b	0.018316051
46	0x3cacb8cc	0.021084212
47	0x3c1d2e52	0.009593563
48	0xbc48a982	-0.012247445
49	0x3ca5295b	0.020161321
50	0xbb8fe4a9	-0.004391272
51	0xbcb68e4d	-0.022284651
52	0x3d5d5d2e	0.05404394
53	0x3c8b92d0	0.01703778
54	0x3cc43d13	0.023954904
55	0x3d147544	0.036244646
56	0x3cafe77b	0.021472683
57	0xbd174bde	-0.036937587
58	0x3ce95e7e	0.02848744
59	0xbcb18abc	-0.021672599
60	0xbd352ec8	-0.044234067
61	0x3d4d52bf	0.05012774
62	0x3d428495	0.04748972
63	0xbcc6a67e	-0.024249312
64	0xbd02c445	-0.03192546
65	0xbc6d9478	-0.01450073
66	0x3b86c436	0.0041127456
67	0xbcd465ae	-0.02592739
68	0xbae3cd91	-0.0017379989
69	0x3cbd23c6	0.023088347
70	0xbd838f73	-0.06423845
71	0xbc4dff2d	-0.012573046
72	0xb877769b	-5.899985e-05
73	0xb88f604a	-6.8367066e-05
74	0xb808993b	-3.2567634e-05
75	0xb5fb07d2	-1.8703233e-06
76	0xb885eedd	-6.386426e-05
77	0xb721ad00	-9.6366275e-06
78	0x38183723	3.6290974e-05
79	0xb8ed6707	-0.00011320231
80	0xb7e251a5	-2.6979318e-05
81	0x3bd5ba52	0.0065224553
82	0x3c042b9b	0.008067037
83	0x3b87551b	0.0041300184
84	0xba92b3a4	-0.0011192453
85	0x3be339cf	0.0069343816
86	0x3a67c2e7	0.00088409934
87	0xbb749e82	-0.0037325923
88	0x3c5aaa11	0.013346211
89	0x3b646404	0.0034849653
90	0xbc8d051f	-0.017214356
91	0xbcd4315c	-0.025902443
92	0xbc982b32	-0.018575285
93	0x3bf0ea6a	0.007352163
94	0xbc926e06	-0.017874729
95	0x3a8362b9	0.0010023928
96	0x3c808ed5	0.015693108
97	0xbd6428ef	-0.0557031
98	0xbc3fb994	-0.01170196
99	0xbb437467	-0.002982402
100	0xbb5438f2	-0.0032382575
101	0xba974687	-0.0011541405
102	0xba433b6a	-0.0007447513
103	0xbb4e5405	-0.0031483185
104	0xbad18a0c	-0.0015986576
105	0xba066f11	-0.00051282445
106	0xbb382269	-0.0028096682
107	0xb8d98cdd	-0.00010373604
108	0x3a0f9397	0.00054770097
109	0x3a0a7126	0.00052811427
110	0x388adb49	6.621198e-05
111	0x398b82b6	0.00026609533
112	0x3a18fb0e	0.000583575
113	0x39f7dc76	0.00047275767
114	0x3a026827	0.00049746264
115	0xb781535d	-1.5416817e-05
116	0xb963a5b4	-0.00021710136
117	0xb947e251	-0.00019062428
118	0xb968d1b5	-0.00022203366
119	0xb8e2b40b	-0.000108100554
120	0xb77a9be8	-1.4937461e-05
121	0xb95b30ce	-0.00020903649
122	0xb8127963	-3.4922163e-05
123	0x38e5d8d6	0.0001095996
124	0xb9b2dccb	-0.0003411531
125	0xb8a72319	-7.969718e-05
126	0x3b366132	0.002782893
127	0x3b3c08ce	0.0028691771
128	0x3a65edef	0.00087711116
129	0x3a875932	0.0010326265
130	0x3b435669	0.0029806143
131	0x3ae030e6	0.0017104417
132	0x3a847ca8	0.0010107951
133	0x3af0decb	0.0018376944
134	0xb951bd54	-0.00020002323
135	0xbcb87e5c	-0.02252119
136	0xbd378b97	-0.044810858
137	0xbd4ca90a	-0.049965896
138	0x3a8ef9da	0.0010908202
139	0xbcfd51e2	-0.030922834
140	0xb8ce1088	-9.825925e-05
141	0x3d18cdb8	0.037305564
142	0xbdb4df4b	-0.08831652
143	0xbca72368	-0.020402625

exp_avg_sq f4 [16, 9]
0	0x3a803477	0.0009781261
1	0x3a86eb0a	0.0010293436
2	0x3a928fda	0.0011181787
3	0x3a764a18	0.0009395196
4	0x3a81e25f	0.0009909383
5	0x3a8e3ddc	0.0010852176
6	0x39e93cb5	0.00044486453
7	0x3a8bfb6a	0.0010679786
8	0x3a8fc2f2	0.0010968132
9	0x3c7b890f	0.0153525015
10	0x3c5624aa	0.013070265
11	0x3c11d8a4	0.008901749
12	0x3c761f6d	0.015022141
13	0x3c7dac3f	0.015482961
14	0x3c8436b8	0.016139373
15	0x3bac2f2b	0.0052546463
16	0x3c87fb85	0.016599426
17	0x3c88b2da	0.016686846
18	0x3a48bdf9	0.00076577027
19	0x3a2291ec	0.00062015536
20	0x3a870067	0.0010299803
21	0x3a4bdc58	0.0007776669
22	0x3a4cc3cb	0.0007811158
23	0x3a4e8890	0.0007878626
24	0x39d9d008	0.0004154446
25	0x3a8c885c	0.0010721791
26	0x3a7d5aa8	0.0009664693
27	0x39d7ca00	0.00041158497
28	0x39dc034c	0.00041964126
29	0x39dbdd05	0.00041935607
30	0x39c89b38	0.0003826262
31	0x39da67e8	0.00041657616
32	0x39e5c1fb	0.0004382281
33	0x3960afeb	0.00021427839
34	0x39ddbf2e	0.00042294845
35	0x39ef0e0f	0.00045596107
36	0x36b87402	5.4971324e-06
37	0x36b72398	5.4579687e-06
38	0x36b7043e	5.454319e-06
39	0x36ad4e19	5.1648935e-06
40	0x36b928a4	5.518161e-06
41	0x36bebb73	5.684263e-06
42	0x36603162	3.3407346e-06
43	0x36aaf3ce	5.0947774e-06
44	0x36be77d9	5.6763934e-06
45	0x3bb6b92f	0.005576275
46	0x3bf250fa	0.007394907
47	0x3c06abec	0.0082197
48	0x3baaf459	0.005217117
49	0x3bba6e27	0.0056894007
50	0x3bd8d14c	0.006616747
51	0x3b07d2b9	0.0020724966
52	0x3be7f130	0.0070783123
53	0x3bd34b2d	0.0064481706
54	0x3cd13db7	0.025542123
55	0x3cd4b7ac	0.025966488
56	0x3ceef643	0.029170161
57	0x3cc09f2c	0.023513399
58	0x3cd672c9	0.02617778
59	0x3cda2135	0.026627162
60	0x3c2d5314	0.010578889
61	0x3c83d679	0.01609348
62	0x3cf30efe	0.029670235
63	0x3c251d03	0.010077718
64	0x3c2a6ee0	0.010402411
65	0x3c2906a6	0.0103165265
66	0x3c171ce3	0.009223196
67	0x3c27413a	0.010208422
68	0x3c30ce00	0.010791302
69	0x3b669e08	0.0035189409
70	0x3c2a6d26	0.010402
71	0x3c330f62	0.0109289605
72	0x36f192e8	7.199462e-06
73	0x36fa6912	7.4628124e-06
74	0x36fbeb79	7.5077955e-06
75	0x36de985d	6.633853e-06
76	0x36f3d2a9	7.2664884e-06
77	0x36fe9a27	7.5877356e-06
78	0x369a9339	4.6066966e-06
79	0x36fb4974	7.488934e-06
80	0x3703170a	7.813573e-06
81	0x39fbea95	0.00048049228
82	0x3a013545	0.0004928897
83	0x3a12a59c	0.0005594136
84	0x3a005547	0.000489552
85	0x39fe970e	0.000485592
86	0x3a1235e9	0.0005577491
87	0x39bdd44b	0.0003620706
88	0x3a152b20	0.0005690325
89	0x3a0f1d76	0.0005459407
90	0x3bdb847c	0.006699143
91	0x3bc11cb2	0.0058933133
92	0x3bcd7f4a	0.0062712776
93	0x3bdbad44	0.0067040045
94	0x3bde6f4f	0.0067881714
95	0x3be9c9c3	0.0071346476
96	0x3b915099	0.004434657
97	0x3c0b8275	0.00851499
98	0x3c00902e	0.007846875
99	0x386e9d7c	5.689029e-05
100	0x38686979	5.541134e-05
101	0x38834f3c	6.261325e-05
102	0x387c5266	6.015822e-05
103	0x386fdc29	5.718708e-05
104	0x388be76c	6.671142e-05
105	0x380809d6	3.2434087e-05
106	0x3887401d	6.449244e-05
107	0x38823bee	6.210046e-05
108	0x376f193c	1.4251385e-05
109	0x377116d9	1.4370039e-05
110	0x3783d41f	1.5715194e-05
111	0x37758585	1.4634225e-05
112	0x37701909	1.4310944e-05
113	0x3789b6d8	1.6416816e-05
114	0x37241b1e	9.7814755e-06
115	0x3782028f	1.5498399e-05
116	0x377d964c	1.5114969e-05
117	0x368587da	3.979524e-06
118	0x3684e960	3.961075e-06
119	0x36576fdb	3.2102605e-06
120	0x36835be5	3.914802e-06
121	0x368555c8	3.973695e-06
122	0x36954bab	4.449355e-06
123	0x36a16c18	4.8107577e-06
124	0x368bb86a	4.1639914e-06
125	0x368c97d2	4.1899993e-06
126	0x382fef48	4.19461e-05
127	0x382e2ed1	4.1528434e-05
128	0x383b6fbe	4.4688342e-05
129	0x382d2f5f	4.1290532e-05
130	0x3830dc90	4.2167085e-05
131	0x383e56e5	4.5380457e-05
132	0x37b9bc00	2.2141263e-05
133	0x3824a8ba	3.9257786e-05
134	0x383585e6	4.3278465e-05
135	0x3cc99512	0.024607215
136	0x3cbc88e1	0.023014488
137	0x3cd07704	0.025447376
138	0x3ca540c3	0.020172482
139	0x3ccf1a69	0.025281148
140	0x3cb7e573	0.022448277
141	0x3c1f2bc8	0.009715028
142	0x3caf0267	0.02136345
143	0x3cd94321	0.026521267

exp_avg f4 [16]
0	0xbcb0388c	-0.021511339
1	0xbd9fa3f0	-0.077949405
2	0x3ca875f9	0.020564066
3	0x3c439b74	0.011938918
4	0x38eedadd	0.00011389491
5	0xbd8894ed	-0.0666903
6	0xbe12067e	-0.14260289
7	0x3d7416f0	0.059592187
8	0x390e1038	0.00013548217
9	0xbc7a681d	-0.015283612
10	0x3d5d8e98	0.054091066
11	0x3b6b835d	0.0035936453
12	0xb918482c	-0.00014522736
13	0x39e524a8	0.00043705595
14	0xbb1f626a	-0.0024320134
15	0x3da8b090	0.082368016

exp_avg_sq f4 [16]
0	0x3ab12ace	0.0013516785
1	0x3c97d6eb	0.018535098
2	0x3ac9d4f7	0.0015398551
3	0x3a072ddb	0.00051566743
4	0x36cfad5a	6.1892615e-06
5	0x3c2ba52f	0.010476395
6	0x3d15a686	0.036535762
7	0x3c4fa66b	0.0126739545
8	0x371cb326	9.340036e-06
9	0x3a2ead8e	0.0006663435
10	0x3c1b07f8	0.009462349
11	0x3897b906	7.2347044e-05
12	0x379169de	1.7334645e-05
13	0x368ef4ee	4.2604433e-06
14	0x384cb4d1	4.880579e-05
15	0x3d04f48a	0.032459773

exp_avg f4 [16, 16]
0	0xbac3f663	-0.0014950748
1	0x3bcc373a	0.0062321695
2	0xbb760842	-0.0037541543
3	0x3a38c9fa	0.000704914
4	0x36112b12	2.1631754e-06
5	0x3b812614	0.003941307
6	0x3b8ff37a	0.0043930383
7	0xbb7a60d5	-0.003820469
8	0xb699f4f6	-4.5882725e-06
9	0xbacd5c12	-0.0015667698
10	0xbb15f6b1	-0.0022882635
11	0x39ea1939	0.0004465075
12	0xb887b415	-6.4708445e-05
13	0xb6f5eb4d	-7.3289616e-06
14	0xb9aee39d	-0.0003335745
15	0xbc1e9ecf	-0.009681418
16	0xbadb0e34	-0.0016712607
17	0x3ba9317a	0.005163369
18	0xbbb071b0	-0.0053846464
19	0x3a53b79f	0.0008076373
20	0xb734024f	-1.0729374e-05
21	0xbaa9a11b	-0.001294169
22	0xbacdb28a	-0.0015693468
23	0xba20dac0	-0.0006136112
24	0x3640984f	2.8698885e-06
25	0xbac29152	-0.0014844334
26	0xbba1039f	-0.0049137617
27	0x3a180655	0.00057992834
28	0xb7a65e15	-1.9832552e-05
29	0x377afad0	1.4959558e-05
30	0xba3f6d25	-0.00073023356
31	0xbb46622a	-0.0030270913
32	0x3a95f86a	0.0011441831
33	0xbba9fdd0	-0.0051877275
34	0x3b26b3e3	0.002543681
35	0xba0c0145	-0.00053407653
36	0xb6b9cfe9	-5.5376336e-06
37	0xbb903175	-0.004400427
38	0xbba21020	-0.00494577
39	0x3b797d0b	0.0038068916
40	0x36cadb68	6.0456114e-06
41	0x3aa51074	0.0012593404
42	0x3a97a466	0.001156938
43	0xb9a6bd6f	-0.00031803126
44	0x388ac954	6.617853e-05
45	0x375f6ae7	1.3316726e-05
46	0x392be47b	0.00016392946
47	0x3c18e340	0.009331524
48	0xb36241a7	-5.2679436e-08
49	0x340744f2	1.2597937e-07
50	0xb4020365	-1.2108428e-07
51	0x32941bfb	1.7242192e-08
52	0x2fab2b4f	3.1135491e-10
53	0xb3b19e6b	-8.271021e-08
54	0x31d67d24	6.2424466e-09
55	0xb215590a	-8.693187e-09
56	0xaee63e76	-1.04702844e-10
57	0xb31cfb49	-3.6550123e-08
58	0xb3c32692	-9.087411e-08
59	0x31edb6f5	6.9184076e-09
60	0xb0199d08	-5.588423e-10
61	0x2f73013c	2.210116e-10
62	0xb23dcd80	-1.1047973e-08
63	0xb3d16728	-9.751085e-08
64	0x3b3b2299	0.0028554557
65	0xbc3ad716	-0.01140382
66	0x3bfc62f7	0.007702227
67	0xbab41c6b	-0.0013741379
68	0x3658e8ac	3.232194e-06
69	0xbbafebc5	-0.005368682
70	0xbbc5603b	-0.0060234345
71	0x3bc4387f	0.00598818
72	0x3686aded	4.013759e-06
73	0x3b3d303f	0.0028867868
74	0x3bb03ac2	0.005378098
75	0xba6a04ab	-0.0008927087
76	0x38bf664e	9.1266455e-05
77	0xb63f6f76	-2.8526097e-06
78	0x3a4df690	0.000785687
79	0x3c7d118e	0.01544608
80	0xbb0cab52	-0.002146442
81	0x3c13f960	0.009031624
82	0xbba9685d	-0.005169912
83	0x3a86ac07	0.0010274657
84	0x36adfaf9	5.185019e-06
85	0x3bc6715d	0.0060559944
86	0x3bdf4f67	0.0068148854
87	0xbbbcb847	-0.0057592723
88	0xb6ec608a	-7.0445867e-06
89	0xbb140a33	-0.0022589087
90	0xbb473233	-0.0030394911
91	0x3a269ea0	0.00063560344
92	0xb8ca1c47	-9.637378e-05
93	0xb738900c	-1.1000793e-05
94	0xb9ed5586	-0.00045267883
95	0xbc6c2677	-0.014413468
96	0x39ceadde	0.00039420923
97	0xb6c5f8ba	-5.900013e-06
98	0x3b015a3a	0.0019737617
99	0xb95d9a45	-0.00021133672
100	0x3732c9fb	1.0656654e-05
101	0x3b765221	0.0037585574
102	0x3b8c9ebf	0.004291385
103	0xbb080d76	-0.0020759976
104	0xb6ee893b	-7.1089285e-06
105	0x39569b52	0.00020466492
106	0x3b2430f3	0.002505359
107	0xb94cc1fc	-0.00019527221
108	0xb8168ce0	-3.5893987e-05
109	0xb7ba4c25	-2.2208385e-05
110	0x39ce09d2	0.00039298699
111	0xbb870321	-0.004120246
112	0x3aea7aea	0.0017889414
113	0xbbba1edf	-0.0056799497
114	0x3bbacd39	0.005700734
115	0xba61cba6	-0.0008613415
116	0x3739aa70	1.1066542e-05
117	0x3a836b3c	0.0010026465
118	0x3aa364f8	0.0012466004
119	0x3a6df5ad	0.0009077441
120	0xb62ed64d	-2.605276e-06
121	0x3ad25db2	0.0016049652
122	0x3ba7e9de	0.0051243147
123	0xba20c74e	-0.00061332143
124	0x37c57b37	2.3541606e-05
125	0xb7786d86	-1.4807452e-05
126	0x3a465607	0.00075659197
127	0x3b7742e1	0.0037729072
128	0xb9fd983e	-0.0004836935
129	0x3aae82c2	0.0013314115
130	0xbabe2a88	-0.0014508525
131	0x39709aac	0.00022945803
132	0xb528558d	-6.270937e-07
133	0xba08fd28	-0.00052257115
134	0xba1dcb85	-0.00060194015
135	0xb894d6f3	-7.097227e-05
136	0x332dc213	4.045621e-08
137	0xb9def263	-0.00042523732
138	0xbab1bcf1	-0.0013560337
139	0x393380e1	0.00017118781
140	0xb75bb5ab	-1.3095715e-05
141	0x34b3b2e7	3.3471517e-07
142	0xb96758da	-0.00022062976
143	0xba2ab02c	-0.0006511237
144	0x3b8267bf	0.0039796527
145	0xbc869cfb	-0.016432276
146	0x3c1a0026	0.009399449
147	0xbb00f1d9	-0.0019675402
148	0xb74383b7	-1.1653573e-05
149	0xbc327195	-0.010891338
150	0xbc53b076	-0.01292049
151	0x3c309d85	0.010779743
152	0x3738948b	1.100184e-05
153	0x3b8765fd	0.004132031
154	0x3bae77e6	0.0053243516
155	0xba9ca2e7	-0.0011950404
156	0x393b8ddb	0.00017886555
157	0x37469688	1.1836768e-05
158	0x3a60cc56	0.00085753703
159	0x3cdaa4c2	0.02668989
160	0xba7e7057	-0.0009706071
161	0x3b5b3653	0.0033449128
162	0xbb3854e8	-0.002812678
163	0x39ee7309	0.00045480605
164	0xb66e41e4	-3.5503117e-06
165	0x3a038dd4	0.00050183875
166	0x39f4f569	0.00046722151
167	0xba957c43	-0.0011404831
168	0xb465fec6	-2.1419973e-07
169	0xba739356	-0.0009291669
170	0xbb16f5cb	-0.0023034688
171	0x39aa5742	0.0003248994
172	0xb7f02b94	-2.8630522e-05
173	0x34899cfb	2.5632457e-07
174	0xb9b969e3	-0.00035364841
175	0xbb60d031	-0.003430378
176	0x3abcd4b7	0.0014406656
177	0xbb997b48	-0.0046838857
178	0x3b912efc	0.00443065
179	0xba34dc76	-0.00068993063
180	0x36e7983d	6.9020593e-06
181	0x39866c5f	0.00025639214
182	0x39dbd685	0.00041930765
183	0x3a8b2bb8	0.0010617888
184	0xb53ddf27	-7.0732716e-07
185	0x3aadd1c5	0.0013261369
186	0x3b7d997e	0.0038696225
187	0xba024a59	-0.0004970185
188	0x380c8e8f	3.351137e-05
189	0xb6c1c872	-5.775183e-06
190	0x3a1a14b3	0.0005877718
191	0x3b731b78	0.003709523
192	0xbb81f361	-0.0039657806
193	0x3c8be883	0.017078644
194	0xbbf5c1de	-0.0074999174
195	0x3b0204ac	0.001983921
196	0x38194fbb	3.6552297e-05
197	0x3c88c698	0.01669626
198	0x3c9cb0fe	0.019127365
199	0xbc6899b3	-0.014196801
200	0xb7ad748f	-2.0677484e-05
201	0xbb90d396	-0.0044197543
202	0xbb1e87b9	-0.0024189784
203	0x3a91f571	0.0011135769
204	0xb991fccd	-0.00027844906
205	0xb830756b	-4.2071024e-05
206	0xba2386e8	-0.0006238059
207	0xbd09679e	-0.033546083
208	0x3bb3963e	0.0054805567
209	0xbcb6e558	-0.022326156
210	0x3c5cddab	0.013480584
211	0xbb2e9926	-0.0026641577
212	0xb621a941	-2.4089388e-06
213	0xbc46c2dd	-0.01213142
214	0xbc6e7e59	-0.014556491
215	0x3c581cb2	0.013190435
216	0x3725ec8f	9.8898445e-06
217	0x3bb3c306	0.005485895
218	0x3c119268	0.008885004
219	0xbad4db78	-0.0016239723
220	0x3938f855	0.00017640118
221	0xb5b145e9	-1.3207874e-06
222	0x3aa6d3e8	0.0012727948
223	0x3d07d668	0.033163458
224	0xbbc44813	-0.005990037
225	0x3c9c4866	0.019077491
226	0xbc06a336	-0.008217623
227	0x3b555503	0.0032551892
228	0x38a3f338	7.817749e-05
229	0x3cc2e789	0.023792045
230	0x3cf546c9	0.02994098
231	0xbca8a0a4	-0.020584412
232	0xb789b8cc	-1.6417725e-05
233	0xbbe813f4	-0.0070824567
234	0xba05be95	-0.00051019463
235	0x3b0436c4	0.0020174244
236	0xb9c319df	-0.00037212574
237	0xb66e74cb	-3.5532746e-06
238	0xba5600e1	-0.0008163583
239	0xbd384482	-0.04498721
240	0x3b0eb087	0.00217727
241	0xbc02a978	-0.007974975
242	0x3bd34e34	0.0064485315
243	0xba87bca4	-0.0010355902
244	0x371997ef	9.154885e-06
245	0xbad91119	-0.0016560882
246	0xbadd6d14	-0.001689347
247	0x3b425a45	0.0029655856
248	0xb3d79931	-1.0039583e-07
249	0x3b08ed53	0.002089341
250	0x3baa4204	0.005195858
251	0xba3a718a	-0.00071122556
252	0x3850df30	4.9798924e-05
253	0xb71f9360	-9.511452e-06
254	0x3a452fe6	0.0007522091
255	0x3c0a5304	0.008442644

exp_avg_sq f4 [16, 16]
0	0x386654cd	5.491525e-05
1	0x39872b06	0.00025781262
2	0x3988d1b4	0.00026096182
3	0x378cacce	1.6769769e-05
4	0x358e475d	1.0600594e-06
5	0x3992f81b	0.00028032143
6	0x3986111b	0.00025571216
7	0x384b774f	4.8510086e-05
8	0x352312d6	6.074964e-07
9	0x382c4b58	4.1078165e-05
10	0x39127f28	0.00013971014
11	0x3746dde6	1.1853384e-05
12	0x368c7c19	4.186772e-06
13	0x35213416	6.005297e-07
14	0x3785f920	1.5970843e-05
15	0x3985489a	0.0002542183
16	0x3825e906	3.9556086e-05
17	0x38f56e3f	0.00011703045
18	0x390c8ae2	0.00013403178
19	0x3734e6e7	1.0782597e-05
20	0x34d24ead	3.9172792e-07
21	0x39460c3e	0.00018887312
22	0x390afad5	0.00013254148
23	0x381c7d92	3.7310245e-05
24	0x34895999	2.558343e-07
25	0x37fa4ad8	2.9837174e-05
26	0x389c807c	7.462592e-05
27	0x36c6ca1c	5.9243885e-06
28	0x35fd971b	1.8893946e-06
29	0x349d602c	2.9313503e-07
30	0x37045af9	7.888994e-06
31	0x391f731a	0.000152063
32	0x3886cfd6	6.4283304e-05
33	0x399060f9	0.0002753807
34	0x3999c076	0.0002932583
35	0x379cc958	1.8690407e-05
36	0x358ea446	1.0627634e-06
37	0x39a382dd	0.00031187283
38	0x39906dd8	0.0002754766
39	0x385e2d1d	5.297094e-05
40	0x351e0c0d	5.8877123e-07
41	0x38484e3c	4.7756577e-05
42	0x39236dd7	0.0001558581
43	0x37552033	1.2703286e-05
44	0x369404d3	4.4113053e-06
45	0x352badc8	6.395535e-07
46	0x3790c141	1.7256129e-05
47	0x39912237	0.00027682047
48	0x34afcd01	3.274545e-07
49	0x35400e95	7.1546793e-07
50	0x357d5633	9.437528e-07
51	0x33f5f5c4	1.1453406e-07
52	0x333cb885	4.393998e-08
53	0x358bf97d	1.0428918e-06
54	0x354b5dc0	7.575982e-07
55	0x343d5707	1.7633657e-07
56	0x332dc5bd	4.0459543e-08
57	0x349746a9	2.8177354e-07
58	0x35045c72	4.930836e-07
59	0x33ad9e1b	8.0846995e-08
60	0x33aeda82	8.142253e-08
61	0x318f85da	4.177065e-09
62	0x342b5b9d	1.5958945e-07
63	0x35508c02	7.7689776e-07
64	0x38ee1e70	0.00011354394
65	0x3a1b65b2	0.00059279345
66	0x3a126a75	0.00055853213
67	0x3817113b	3.6017253e-05
68	0x35fe40c9	1.894333e-06
69	0x3a23ef8b	0.0006253651
70	0x3a1a68ac	0.0005890231
71	0x38eb827a	0.000112299764
72	0x3588260d	1.0143864e-06
73	0x38b32ed2	8.544106e-05
74	0x399f884f	0.000304284
75	0x37d66647	2.5558415e-05
76	0x370a8891	8.257238e-06
77	0x35adc3b7	1.2946465e-06
78	0x380bc0ba	3.3319673e-05
79	0x3a17d213	0.00057914964
80	0x38f44e30	0.0001164939
81	0x3a104418	0.0005503311
82	0x3a124131	0.0005579172
83	0x3811d5a1	3.476965e-05
84	0x35ed41c4	1.7677016e-06
85	0x3a1cc93e	0.0005980915
86	0x3a0fb10f	0.0005481401
87	0x38d7a15b	0.00010282054
88	0x3577f255	9.236731e-07
89	0x38b6027d	8.6789e-05
90	0x399ce4e7	0.00029925184
91	0x37ca8eda	2.4146797e-05
92	0x3702fedb	7.807942e-06
93	0x35a1da1e	1.2058915e-06
94	0x38069bf3	3.209333e-05
95	0x3a0ee3c4	0.000545081
96	0x38789670	5.9267913e-05
97	0x3941210b	0.00018418224
98	0x396cff60	0.00022601848
99	0x37823c1e	1.5525202e-05
100	0x3550dd94	7.7808477e-07
101	0x39866a75	0.00025637788
102	0x394b93d8	0.00019414665
103	0x383a3674	4.439657e-05
104	0x3506d661	5.023085e-07
105	0x38376af0	4.3730193e-05
106	0x38f9fa57	0.00011919875
107	0x3717da8a	9.051184e-06
108	0x3655c677	3.1854995e-06
109	0x34f352b7	4.532246e-07
110	0x375508ff	1.2697884e-05
111	0x395ba760	0.0002094782
112	0x38269d90	3.9724226e-05
113	0x3901e9da	0.00012389515
114	0x390f5053	0.00013667466
115	0x3739c4e4	1.1072701e-05
116	0x34ddf3db	4.1341886e-07
117	0x394c5e83	0.00019490164
118	0x391222ef	0.00013936659
119	0x382335ee	3.8912454e-05
120	0x34903112	2.6857794e-07
121	0x37fc248a	3.0057756e-05
122	0x38a09cff	7.658637e-05
123	0x36d0b3c4	6.2198105e-06
124	0x3605009e	1.9818904e-06
125	0x34a4f172	3.0723055e-07
126	0x3709e71c	8.219646e-06
127	0x39264a76	0.00015858733
128	0x36a6f92b	4.9761925e-06
129	0x3764f93a	1.3647887e-05
130	0x378b9fed	1.6644562e-05
131	0x35b762d2	1.3663323e-06
132	0x339f0a3f	7.405878e-08
133	0x37bb1a50	2.230439e-05
134	0x3780ba97	1.5345677e-05
135	0x368f51be	4.271248e-06
136	0x335e1aac	5.171266e-08
137	0x367f1606	3.801078e-06
138	0x371b5ebd	9.260778e-06
139	0x354fbdec	7.738988e-07
140	0x34a48588	3.0644537e-07
141	0x3328ff55	3.934777e-08
142	0x3590d2e0	1.0790209e-06
143	0x3792f325	1.751778e-05
144	0x39d07036	0.00039756455
145	0x3af92895	0.0019009287
146	0x3afd5c4f	0.0019329878
147	0x38f677eb	0.000117525306
148	0x36b0dc2d	5.2708406e-06
149	0x3b076fda	0.0020666034
150	0x3afbd2f5	0.001921265
151	0x39b879d0	0.00035185972
152	0x3632cc7b	2.664309e-06
153	0x399ae866	0.0002954632
154	0x3a881c69	0.0010384443
155	0x38aa7fe2	8.130052e-05
156	0x37ce57b2	2.459795e-05
157	0x36878e1c	4.0398572e-06
158	0x38e0f794	0.00010727267
159	0x3af82c2e	0.0018934065
160	0x3720be23	9.581013e-06
161	0x3834c5ef	4.3099684e-05
162	0x382fff8a	4.196124e-05
163	0x365a9e6e	3.257675e-06
164	0x34b390f0	3.3446804e-07
165	0x385a8d58	5.2106887e-05
166	0x3839a1d2	4.4258144e-05
167	0x3728a4ab	1.005192e-05
168	0x346c4d71	2.2007386e-07
169	0x36f64ad8	7.3400843e-06
170	0x37c07f57	2.294748e-05
171	0x3624935d	2.452368e-06
172	0x358f559b	1.0679245e-06
173	0x33fa5c93	1.1658371e-07
174	0x36688688	3.4649001e-06
175	0x3840d89d	4.5978104e-05
176	0x37a5727d	1.9722846e-05
177	0x389408f6	7.058859e-05
178	0x3898ad78	7.280236e-05
179	0x36c45c84	5.8520254e-06
180	0x3497b278	2.8255795e-07
181	0x38d85d49	0.00010317058
182	0x38a24d07	7.7391094e-05
183	0x37aeb608	2.0827181e-05
184	0x34430af1	1.816477e-07
185	0x377c1a0b	1.5026434e-05
186	0x382caa99	4.1166877e-05
187	0x36728136	3.613602e-06
188	0x35a1c1d2	1.2051844e-06
189	0x343ba76d	1.7476641e-07
190	0x36a13aa9	4.805003e-06
191	0x38b536fa	8.640993e-05
192	0x3a5647be	0.00081741426
193	0x3b5b86d1	0.0033497105
194	0x3b74f5be	0.003737792
195	0x396e19b8	0.0002270703
196	0x371414c7	8.826325e-06
197	0x3b82872f	0.0039834003
198	0x3b68054f	0.0035403555
199	0x3a2bb57e	0.0006550177
200	0x368f8283	4.2769257e-06
201	0x3a1e08d7	0.0006028539
202	0x3b003a1b	0.0019565884
203	0x391d8035	0.00015020448
204	0x383956fe	4.4188455e-05
205	0x36f52ec4	7.307013e-06
206	0x39520057	0.00020027287
207	0x3b6acc11	0.00358272
208	0x3a10672e	0.0005508539
209	0x3b38f8b0	0.0028224401
210	0x3b3298f8	0.002725182
211	0x393079b6	0.00016830009
212	0x36f446c2	7.280004e-06
213	0x3b4294df	0.0029690785
214	0x3b386d68	0.0028141383
215	0x3a075c6a	0.0005163612
216	0x367d2910	3.772384e-06
217	0x39d729be	0.00041039096
218	0x3ac19475	0.0014768975
219	0x38f3efe8	0.00011631829
220	0x3811d402	3.476814e-05
221	0x36c3990e	5.829271e-06
222	0x391e323c	0.00015086768
223	0x3b350bf8	0.0027625542
224	0x3b093fdd	0.0020942606
225	0x3c10b6fa	0.0088326875
226	0x3c25db2d	0.010123056
227	0x3a0ce5ce	0.000537482
228	0x37a82904	2.004626e-05
229	0x3c1eaba3	0.009684476
230	0x3c12c531	0.008958147
231	0x3abe7bdf	0.0014532766
232	0x371de1be	9.410489e-06
233	0x3ac59cfb	0.0015076691
234	0x3bad10ec	0.0052815583
235	0x39b7f76c	0.00035088824
236	0x38d0cddf	9.9565594e-05
237	0x37991acd	1.8251501e-05
238	0x39fdc9ce	0.00048406277
239	0x3c10ea31	0.008844898
240	0x3828aade	4.0213454e-05
241	0x394e7dc2	0.0001969254
242	0x393b6427	0.0001787102
243	0x375da5c1	1.3211219e-05
244	0x354e1fd0	7.6787273e-07
245	0x3971d74e	0.00023063758
246	0x3953c09d	0.00020194282
247	0x383dfc98	4.5296358e-05
248	0x34fa28bd	4.659577e-07
249	0x38013e95	3.081428e-05
250	0x38d21f70	0.00010019436
251	0x3718f069	9.115881e-06
252	0x365020c7	3.1013494e-06
253	0x34f8ec25	4.6365417e-07
254	0x3746e136	1.1854156e-05
255	0x3959cba4	0.00020770595

exp_avg f4 [16]
0	0xbca4633f	-0.020066855
1	0xbbcc6ac2	-0.0062383125
2	0x3c9f4feb	0.019447288
3	0xb4321323	-1.6584504e-07
4	0x3d043b9c	0.03228341
5	0xbcf5e212	-0.030015025
6	0xbc0c0bd6	-0.008547744
7	0x3bff9681	0.007799924
8	0xbaa9030a	-0.0012894582
9	0x3d642bd1	0.05570585
10	0xbbe4675b	-0.0069703287
11	0x3bf9013e	0.007599025
12	0xbd8e62d3	-0.06952443
13	0x3d8e269d	0.06940959
14	0xbdbf2e36	-0.09334986
15	0x3c8fba19	0.017544793

exp_avg_sq f4 [16]
0	0x3a943043	0.0011305887
1	0x3a1bf561	0.0005949345
2	0x3aa26318	0.0012389151
3	0x367a70f9	3.7318662e-06
4	0x3b253030	0.0025205724
5	0x3b1e0d92	0.0024116975
6	0x3a70989a	0.0009178013
7	0x3a21e675	0.00061760034
8	0x38932ede	7.018236e-05
9	0x3c08b0aa	0.008342901
10	0x3948e2fe	0.00019158048
11	0x39aff434	0.00033560547
12	0x3c81388b	0.015774032
13	0x3c45e16c	0.012077671
14	0x3d29d211	0.0414601
15	0x3a5f8b4a	0.00085275306

exp_avg f4 [2, 16]
0	0x3c52d0e3	0.012867185
1	0x3c7a08a4	0.015260849
2	0xbc2ca737	-0.010537914
3	0x34950323	2.7755695e-07
4	0xbcc7c2b0	-0.024384826
5	0x3c92a77a	0.017902125
6	0xbb488e6e	-0.0030602473
7	0xbc863a0e	-0.016385105
8	0x3b8ffc57	0.004394095
9	0xbd03ac2b	-0.032146614
10	0x3c10a45c	0.008828249
11	0xbc5b6220	-0.013390094
12	0x3d18aabf	0.03727221
13	0xbd1212c7	-0.03566244
14	0x3d8c6760	0.06855655
15	0xbca1cb7d	-0.019750351
16	0x3c1e96ff	0.009679555
17	0x3bad4bdf	0.0052885856
18	0xbc1c8148	-0.009552307
19	0x3399941e	7.15156e-08
20	0xbc81bf0b	-0.015838167
21	0x3c63896c	0.013887744
22	0x3b4222ad	0.002962272
23	0xbbc87e10	-0.0061185434
24	0x3ad30ca0	0.0016101785
25	0xbcd4c597	-0.025973124
26	0x3b92e251	0.0044825454
27	0xbbb7b178	-0.0056058727
28	0x3d0b2e4f	0.03397971
29	0xbcd6d6d9	-0.026225494
30	0x3d5961d6	0.05307182
31	0xbc268973	-0.010164606

exp_avg_sq f4 [2, 16]
0	0x3940d205	0.00018388785
1	0x3a459426	0.00075370295
2	0x39672edd	0.00022047335
3	0x368111ec	3.846586e-06
4	0x3a25aace	0.00063197024
5	0x39bd8fe0	0.00036156084
6	0x39dd7595	0.0004224001
7	0x3a4ea71a	0.00078831764
8	0x38cd8844	9.800543e-05
9	0x3aa10792	0.0012285581
10	0x38f86c91	0.000118457836
11	0x39df8f66	0.00042640715
12	0x3b14edfb	0.0022724855
13	0x3ab8905e	0.0014081111
14	0x3bbd2427	0.005772132
15	0x3a2100c9	0.00061417796
16	0x38d8fd34	0.000103468454
17	0x39a1fa15	0.0003089464
18	0x38d7fca8	0.0001029906
19	0x35c555ea	1.4702648e-06
20	0x39b8dd20	0.00035259966
21	0x395a877e	0.00020840575
22	0x3915d0b4	0.00014287495
23	0x39ab766b	0.0003270389
24	0x382ab78c	4.07021e-05
25	0x3a3309a9	0.00068297476
26	0x388128cf	6.1588005e-05
27	0x39451161	0.00018793858
28	0x3a9a5c96	0.001177686
29	0x3a4b2305	0.0007749054
30	0x3b721004	0.0036935816
31	0x3999cd43	0.00029335366

exp_avg f4 [2]
0	0xbdede674	-0.11616221
1	0xbdace46d	-0.08442006

exp_avg_sq f4 [2]
0	0x3d53354b	0.051564496
1	0x3c9ad991	0.018902572
