experiments/fcn_ensembles/lightning_logs/version_11/checkpoints/epoch=0-step=1144.ckpt (torch, 15179 bytes, 18 tensors)

model.net.0.weight f4 [16, 9]
-0.23632787 -0.022802666 0.20877391 0.2594231 0.051008407 -0.18536524 -0.015334712 -0.059839573
0.20453921 0.008732023 0.18384956 0.4441033 -0.35645643 -0.068029225 -0.024233393 -0.019840507
-0.0764771 -0.333204 -0.124403544 -0.17588978 -0.25886014 -0.1254269 -0.091440156 -0.13208781
-0.08526149 0.05684677 0.111326724 0.16328579 0.040223815 -0.032746058 0.21076618 -0.1626798
0.26118305 0.032660753 0.22610353 0.07064576 0.24388252 0.25097588 -0.079405256 -0.03269987
0.105501354 0.060124755 0.08048248 0.04116952 -0.25255772 0.00054072513 -0.24267781 0.44014227
-0.40479043 0.06693149 -0.18036291 0.04188873 0.046311907 0.0011154156 0.30097666 0.45579958
-0.3010157 -0.54244936 -0.002354921 0.058285274 0.032838944 0.5358954 0.19484675 -0.11945724
-0.30352327 0.26772076 0.60726684 -0.10606405 -0.1095752 0.25275734 -0.25668764 -0.1443334
-0.25857008 -0.010277548 -0.20566599 -0.088132024 -0.1419308 -0.05681911 0.15965088 -0.065385446
0.24808803 -0.06544852 -0.03363605 0.3600296 -0.39172256 -0.09681846 -0.24305777 0.25491485
0.22634487 -0.17875428 -0.13498037 0.031815395 -0.21570301 0.24892251 -0.14255944 -0.15926145
0.035588507 0.24037312 0.2504478 0.12264868 -0.19008905 0.27159807 0.19282122 0.19931927
-0.059101857 -0.120318145 0.17215984 0.15926729 0.21146071 -0.25592986 0.17288618 -0.11817267
-0.019431658 -0.18347494 -0.05272503 0.21086313 0.22973587 0.107370675 -0.11448924 -0.04027996
0.17624748 -0.02183199 -0.12583946 0.00064241956 -0.19350383 0.022949846 -0.009664039 0.029932424
-0.12554303 -0.03094209 -0.161959 -0.18887445 0.04617614 0.31711224 -0.29441684 -0.37009618
-0.2818795 0.37681267 0.52329606 -0.36011773 0.20867126 0.09260764 0.24186721 -0.119056866
00000000: efff 71be a8cc babc d4c8 553e 1bd3 843e
00000010: 31ee 503d 63d0 3dbe 723e 7bbc 571a 75bd
00000020: ba72 513e c210 0f3c 0f43 3c3e 8261 e33e
00000030: 7581 b6be e852 8bbd 1c85 c6bc 8f88 a2bc
00000040: 07a0 9cbd b799 aabe 49c7 febd 731c 34be
00000050: 5189 84be e96f 00be fa44 bbbd 0742 07be
00000060: 939d aebd 29d8 683d 44ff e33d 6434 273e
00000070: bac1 243d bb20 06bd 17d3 573e 8995 26be
00000080: c9b9 853e 48c7 053d af87 673e b9ae 903d
00000090: 57bc 793e e97f 803e 399f a2bd 4df0 05bd
000000a0: 1811 d83d 6045 763d 00d4 a43d 5fa1 283d
000000b0: 3f4f 81be 73bf 0d3a 8880 78be 545a e13e
000000c0: b140 cfbe 6113 893d 0eb1 38be 8493 2b3d
000000d0: 8eb1 3d3d 2333 923a 9d19 9a3e 905e e93e
000000e0: bb1e 9abe f6dd 0abf 0555 1abb 8abc 6e3d
000000f0: 2182 063d 7130 093f e885 473e ffa5 f4bd
00000100: 6767 9bbe b212 893e d775 1b3f 1c38 d9bd
00000110: f668 e0bd 6969 813e 906c 83be 23cc 13be
00000120: 4c63 84be 2963 28bc 1b9a 52be 907e b4bd
00000130: 4f56 11be 28bb 68bd 857b 233e cee8 85bd
00000140: ca0a 7e3e e009 86bd f4c5 09bd cd55 b83e
00000150: dc8f c8be c248 c6bd 23e4 78be 3384 823e
00000160: f3c6 673e 5d0b 37be 4b38 0abe dc50 023d
00000170: 40e1 5cbe 8be5 7e3e 1afb 11be 6f15 23be
00000180: 41c5 113d 5f24 763e b23a 803e 3b2f fb3d
00000190: b4a6 42be e70e 8b3e ed72 453e 5a1a 4c3e
000001a0: ca14 72bd 5c69 f6bd ab4a 303e f716 233e
000001b0: 2889 583e 3d09 83be 1309 313e 8304 f2bd
000001c0: 242f 9fbc dbe0 3bbe 33f6 57bd 81ec 573e
000001d0: e13f 6b3e 28e5 db3d 5679 eabd 99fc 24bd
000001e0: 387a 343e 00d9 b2bc 0fdc 00be 0c68 283a
000001f0: de25 46be 5101 bc3c eb55 1ebc d834 f53c
00000200: 5a8e 00be 447a fdbc 95d8 25be 4e68 41be
00000210: 3123 3d3d 895c a23e cebd 96be 3f7d bdbe
00000220: 8352 90be 97ed c03e bbf6 053f 5a61 b8be
00000230: ebad 553e 13a9 bd3d 0aac 773e 16d4 f3bd

model.net.0.bias f4 [16]
0.028808028 -0.1478186 0.0537535 -0.012894185 -0.03326038 -0.004146574 0.11551938 0.033205062
0.014840701 0.07748133 0.024986835 0.07399005 0.0085898535 0.006006284 0.071748964 0.10876402
00000000: d0fe eb3c c25d 17be a12c 5c3d 2242 53bc
00000010: 093c 08bd fcdf 87bb 6d95 ec3d 0802 083d
00000020: 6926 733c 88ae 9e3d 31b1 cc3c 1888 973d
00000030: 75bc 0c3c 5dd0 c43b 1ff1 923d acbf de3d

model.net.2.weight f4 [16, 16]
0.025331248 -0.061594456 -0.33896607 0.05269835 -0.13800183 0.032127347 0.06992275 -0.32205874
0.19892289 0.26742953 0.21357088 0.019246526 -0.24322611 -0.30255044 0.03887136 -0.09725849
-0.20556352 0.1875949 -0.15809283 -0.052771736 -0.32710978 0.051984772 0.0065243794 0.1631079
0.11131286 -0.21233475 0.28275165 -0.27482352 0.08353538 -0.1565898 0.1802591 0.014127419
0.07888519 -0.16130896 0.28968382 0.2862957 -0.04679496 -0.14548677 -0.056328043 0.2125765
0.27192628 0.19058035 0.13378005 0.056937244 -0.23493876 -0.16238816 0.0946115 -0.16453156
-0.00040641206 0.13939056 -0.23897004 -0.101840034 -0.18090093 0.09120034 0.055334985 0.026212899
-0.060419384 -0.054467898 0.076948434 -0.039639987 -0.07130767 0.08378061 0.059556723 -0.06815002
-0.16486825 -0.06348006 -0.016993139 0.10111982 0.15908965 -0.0055747014 -0.30288884 0.08991642
0.12393044 0.0011814849 -0.18842407 0.030082399 -0.08732593 -0.088556126 0.043807514 0.20472963
0.14087778 0.28099117 -0.049952894 -0.21616118 0.1261803 0.17816815 0.23737456 0.035299644
0.1515986 0.07995225 0.00073918764 0.0920324 -0.21474087 0.098417684 0.06020775 0.0008348507
-0.045594584 0.1400715 0.01620603 -0.26969454 -0.12906715 0.20613672 -0.11283186 -0.17636782
0.1607021 0.19167365 -0.21707025 0.13947725 -0.12427812 0.2026464 -0.03427161 0.011590193
0.071995825 -0.2067761 0.1114075 -0.1290075 -0.226956 0.078882776 0.04289784 0.16279827
-0.29963905 -0.06570162 0.12771681 0.208234 -0.16978094 -0.061540652 -0.05031173 -0.093139656
0.046083763 -0.00045929564 -0.005639876 0.07190753 0.061698675 0.081860244 0.03921493 -0.07652991
0.12992418 0.06184689 0.05265146 -0.101352975 -0.022481555 0.19753958 0.017988497 -0.09756621
-0.22533478 -0.088789314 0.1269881 0.022994863 0.0859378 0.068245746 0.054840107 0.3873863
0.0081635965 -0.3250554 0.03900787 -0.05673311 0.1637611 0.16050589 0.019685734 0.26279032
-0.09459837 0.037995867 0.11086615 -0.082584016 0.102882996 0.13297683 0.1937049 -0.148183
0.07343522 0.041904166 0.009032265 0.062390618 0.10125065 -0.19584273 0.04479235 -0.19683336
0.069130816 -0.2004314 0.17435636 -0.11323744 0.094758295 0.09508049 0.018411512 0.14164016
-0.006046425 -0.18003763 -0.15236363 0.1885332 0.063197404 -0.066256344 -0.07555312 0.11364231
-0.086900055 0.20802383 -0.24823943 0.1984734 -0.037215706 0.34183064 0.40262848 -0.010902108
0.08830633 -0.23438519 -0.077562414 -0.1936844 -0.17978995 0.1408558 -0.23928592 -0.14393017
-0.013390335 -0.21870372 -0.11992263 -0.09177751 0.3009249 0.22282992 -0.37576383 -0.18262736
0.16169581 -0.30226383 0.17278545 0.11376221 -0.2058226 0.11008739 -0.31706807 0.15434101
0.21326172 0.41362095 0.16644926 -0.1868102 0.29418606 0.41488197 0.28262597 -0.33163473
-0.17247534 -0.20559473 -0.1895935 -0.05820279 0.23685494 0.10776747 0.1857129 -0.1942344
0.2588901 -0.09300141 -0.22335935 -0.27182528 0.22981317 0.023579253 -0.012853808 -0.018448362
0.25709587 -0.19995564 0.23873591 0.20714632 -0.19646329 -0.031158745 0.087549485 0.23117244
00000000: 7a83 cf3c 784a 7cbd f68c adbe 3ada 573d
00000010: 5a50 0dbe f797 033d a933 8f3d e2e4 a4be
00000020: 71b2 4b3e 86ec 883e 53b2 5a3e e4aa 9d3c
00000030: 4410 79be e4e7 9abe 9337 1f3d 762f c7bd
00000040: 3e7f 52be e118 403e 16e3 21be 2d27 58bd
00000050: ef7a a7be fced 543d 76ca d53b c205 273e
00000060: fff7 e33d 486e 59be d3c4 903e abb5 8cbe
00000070: 9914 ab3d 1459 20be d795 383e b176 673c
00000080: 8f8e a13d 2d2e 25be 7051 943e 5a95 923e
00000090: 12ac 3fbd 7cfa 14be 3cb8 66bd a7ad 593e
000000a0: ec39 8b3e 7f27 433e a3fd 083e 0737 693d
000000b0: c993 70be 1549 26be adc3 c13d f67a 28be
000000c0: b413 d5b9 66bc 0e3e 90b4 74be 8291 d0bd
000000d0: 183e 39be 3ec7 ba3d f0a6 623d 6fbc d63c
000000e0: 517a 77bd bb19 5fbd 2497 9d3d 8a5d 22bd
000000f0: c109 92bd 2b95 ab3d c0f1 733d 3d92 8bbd
00000100: 39d3 28be d501 82bd 3235 8bbc e817 cf3d
00000110: 66e8 223e fcab b6bb 3f14 9bbe 1a26 b83d
00000120: 3ecf fd3d 0edc 9a3a 3df2 40be 5d6f f63c
00000130: f0d7 b2bd ea5c b5bd 826f 333d a5a4 513e
00000140: 4442 103e 13de 8f3e 689b 4cbd 5b59 5dbe
00000150: 6935 013e b671 363e 5112 733e 5c96 103d
00000160: aa3c 1b3e 01be a33d 0bc6 413a 7c7b bc3d
00000170: 08e5 5bbe 368f c93d 679c 763d e2d9 5a3a
00000180: 63c1 3abd e76e 0f3e 82c2 843c 6715 8abe
00000190: 2e2a 04be 8115 533e 6414 e7bd c499 34be
000001a0: 178f 243e 1946 443e aa47 5ebe 20d3 0e3e
000001b0: 8785 febd 8a82 4f3e 6360 0cbd cbe4 3d3c
000001c0: 8c72 933d 1dbd 53be 9e29 e43d 8b1a 04be
000001d0: 2767 68be 4b8d a13d a5b5 2f3d 97b4 263e
000001e0: 4a6a 99be 928e 86bd 32c8 023e 4b3b 553e
000001f0: 0edb 2dbe 0d12 7cbd ac13 4ebd 01c0 bebd
00000200: 54c2 3c3d 9ecd f0b9 b5ce b8bb 4144 933d
00000210: c0b7 7c3d 58a6 a73d d69f 203d b7bb 9cbd
00000220: d80a 053e 2a53 7d3d 0fa9 573d 2692 cfbd
00000230: 3d2b b8bc d147 4a3e 9d5c 933c cbd0 c7bd
00000240: 29be 66be 2cd7 b5bd 2b09 023e b95f bc3c
00000250: 2800 b03d 6dc4 8b3d 05a0 603d 7f57 c63e
00000260: 9bc0 053c a96d a6be b7c6 1f3d fa60 68bd
00000270: fdb0 273e a85b 243e fa43 a13c 748c 863e
00000280: cabc c1bd 8ea1 1b3d cb0d e33d cf21 a9bd
00000290: 52b4 d23d 142b 083e 945a 463e 49bd 17be
000002a0: 3465 963d b4a3 2b3d 11fc 133c 4e8d 7f3d
000002b0: 805c cf3d ff8a 48be 2f78 373d af8e 49be
000002c0: 7594 8d3d e43d 4dbe 798a 323e 08e9 e7bd
000002d0: a310 c23d 8fb9 c23d bdd3 963c 1e0a 113e
000002e0: 1721 c6bb c95b 38be 3605 1cbe d90e 413e
000002f0: a46d 813d 68b1 87bd 98bb 9abd 4dbd e83d
00000300: a8f8 b1bd 3304 553e 7a32 7ebe 9c3c 4b3e
00000310: 7f6f 18bd 6d04 af3e 5225 ce3e c19e 32bc
00000320: f3d9 b43d ac02 70be 0bd9 9ebd 3455 46be
00000330: db1a 38be 813c 103e 5e07 75be 6e62 13be
00000340: 2363 5bbc def3 5fbe ff99 f5bd d9f5 bbbd
00000350: d412 9a3e 872d 643e 1e64 c0be ab02 3bbe
00000360: 9693 253e 53c2 9abe abee 303e 29fc e83d
00000370: 29c3 52be 7f75 e13d bf56 a2be 920b 1e3e
00000380: 4861 5a3e 20c6 d33e ad71 2a3e 2c4b 3fbe
00000390: 8e9f 963e 696b d43e 5ab4 903e 07cc a9be
000003a0: 609d 30be 6d87 52be cc24 42be 0c66 6ebd
000003b0: 1a8a 723e 31b5 dc3d 862b 3e3e 62e5 46be
000003c0: 3e8d 843e 8677 bebd 50b8 64be af2c 8bbe
000003d0: 2554 6b3e 4729 c13c c798 52bc 0521 97bc
000003e0: 12a2 833e 2cc1 4cbe 3077 743e 2a1e 543e
000003f0: ac2d 49be a040 ffbc 254d b33d 78b8 6c3e

model.net.2.bias f4 [16]
0.018787544 -0.114837594 0.045933325 0.08947881 0.060593788 0.018444996 0.07847784 0.12982297
-0.07632809 0.043503176 0.023018718 0.095063604 0.022595841 0.009691817 -0.011467827 0.06480567
00000000: 56e8 993c f92f ebbd 9524 3c3d ab40 b73d
00000010: 3131 783d f619 973c fdb8 a03d 50f0 043e
00000020: e751 9cbd 6330 323d c091 bc3c b5b0 c23d
00000030: ea1a b93c 6dca 1e3c 8de3 3bbc d6b8 843d

model.net.4.weight f4 [2, 16]
0.2835168 -0.16895851 -0.20475966 0.13301963 -0.19596784 0.2445757 0.3490903 0.117233045
-0.07597825 -0.35590714 0.1456234 -0.008057406 0.49246314 -0.44289318 0.6183028 -0.12669893
0.08049755 0.43708923 -0.09735848 -0.073364526 -0.26799008 -0.01340254 -0.30464098 -0.40764597
0.18889639 -0.3988876 0.07743568 -0.25235066 -0.0112848915 -0.3890537 0.22151469 -0.36255437
00000000: 1d29 913e 7603 2dbe 84ac 51be 4c36 083e
00000010: cbab 48be 0d72 7a3e f7bb b23e e117 f03d
00000020: 7c9a 9bbd 7639 b6be 4d1e 153e 3603 04bc
00000030: 2124 fc3e e5c2 e2be 1849 1e3f 5dbd 01be
00000040: e6db a43d 29ca df3e e263 c7bd 2440 96bd
00000050: ff35 89be 5496 5bbc e7f9 9bbe f9b6 d0be
00000060: 0e6e 413e ff3a ccbe 9996 9e3d 1b34 81be
00000070: 44e4 38bc 0c32 c7be bfd4 623e baa0 b9be

model.net.4.bias f4 [2]
0.02090933 -0.12852427
00000000: 0b4a ab3c de9b 03be

exp_avg f4 [16, 9]
0.0026980469 0.0056046564 0.010793309 0.009715838 0.006462342 0.00289793 -0.0019031252 -0.0049016653
-0.00080453785 0.039027028 0.04418137 0.0360987 0.042794853 0.040836606 0.041706953 -0.0024746899
0.0014246098 -0.037968934 -0.0013446757 -0.005781299 -0.010724346 -0.001856903 -0.0014617378 -0.0020801583
0.0013735099 0.0045906217 0.0005990137 0.00198176 0.00038880808 -0.0035955072 -0.00032111435 -0.0018697407
0.0031575446 0.002845305 0.008485248 -0.0009353195 -0.00061837677 -0.003755433 -0.008797093 -0.0040971623
-0.002529808 -0.0043970007 0.0012928209 0.005027818 0.0012295527 0.009561066 0.006046397 0.020403739
0.014297161 0.011751585 0.009942138 -0.0019985468 -0.016297437 -0.0064729545 0.023195598 0.035202455
0.042710938 0.01436291 0.024242278 0.022481164 -0.007485648 -0.020718448 -0.013308661 -0.025505234
-0.027463803 -0.017124146 -0.024298107 -0.0270057 -0.022728836 -0.0018144031 0.0056768213 0.013260314
-0.0038783704 -0.0054742093 -0.011686214 -0.0036577114 -0.0033945723 -0.0031257074 0.0046322597 0.004896875
0.0039516645 0.0104885 0.009829086 0.0116544 0.010173675 0.0109455 0.009297454 0.0059796064
0.0019408347 -0.013575476 -0.005815447 -0.009087072 -0.019294273 -0.004545947 -0.007149954 -0.006310265
0.004880859 0.0067647146 0.00555462 -0.011469393 -0.014418896 -0.005181194 -0.013141127 -0.011448012
-0.015392174 -0.0031709347 0.0031062777 0.016029134 0.009041587 0.0055885366 0.0071098716 0.006212925
0.0069886222 0.0059952037 0.0005693832 0.0046034344 -0.0064832903 -0.0011739001 -0.0018281079 0.0029126497
-0.0007085507 -0.0022599096 -0.0038312366 -0.0013025053 -0.0041638906 0.0035890099 0.009730429 0.009830052
0.0057053436 0.011340168 0.008941963 0.008561566 0.0020259956 -0.0016323422 -0.013543699 -0.027276047
-0.036286652 -0.033961266 -0.024037225 -0.029350245 -0.026012378 0.002048706 0.012724328 0.017122189
00000000: b7d1 303b 44a7 b73b 6bd6 303c 2e2f 1f3c
00000010: 0ec2 d33b 33eb 3d3b 4972 f9ba 269e a0bb
00000020: 9fe7 52ba ceda 1f3d 86f7 343d 3bdc 133d
00000030: a849 2f3d 4944 273d e9d4 2a3d 682e 22bb
00000040: f9b9 ba3a 5085 1bbd d43f b0ba 0d71 bdbb
00000050: 2bb5 2fbc 5363 f3ba c897 bfba 4453 08bb
00000060: 5807 b43a ed6c 963b 2107 1d3a 6ae0 013b
00000070: f0d8 cb39 9aa2 6bbb 3d5b a8b9 1612 f5ba
00000080: cfee 4e3b 4c78 3a3b b605 0b3c 3b30 75ba
00000090: 901a 22ba b61d 76bb af21 10bc 7d41 86bb
000000a0: 23cb 25bb b714 90bb df73 a93a 65c0 a43b
000000b0: f128 a13a 04a6 1c3c db20 c63b be25 a73c
000000c0: a43e 6a3c b889 403c 59e4 223c 0dfa 02bb
000000d0: 3482 85bc 141b d4bb b204 be3c 7330 103d
000000e0: aaf1 2e3d 6952 6b3c be97 c63c 6b2a b83c
000000f0: 2b4a f5bb bcb9 a9bc 920c 5abc 5af0 d0bc
00000100: c5fb e0bc f047 8cbc d30c c7bc 0f3b ddbc
00000110: d331 babc 44d1 edba a104 ba3b ca41 593c
00000120: 422c 7ebb ff60 b3bb 8977 3fbc 37b6 6fbb
00000130: 7977 5ebb abd8 4cbb 36ca 973b f775 a03b
00000140: f77c 813b f5d7 2b3c 2d0a 213c 19f2 3e3c
00000150: 7caf 263c c154 333c 5954 183c 93f0 c33b
00000160: 9b63 fe3a ac6b 5ebc 818f bebb f1e1 14bc
00000170: 060f 9ebc 2bf6 94bb 294a eabb 57c6 cebb
00000180: 9def 9f3b 8aaa dd3b 8803 b63b 1fea 3bbc
00000190: 3c3d 6cbc 01c7 a9bb e24d 57bc 7190 3bbc
000001a0: 752f 7cbc 75cf 4fbb b192 4b3b 884f 833c
000001b0: 2a23 143c 0b20 b73b edf9 e83b cb95 cb3b
000001c0: d000 e53b 6a73 c43b a942 153a 68d8 963b
000001d0: c871 d4bb 8ddd 99ba 1f9d efba 27e2 3e3b
000001e0: 08be 39ba fe1a 14bb 7c15 7bbb d3b8 aaba
000001f0: 3f71 88bb 9835 6b3b 616c 1f3c 3a0e 213c
00000200: e4f3 ba3b 1dcc 393c 5081 123c cf45 0c3c
00000210: 91c6 043b 51f4 d5ba 64e6 5dbc 0472 dfbc
00000220: 50a1 14bd f81a 0bbd b7e9 c4bc ed6f f0bc
00000230: e917 d5bc 9543 063b b379 503c d543 8c3c

exp_avg_sq f4 [16, 9]
0.00090367283 0.0010305825 0.0011981558 0.0010128486 0.0009117687 0.00096385495 0.0010131341 0.0010476842
0.0010338842 0.009438804 0.008568281 0.0052753906 0.0096160695 0.009409713 0.010103938 0.008174175
0.009197965 0.009878868 0.0001001787 7.483508e-05 0.00020529027 0.00013139284 0.00010198341 0.00012245258
3.3237076e-05 0.00017253788 0.0001403623 0.00031715396 0.00033202415 0.0006591464 0.00028332486 0.000324746
0.000296271 0.00025382146 0.0003177156 0.00039489428 0.00019001101 0.00031937702 0.0009020677 0.0002773222
0.0001937651 0.0003217993 8.407397e-05 0.00037609946 0.00027670138 0.0021998612 0.0028281116 0.003066254
0.0019875134 0.00224992 0.0024186536 0.0011680024 0.0025591878 0.0027221176 0.008055024 0.008890882
0.011946037 0.008319694 0.008204341 0.008681544 0.0039893086 0.0058316775 0.009749334 0.0063932477
0.0065746037 0.006415222 0.006187869 0.0064058364 0.0068503777 0.0021411802 0.0058548898 0.006774023
0.00023544786 0.00023712739 0.000624061 0.00023780415 0.00024010861 0.00026092504 0.00014669621 0.00036249644
0.00029448775 0.0015232889 0.0019492613 0.0021699632 0.0015274107 0.0015403427 0.0017912136 0.0006140468
0.0015971968 0.0018687268 0.0010973364 0.001072728 0.0013804078 0.0011260167 0.0011048008 0.001169966
0.00087119144 0.0013764205 0.0012548778 0.0011986796 0.0012000744 0.0017302163 0.0012920836 0.0012063278
0.0013468121 0.00066056335 0.0010583872 0.0014452565 0.0005054216 0.000635838 0.0012770431 0.00055673794
0.0005000417 0.00060243404 0.00017656863 0.000758654 0.0005474007 0.000101786165 0.00011156239 0.00019041229
0.00011940645 0.00010296943 0.00011280322 0.000258422 0.00011036935 0.00013159755 0.0007917934 0.000851729
0.0008810901 0.00082305685 0.0007913526 0.0008988958 0.00025830854 0.0005785659 0.0007955935 0.0050925957
0.005256491 0.005374337 0.0046964553 0.0051489854 0.0051482534 0.0022077411 0.004216399 0.0054884623
00000000: 75e4 6c3a 9c14 873a 700b 9d3a 8fc1 843a
00000010: c303 6f3a 36ab 7c3a 24cb 843a 7352 893a
00000020: 6683 873a 37a5 1a3c fa61 0c3c 2fdd ac3b
00000030: b88c 1d3c 322b 1a3c fd8a 253c faec 053c
00000040: 10b3 163c fada 213c 0817 d238 c7f0 9c38
00000050: 3043 5739 7fc6 0939 eddf d538 9d66 0039
00000060: 0a68 0b38 49eb 3439 382e 1339 af47 a639
00000070: 8713 ae39 91ca 2c3a 388b 9439 ac42 aa39
00000080: d254 9b39 5713 8539 1193 a639 d009 cf39
00000090: b13d 4739 0f72 a739 bd78 6c3a 8e65 9139
000000a0: 6c2d 4b39 2cb7 a839 de50 b038 372f c539
000000b0: 3b12 9139 8c2b 103b d757 393b 35f3 483b
000000c0: f140 023b 6573 133b 4682 1e3b a817 993a
000000d0: 0cb8 273b 8e65 323b 38f9 033c 10ab 113c
000000e0: 50b9 433c 534f 083c 806b 063c 093d 0e3c
000000f0: bfb8 823b a817 bf3b acbb 1f3c 737e d13b
00000100: c66f d73b c836 d23b 9bc3 ca3b 0de8 d13b
00000110: 2279 e03b 0b53 0c3b 60da bf3b a0f8 dd3b
00000120: 8ee2 7639 66a5 7839 0698 233a 115b 7939
00000130: aac5 7b39 c4cc 8839 77d2 1939 730d be39
00000140: 7a65 9a39 18a9 c73a 5b7e ff3a f135 0e3b
00000150: 6633 c83a 53e5 c93a 28c7 ea3a fcf7 203a
00000160: 0859 d13a 11f0 f43a 80d4 8f3a c79a 8c3a
00000170: cdee b43a da96 933a f7ce 903a 8b59 993a
00000180: ab60 643a 0269 b43a b67a a43a 031d 9d3a
00000190: d14b 9d3a 6dc8 e23a 225b a93a a51d 9e3a
000001a0: 8487 b03a a829 2d3a 95b9 8a3a c36e bd3a
000001b0: 457e 043a 5eae 263a 7562 a73a 0df2 113a
000001c0: 3b15 033a aaec 1d3a 4825 3939 68e0 463a
000001d0: 707f 0f3a 0876 d538 9af6 e938 69a9 4739
000001e0: da69 fa38 4bf1 d738 c590 ec38 d07c 8739
000001f0: 1876 e738 73fd 0939 5b90 4f3a 9146 5f3a
00000200: f5f8 663a 69c2 573a c672 4f3a e0a3 6b3a
00000210: 966d 8739 e6aa 173a 608f 503a cadf a63b
00000220: a43e ac3b 351b b03b b9e4 993b d2b8 a83b
00000230: aeb2 a83b c0af 103b b829 8a3b 8fd8 b33b

exp_avg f4 [16]
-0.019885788 -0.022991847 0.009084262 0.015005506 0.011082346 -0.039272103 -0.07247775 0.04202596
0.012702017 -0.017511284 0.024364375 0.0076124026 -0.0017445213 -0.005932839 -0.008773175 0.03303002
00000000: 85e7 a2bc 6659 bcbc 28d6 143c a7d9 753c
00000010: ba92 353c c9db 20bd 376f 94bd 6a23 2c3d
00000020: 1f1c 503c d373 8fbc cc97 c73c 7671 f93b
00000030: 6ca8 e4ba 4368 c2bb 5dbd 0fbc 7c4a 073d

exp_avg_sq f4 [16]
0.0013370438 0.010227152 0.00027359746 0.0007321855 0.0008190311 0.0040858355 0.012327413 0.007293826
0.0007027626 0.0022705582 0.0017435485 0.0017168428 0.0009625384 0.00018077002 0.0007982915 0.006354651
00000000: bf3f af3a c98f 273c a171 8f39 23f0 3f3a
00000010: 3fb4 563a 79e2 853b ebf8 493c 0c01 ef3b
00000020: 9a39 383a a5cd 143b c887 e43a af07 e13a
00000030: dc52 7c3a 158d 3d39 7044 513a ad3a d03b

exp_avg f4 [16, 16]
0.0013420844 0.009059257 -0.014285536 0.0015836364 0.0033320768 -0.0024371583 -0.011263827 0.0027022723
-0.0059718685 -0.0035801514 -0.00528352 0.0029052931 -0.006607682 -0.0021482962 -0.008056198 -0.0016921387
-0.0070026005 -0.0038411757 -0.008185444 0.004565889 0.0042374856 -0.005953245 0.003128831 0.003283324
-0.0057480372 -0.006734571 0.0006580227 -0.0015375558 -0.004359193 -0.0020466563 0.005034772 0.002539384
0.00025291546 -0.0079108905 0.011043724 0.002028525 -0.0040078135 0.00089279725 0.0076473188 -0.0019677177
0.008891127 0.0065587866 0.0066650407 -0.0017459216 0.00074018637 -0.0020551498 0.0067458213 -0.0013876042
0.0015972712 0.0060780984 -0.004237891 -0.0020423052 -0.0023350217 0.0016722922 -0.004111581 0.0017034303
-0.00137695 -0.001365775 -0.0009858264 0.00013191393 -0.00065472233 0.0011779238 -0.00299511 -0.0015531218
-0.000823912 -0.007618657 0.012768578 -0.0021018407 -0.005843329 0.004757889 0.006469036 -0.0050646956
0.011675113 0.00687916 0.005945094 -0.0030728364 0.0049213003 -0.0010653973 0.006738034 0.000994169
0.0026414625 0.0115243485 -0.008704457 -0.0015026005 0.0046419455 0.00037940592 -0.006385872 0.004871854
-0.0043615443 -0.0028387792 -0.0057759 0.003251275 -0.005000764 0.001235982 -0.0060608853 -0.00032276183
0.0037047935 0.011532406 -0.0027477213 -0.0053542005 -0.003257884 0.0037296782 -0.012957666 0.0025559282
0.0009328177 -0.00091202144 -0.0059347027 0.0017581107 -0.001373797 0.0037483776 -0.00935883 -0.0021900118
0.0047954936 0.0010567671 0.00960572 -0.0061710975 -0.0103170695 0.0062228157 -0.00091234763 -0.00069307897
0.005301276 0.0034498845 0.0051516662 -0.0001288409 0.0035613573 0.00010981064 -0.0022086562 -0.0037212623
-0.001628459 -0.002332875 -0.0031942315 0.0029562772 0.004085268 -0.0016860191 0.0019483388 -0.00016918246
-0.0019436305 -0.0009986049 -0.0006660473 -0.00031086119 -0.0024566061 0.0016439852 0.0016400407 0.00020246314
-0.0009410756 -0.011955689 0.022676725 -0.0049812207 -0.0116506675 0.009655808 0.018296981 -0.0066951336
0.017535731 0.010143118 0.013080822 -0.0059880135 0.011474463 0.00037441237 0.011419311 0.0016987389
-0.0007786626 0.0047833775 -0.005248909 0.00020824489 0.0041570645 -0.0009500501 -0.0042978413 0.0018370596
-0.0041264314 -0.003588857 -0.0038676125 0.0023183897 -0.0016421609 -0.0014831052 -0.0038104726 -0.0022011828
0.0028070018 -0.0024700786 0.009267352 -0.004190315 -0.0047674053 0.0049181646 0.0024610849 -0.0013580963
0.0066369995 0.0022648908 0.0023456162 -4.959753e-06 0.004669774 -0.00049037806 0.00030864083 -0.00022066692
0.0027134262 0.018965239 -0.015931832 0.0011182488 0.0033278747 0.0028344751 -0.014450551 0.007164641
-0.0077764275 -0.008155296 -0.010238865 0.0014620777 -0.005080122 0.0020837053 -0.014873831 -0.0021406827
0.0010510245 -0.019807715 0.025632808 -0.007312358 -0.012496192 0.010706249 0.015453892 -0.01435493
0.023063816 0.009356687 0.018477522 -0.0060420693 0.009472382 0.0011159015 0.009674138 -0.00085151603
0.0025939615 0.023445513 -0.026173523 0.004426306 0.018449688 -0.0059695435 -0.023349436 0.012334274
-0.024145143 -0.018412936 -0.01930017 0.007121665 -0.010015748 0.0030525615 -0.015183828 -0.0007911113
0.004466401 -0.0055461708 0.0115653705 -0.0066999295 -0.006503192 0.006137608 0.008337114 -0.006241528
0.014105499 0.005863916 0.010366957 -0.0013433411 0.0046682023 -0.0006756373 0.0060934382 0.0009307984
00000000: e1e8 af3a 476d 143c e10d 6abc 0592 cf3a
00000010: f95e 5a3b bbb8 1fbb ea8b 38bc 9b18 313b
00000020: aaaf c3bb f9a0 6abb 6121 adbb bb66 3e3b
00000030: 4185 d8bb 6eca 0cbb 25fe 03bc c1ca ddba
00000040: 1276 e5bb 3cbc 7bbb 3e1c 06bc 749d 953b
00000050: 9bda 8a3b 7013 c3bb 130d 4d3b 092d 573b
00000060: 085a bcbb adad dcbb 287f 2c3a d087 c9ba
00000070: 90d7 8ebb 3221 06bb bbfa a43b cb6b 263b
00000080: bd99 8439 ae9c 01bc bcf0 343c 01f1 043b
00000090: fa53 83bb 9c0a 6a3a 5c96 fa3b d3f4 00bb
000000a0: 17ac 113c 17eb d63b 6a66 da3b 68d7 e4ba
000000b0: 1109 423a b1af 06bb 0d0c dd3b 45e0 b5ba
000000c0: 875b d13a c92a c73b 02de 8abb 32d8 05bb
000000d0: 2a07 19bb d130 db3a 71ba 86bb a345 df3a
000000e0: c67a b4ba ce03 b3ba d836 81ba 6052 0a39
000000f0: aca1 2bba 9064 9a3a 9b49 44bb 1f92 cbba
00000100: ccfb 57ba eda5 f9bb 4c33 513c 09bf 09bb
00000110: 6579 bfbb 11e8 9b3b 35fa d33b bff5 a5bb
00000120: f948 3f3c 946a e13b 10cf c23b a461 49bb
00000130: dc42 a13b cda4 8bba baca dc3b c74e 823a
00000140: 631c 2d3b 9fd0 3c3c 249d 0ebc e8f2 c4ba
00000150: 761b 983b 00eb c639 9440 d1bb 13a4 9f3b
00000160: 49eb 8ebb d00a 3abb c343 bdbb 5813 553b
00000170: 73dd a3bb ad00 a23a 649a c6bb 5c38 a9b9
00000180: 1fcc 723b 6bf2 3c3c 1d13 34bb 4a72 afbb
00000190: 3982 55bb 9e6d 743b 644c 54bc 5c81 273b
000001a0: 5688 743a b914 6fba e577 c2bb 6870 e63a
000001b0: fa10 b4ba 57a7 753b c755 19bc 4d86 0fbb
000001c0: 8423 9d3b 3883 8a3a 4f61 1d3c eb36 cabb
000001d0: ed08 29bc c3e8 cb3b 9d2a 6fba beaf 35ba
000001e0: 54b6 ad3b 7517 623b 4fcf a83b 7719 07b9
000001f0: a965 693b 234a e638 1abf 10bb 6ce0 73bb
00000200: 0472 d5ba 26e3 18bb 5056 51bb 1abe 413b
00000210: b6dd 853b 6afd dcba 675f ff3a 9266 31b9
00000220: 6bc1 feba 9fe3 82ba ad99 2eba 15fb a2b9
00000230: 03ff 20bb fd7a d73a a2f6 d63a 494c 5439
00000240: 84b2 76ba cbe1 43bc 8ac4 b93c 8239 a3bb
00000250: 71e2 3ebc 6533 1e3c 8de3 953c da62 dbbb
00000260: 18a7 8f3c 522f 263c f250 563c 1937 c4bb
00000270: 63ff 3b3c c74c c439 1018 3b3c 38a8 de3a
00000280: 2a1f 4cba e1bd 9c3b 0aff abbb 505c 5a39
00000290: fc37 883b c80c 79ba e8d4 8cbb 7ec9 f03a
000002a0: 0437 87bb 0733 6bbb c577 7dbb 20f0 173b
000002b0: c73d d7ba c164 c2ba 1fb9 79bb b841 10bb
000002c0: adf5 373b 0be1 21bb 17d6 173c e94e 89bb
000002d0: e537 9cbb 8e28 a13b 274a 213b 2602 b2ba
000002e0: 307b d93b 906e 143b e9b8 193b f46b a6b6
000002f0: e704 993b b78c 00ba 12d1 a139 d362 67b9
00000300: bdd3 313b fd5c 9b3c 7983 82bc 3492 923a
00000310: 7918 5a3b 9ac2 393b 01c2 6cbc 5dc5 ea3b
00000320: 67d1 febb ca9d 05bc eac0 27bc 30a3 bf3a
00000330: 2777 a6bb c68e 083b 5eb1 73bc b24a 0cbb
00000340: 88c2 893a ca43 a2bc e5fb d13c 819c efbb
00000350: d4bc 4cbc 4369 2f3c 5232 7d3c f130 6bbc
00000360: 54f0 bc3c ca4c 193c 2c5e 973c 8dfc c5bb
00000370: 0d32 1b3c 7143 923a 4780 1e3c 4638 5fba
00000380: 74ff 293b ce10 c03c db69 d6bc 8c0a 913b
00000390: cd23 973c 299c c3bb 5147 bfbc b215 4a3c
000003a0: 09cc c5bc bad6 96bc 641b 9ebc db5c e93b
000003b0: 1819 24bc 7c0d 483b 97c5 78bc 9562 4fba
000003c0: e35a 923b a7bc b5bb ae7c 3d3c 158b dbbb
000003d0: ba18 d5bb fd1d c93b 6498 083c bb85 ccbb
000003e0: c01a 673c 1826 c03b 2bda 293c 0c13 b0ba
000003f0: b8f7 983b 401d 31ba 77ab c73b d300 743a

exp_avg_sq f4 [16, 16]
0.00032658107 0.00068554113 0.0014543666 0.0008920564 0.0014555653 0.0006745982 0.0005202818 0.00025995908
0.0013061038 0.0005867479 0.0005457056 0.00031972124 0.00058232027 0.0004195503 0.00025057947 0.0005331316
0.00019924522 0.0003973736 0.0006716309 0.0004633903 0.0006867397 0.00046260303 0.00028422702 0.00015381323
0.0005664315 0.0004266577 0.0002318723 0.00014230632 0.0003120775 0.0002525194 0.00013787475 0.00026820812
0.0001682378 0.00033163652 0.00071300735 0.00046182584 0.0007178341 0.00036446674 0.0002831738 0.00014606239
0.00065151975 0.00032413952 0.0002609341 0.00016580499 0.00030085247 0.00021819888 0.00013888818 0.00030033203
4.176522e-05 6.807742e-05 0.00014769836 9.876295e-05 0.00016627825 8.2064005e-05 6.144434e-05 2.7908218e-05
0.00013275033 6.964047e-05 5.6129258e-05 3.278051e-05 6.7761925e-05 4.6715355e-05 3.0008217e-05 5.322206e-05
0.0002458248 0.000615686 0.0011042499 0.0006696176 0.0010562625 0.00055116566 0.00041525377 0.00022232908
0.0009743364 0.0004841803 0.00040345243 0.0002612245 0.0003997578 0.0003252032 0.00020982068 0.00044176925
0.00018158685 0.0003152047 0.0007529821 0.0004825917 0.0007775138 0.00034734778 0.00029137323 0.00013860448
0.0006814288 0.0002913794 0.00027293988 0.00016399602 0.00032096743 0.00022992157 0.0001343165 0.0002646984
0.00020144238 0.00041027143 0.00084692665 0.0005056146 0.00085314625 0.0003985262 0.00034276056 0.000154326
0.0007380192 0.000391965 0.00034087832 0.00017466523 0.00037992466 0.00027963147 0.00015952105 0.00029669557
0.00015788572 0.00029890126 0.00050877413 0.00035003095 0.0005457811 0.00038236653 0.00023091391 0.00012542025
0.00045689257 0.00034197574 0.00019391203 0.00011842977 0.00026604848 0.00016009907 0.00011491823 0.00022746787
3.7828777e-05 7.247761e-05 0.00011877539 8.2769686e-05 0.00012795876 9.1471244e-05 5.7957994e-05 3.1582647e-05
0.000104030194 8.635e-05 4.4677043e-05 2.5629797e-05 6.420276e-05 4.6804806e-05 2.59039e-05 5.050614e-05
0.0008334226 0.0019782768 0.0040376796 0.0024510315 0.0038284021 0.0018132076 0.001453194 0.0007917794
0.0035473558 0.0016103659 0.0015092066 0.0009248038 0.00153427 0.0012204961 0.0007069231 0.0015502576
8.243226e-05 0.0001676311 0.00034342677 0.00021183617 0.00035102898 0.00016932546 0.00012623383 6.038055e-05
0.00031402498 0.00013667592 0.00012609849 8.261254e-05 0.00013174259 9.583904e-05 6.105257e-05 0.00013092757
5.6716057e-05 0.00015007006 0.00023728168 0.00014989477 0.00022475711 0.00014787106 9.373279e-05 6.0175185e-05
0.0002059216 0.00012988895 8.954164e-05 5.7953053e-05 9.8159e-05 6.839219e-05 4.731773e-05 0.00010215623
0.0006312327 0.0012682335 0.0026253883 0.0016860868 0.0027166435 0.0013160238 0.0010465374 0.0005237158
0.002379981 0.0011446865 0.00092070474 0.0006259265 0.0010631491 0.00080504053 0.0005172142 0.0010345706
0.0010975733 0.002541005 0.005145118 0.0031764812 0.0049949023 0.0024132193 0.0018382098 0.0010463744
0.004588681 0.0020397683 0.001911158 0.0011990486 0.0019639384 0.0015141421 0.00089265633 0.0019809657
0.0013394981 0.0026154588 0.005735156 0.0035100784 0.0058059436 0.0027208491 0.0021528637 0.0010582133
0.0051838397 0.0023257937 0.0021306102 0.0012808784 0.0022791182 0.0016100503 0.0010380849 0.0021260737
0.00028797452 0.0007794934 0.0013994054 0.0008407915 0.0012905824 0.0006805878 0.0004911156 0.00030701925
0.0012154587 0.0006151944 0.0005431441 0.00030995815 0.00053933443 0.000423252 0.00025528693 0.00055134064
00000000: f838 ab39 e3b5 333a 72a0 be3a e4d8 693a
00000010: abc8 be3a 85d7 303a 8563 083a 1e4b 8839
00000020: 9231 ab3a fccf 193a af0d 0f3a 42a0 a739
00000030: daa6 183a 17f7 db39 3560 8339 dbc1 0b3a
00000040: 7bec 5039 9556 d039 6310 303a 31f3 f239
00000050: 5206 343a 8789 f239 4e04 9539 ed48 2139
00000060: 937c 143a 07b1 df39 bf22 7339 1038 1539
00000070: 559e a339 9564 8439 7992 1039 499e 8c39
00000080: fe68 3039 80df ad39 1de9 3a3a 3721 f239
00000090: 082d 3c3a e615 bf39 f276 9439 5328 1939
000000a0: c0ca 2a3a 45f1 a939 fbcd 8839 f0db 2d39
000000b0: bcbb 9d39 51cc 6439 83a2 1139 e275 9d39
000000c0: 102d 2f38 c9c4 8e38 7adf 1a39 f41e cf38
000000d0: fa5a 2e39 c719 ac38 aedb 8038 711c ea37
000000e0: e532 0b39 f10b 9238 556c 6b38 ce7d 0938
000000f0: 681b 8e38 3bf0 4338 28ba fb37 c03a 5f38
00000100: 0ce2 8039 fd65 213a 7abc 903a 4789 2f3a
00000110: 4a72 8a3a 1a7c 103a 6bb6 d939 0221 6939
00000120: 9c6a 7f3a 94d9 fd39 7886 d339 f5f4 8839
00000130: 9596 d139 0980 aa39 4f03 5c39 449d e739
00000140: 5968 3e39 0f42 a539 c663 453a 5d04 fd39
00000150: 11d2 4b3a 3b1c b639 74c3 9839 5b56 1139
00000160: eaa1 323a 48c4 9839 5f19 8f39 59f6 2b39
00000170: 8547 a839 1a17 7139 50d7 0c39 38c7 8a39
00000180: 473a 5339 b319 d739 4904 5e3a 398b 043a
00000190: ada5 5f3a 48f1 d039 8bb4 b339 92d2 2139
000001a0: a177 413a a780 cd39 eab7 b239 5726 3739
000001b0: a030 c739 809b 9239 1b45 2739 ce8d 9b39
000001c0: 208e 2539 d9b5 9c39 415f 053a 5c84 b739
000001d0: c012 0f3a 5e78 c839 7b21 7239 3e83 0339
000001e0: 158b ef39 354b b339 dd54 4b39 805d f838
000001f0: 6c7c 8b39 44e0 2739 4100 f138 7184 6e39
00000200: 57aa 1e38 1fff 9738 0d17 f938 a394 ad38
00000210: ab2c 0639 40d4 bf38 ec17 7338 9c77 0438
00000220: c92a da38 ce16 b538 9c63 3b38 92ff d637
00000230: 98a4 8638 4750 4438 344c d937 8ed6 5338
00000240: 0b7a 5a3a faa5 013b 834e 843b 7ca1 203b
00000250: eee5 7a3b 27a9 ed3a 1979 be3a 6b8f 4f3a
00000260: c17a 683b ea12 d33a 92d0 c53a 886e 723a
00000270: 8f19 c93a 0ef9 9f3a ce50 393a 0332 cb3a
00000280: 7cdf ac38 21c6 2f39 f60d b439 5720 5e39
00000290: 500a b839 f58c 3139 a35d 0439 1f41 7d38
000002a0: b8a3 a439 aa50 0f39 4e39 0439 4540 ad38
000002b0: 6224 0a39 31fd c838 5909 8038 9a49 0939
000002c0: 67e2 6d38 205c 1d39 d1ce 7839 122d 1d39
000002d0: c7ac 6b39 d60d 1b39 6992 c438 9d64 7c38
000002e0: a9ec 5739 cd32 0839 4dc8 bb38 9e12 7338
000002f0: b6da cd38 c76d 8f38 0777 4638 b53c d638
00000300: 4f79 253a db3a a63a b50e 2c3b afff dc3a
00000310: b709 323b 6e7e ac3a f82b 893a f949 093a
00000320: 75f9 1b3b 4e09 963a 735b 713a 3715 243a
00000330: 5d59 8b3a 5b09 533a a895 073a 6e9a 873a
00000340: 73dc 8f3a fd86 263b 6198 a83b 832c 503b
00000350: 47ac a33b 1a27 1e3b 16f0 f03a 8026 893a
00000360: a55c 963b a2ad 053b d27f fa3a 6529 9d3a
00000370: 6bb5 003b 2e76 c63a 2701 6a3a 17d3 013b
00000380: 1992 af3a 1e68 2b3b faed bb3b 5809 663b
00000390: c93f be3b 4650 323b 0f17 0d3b bfb3 8a3a
000003a0: 33dd a93b 586c 183b b5a1 0b3b 26e3 a73a
000003b0: 425d 153b 5308 d33a 5910 883a 9955 0b3b
000003c0: 49fb 9639 eb56 4c3a 416c b73a 9068 5c3a
000003d0: c228 a93a 7969 323a 36be 003a 6df7 a039
000003e0: 0750 9f3a ff44 213a c961 0e3a e181 a239
000003f0: 1f62 0d3a ece7 dd39 08d8 8539 d887 103a

exp_avg f4 [16]
-0.029832434 0.01606297 0.019069638 -0.013710949 0.02030297 -0.023434395 -0.033697866 -0.012498719
0.007734824 0.03681919 -0.014450556 0.0010404491 -0.051576186 0.046355512 -0.058766704 0.013681653
00000000: 2663 f4bc 7d96 833c ee37 9c3c e3a3 60bc
00000010: 6a52 a63c 7df9 bfbc c606 0abd 6dc7 4cbc
00000020: 6874 fd3b b8cf 163d 06c2 6cbc ae5f 883a
00000030: 8d41 53bd 47df 3d3d 5bb5 70bd 0329 603c

exp_avg_sq f4 [16]
0.0032872057 0.0017206508 0.0016452532 0.0003803737 0.0025961727 0.0017670492 0.0022708918 0.0012880435
0.0003146077 0.008661786 0.0007978582 0.0005266303 0.0066450024 0.01126437 0.013188349 0.0030125345
00000000: 296e 573b 7687 e13a 89a5 d73a e56c c739
00000010: 8d24 2a3b 559c e73a 3ed3 143b 91d3 a83a
00000020: eef1 a439 2aea 0d3c 5c27 513a 900d 0a3a
00000030: 52be d93b 318e 383c f213 583c f16d 453b

exp_avg f4 [2, 16]
-0.012617797 0.0058448534 -0.025695963 7.714824e-05 0.0039714905 0.001789283 0.0006221951 -0.014171028
-5.3695578e-05 -0.009339019 -0.017028868 -0.011197438 0.0098116575 0.0126903495 0.0041768323 -0.007945004
-0.005494546 -0.0038040457 -0.011449904 0.0012218946 0.009277426 -0.0054127974 -0.013498936 -0.003415751
-0.004955006 0.0012103473 -0.010129237 -0.0009847872 0.005132908 0.0062922677 -0.006426537 0.0004664244
00000000: e0ba 4ebc 2f86 bf3b 5780 d2bc a5ca a138
00000010: 4723 823b 6086 ea3a ce1a 233a 992d 68bc
00000020: 3037 61b8 af02 19bc 2080 8bbc 7675 37bc
00000030: 13c1 203c 2feb 4f3c cfdd 883b c32b 02bc
00000040: 980b b4bb 4c4d 79bb 6198 3bbc fb27 a03a
00000050: 5800 183c d65d b1bb a42a 5dbc cbda 5fbb
00000060: 9a5d a2bb 84a4 9e3a 19f5 25bc fa13 81ba
00000070: f431 a83b 5e2f ce3b b395 d2bb 6c8a f439

exp_avg_sq f4 [2, 16]
0.000958319 0.0018907143 0.0022127884 0.0008176448 0.0022917804 0.0014780967 0.005660729 0.002122822
0.0016269137 0.0009241224 0.0017798094 0.0010794007 0.00276132 0.0011612161 0.0016619131 0.00086078176
0.00041697483 0.0006905382 0.0007609542 0.0002809078 0.00090513966 0.0006642805 0.0017726806 0.00077925774
0.0006039282 0.0006411673 0.0006445893 0.00037565033 0.00078331376 0.00044404445 0.0009728445 0.00041758813
00000000: b337 7b3a d8d1 f73a 6e04 113b 3757 563a
00000010: b231 163b b2bc c13a a37d b93b 0b1f 0b3b
00000020: 2a3e d53a ce40 723a 7e48 e93a ad7a 8d3a
00000030: 43f7 343b f233 983a 8dd4 d93a 16a6 613a
00000040: 6a9d da39 3c05 353a c67a 473a cf46 9339
00000050: e546 6d3a 1c23 2e3a 4a59 e83a 1a47 4c3a
00000060: ef50 1e3a 0214 283a a8f9 283a eff2 c439
00000070: 4c57 4d3a a3ce e839 7d06 7f3a bbef da39

exp_avg f4 [2]
-0.108738944 0.002644457
00000000: 86b2 debd a04e 2d3b

exp_avg_sq f4 [2]
0.032994907 0.010026834
00000000: ab25 073d 9747 243c
