experiments/fcn_ensembles/lightning_logs/version_11/checkpoints/epoch=16-step=19448.ckpt (torch, 15179 bytes, 18 tensors)

model.net.0.weight f4 [16, 9]
0.0003468031 0.010443284 0.01795604 -0.083003365 -0.036650177 0.0046961103 0.008683595 -0.049001295
0.017103525 0.14543231 0.26107684 0.3121175 -0.39512733 0.013184049 0.15548396 0.13768594
-0.19178799 -0.10717057 -0.15078561 -0.15676273 -0.1506507 -0.020171003 -0.0942831 -0.15533888
-0.0021571435 0.06208732 0.002063509 0.0022119593 0.003342085 -0.0011673752 0.002432696 0.0014906941
0.0024838143 0.00096749683 0.00049734954 0.008073138 0.002252572 0.0015129658 -0.0017268629 0.0031198864
0.001990109 0.0011735276 0.0006943194 -0.00094448787 0.005521996 0.0011157872 0.100628525 0.37550515
-0.25037122 -0.14636777 -0.10434137 -0.21194245 0.1016649 0.20258749 0.101341635 0.16775997
-0.12613715 -0.41978317 -0.25254005 -0.20773302 0.04806582 0.93397766 -0.15637176 -0.12549295
-0.14874814 -0.07140265 0.286125 0.014956058 -0.0879562 0.22082855 0.097911865 -0.010037031
0.004881328 0.00051164493 -0.0023792228 0.00535145 0.004076007 0.002545949 -0.0055269883 -0.0032685625
0.007905798 -0.02534062 -0.009483158 -0.025974432 -0.058181442 -0.030423785 -0.020866994 0.040486917
0.00089021056 0.008821725 -0.18035771 -0.18356274 -0.14320287 0.21651152 -0.06940167 -0.21733326
-0.00011472443 0.19647044 -0.050999496 0.0031814391 0.00044684747 -0.003320648 0.0037279576 0.0027874927
0.0009777434 -0.00079273613 -0.0015650303 0.0068267267 -0.0050456547 -0.001303 -0.0013693784 -0.0065636686
-0.00415943 -0.0032581282 0.010087795 0.005558557 -0.004701745 -0.009220589 -0.0021679567 -0.009016602
-0.015700975 -0.008587022 -0.0073359776 0.02230794 0.0087177465 -0.002134843 -0.0037430369 -0.00050640444
0.002813276 -0.0041683717 -0.0032104535 -0.0014493992 0.0024309482 0.0022814656 -0.0068671294 -0.48952413
-0.22068827 0.36452278 0.5035048 -0.28050116 0.52514374 0.078761354 0.15227968 0.1034426
00000000: 20d3 b539 4f1a 2b3c 8c18 933c abfd a9bd
00000010: 7f1e 16bd d4e1 993b a345 0e3c 95b5 48bd
00000020: b11c 8c3c 35ec 143e ddab 853e ddcd 9f3e
00000030: 214e cabe e901 583c 3037 1f3e 8bfd 0c3e
00000040: 1264 44be 3e7c dbbd 8b67 1abe 6986 20be
00000050: 2d44 1abe a93d a5bc 7f17 c1bd 2811 1fbe
00000060: dd5e 0dbb 464f 7e3d f03b 073b 85f6 103b
00000070: e206 5b3b 9d02 99ba de6d 1f3b 6563 c33a
00000080: 7dc7 223b 9d9f 7d3a 9060 023a 3245 043c
00000090: e39f 133b b54e c63a e757 e2ba 0277 4c3b
000000a0: 7d6c 023b 0dd1 993a fc02 363a 8297 77ba
000000b0: dcf1 b43b 9b3f 923a 5416 ce3d 3642 c03e
000000c0: a830 80be 6fe1 15be eeb0 d5bd 7107 59be
000000d0: b035 d03d 1873 4f3e 348c cf3d 45c9 2b3e
000000e0: 192a 01be d2ed d6be ee4c 81be f7b7 54be
000000f0: aae0 443d 2919 6f3f eb1f 20be 3981 00be
00000100: 6f51 18be 8d3b 92bd fa7e 923e 410a 753c
00000110: 6122 b4bd e120 623e 0486 c83d 5c72 24bc
00000120: 8cf3 9f3b e91f 063a bcec 1bbb 375b af3b
00000130: 0690 853b f0d9 263b bd1b b5bb 6135 56bb
00000140: 5287 013c 2297 cfbc 3f5f 1bbc 55c8 d4bc
00000150: aa4f 6ebd 4d3b f9bc 42f1 aabc 9cd5 253d
00000160: 055d 693a ff88 103c b1af 38be dff7 3bbe
00000170: c6a3 12be 32b5 5d3e 7622 8ebd 9c8c 5ebe
00000180: 3698 f0b8 8c2f 493e d9e4 50bd b17f 503b
00000190: da46 ea39 3b9f 59bb c050 743b 5eae 363b
000001a0: a027 803a 9fcf 4fba b421 cdba bcb2 df3b
000001b0: 0556 a5bb 6dc9 aaba b77c b3ba 0b14 d7bb
000001c0: d44b 88bb 5286 55bb 4747 253c 8e24 b63b
000001d0: 1911 9abb f411 17bc 4714 0ebb 5fba 13bc
000001e0: 559f 80bc 95b0 0cbc a462 f0bb 24bf b63c
000001f0: e1d4 0e3c b9e8 0bbb bd4d 75bb 3ac0 04ba
00000200: f05e 383b d696 88bb 7966 52bb c4f9 bdba
00000210: 8b50 1f3b a484 153b a805 e1bb e8a2 fabe
00000220: 1bfc 61be bba2 ba3e b1e5 003f d99d 8fbe
00000230: d26f 063f a24d a13d 34ef 1b3e b7d9 d33d

model.net.0.bias f4 [16]
0.020999666 -0.19171946 0.020295033 0.0011015934 0.0010427632 0.11636477 0.3886439 -0.06476553
0.001187196 -0.0054129595 0.01501862 0.00018864559 -0.004524831 -0.0070750616 -0.00078201195 0.46625268
00000000: 7e07 ac3c 1b52 44be c541 a63c 5763 903a
00000010: 54ad 883a a750 ee3d 55fc c63e caa3 84bd
00000020: b09b 9b3a 325f b1bb a810 763c 2acf 4539
00000030: 0945 94bb ebd5 e7bb efff 4cba acb8 ee3e

model.net.2.weight f4 [16, 16]
0.007337782 -7.838927e-05 0.040075846 -0.0019208911 -0.0012984265 0.007230204 0.054613728 0.0088802865
-0.0020016585 0.014001186 0.027169527 -0.0012946186 0.002474655 0.0044352985 0.0015214626 -0.026338423
0.028636767 -0.013260937 0.11580136 -0.0047312505 -0.003445536 -0.003638119 0.11733244 0.019296959
-0.004999378 0.044232592 0.0745524 -0.0030450814 0.006830897 0.013518638 0.003690145 -0.0583347
-0.0018052801 -0.002154331 -0.012617478 0.0006254194 0.0003347556 -0.003109375 -0.02051105 -0.0041057775
0.0005506208 -0.0039977394 -0.008617782 0.0003819362 -0.00069279625 -0.001348747 -0.00046097545 0.008140554
-3.3872675e-06 0.00052397227 0.0002511127 1.1243566e-05 2.8988725e-05 0.000100606245 0.0010407881 0.00017288874
1.8589028e-05 4.8607082e-05 0.0001736038 2.6800202e-05 3.1057598e-06 -9.356023e-06 -2.3993603e-05 -0.00016017012
-0.024066744 -0.04150022 -0.07172953 0.003080879 0.0020901584 -0.025344416 -0.16861348 0.00047948505
0.0032095818 -0.033637926 -0.029340766 0.0018245626 -0.004771354 -0.0101125715 -0.0023000725 0.115708515
0.013260157 0.042138882 0.027531661 -0.0017207203 -0.0010984308 0.03557258 0.11377787 -0.009416387
-0.0016681998 0.016351558 0.0033121656 -0.0010009467 0.0023788463 0.0047365846 0.001230048 -0.08335688
-0.016069666 0.017452758 -0.07496607 0.0031624127 0.0024929233 0.005677039 -0.06343881 -0.016405698
0.003615987 -0.027052829 -0.052522115 0.0022922233 -0.0046823258 -0.008418144 -0.0026986054 0.025239626
-0.029486855 0.011963216 -0.11822948 0.0048061837 0.0034892918 0.0033763258 -0.12247762 -0.019379288
0.005073505 -0.04535444 -0.07548377 0.003079589 -0.006956832 -0.013850199 -0.0037390934 0.061697166
0.0005211089 0.00010254283 0.008013767 -0.00033478433 -0.00020367952 0.0019445193 0.014679866 0.004368066
-0.00042066808 0.0023305996 0.007006462 -0.0002719801 0.00029500737 0.0006838873 0.00031766808 -0.0028577507
-0.015775364 -0.16063109 0.037263766 0.0002632345 2.7769396e-05 -0.10678678 -0.25614712 0.064097926
0.00069744536 -0.007459446 0.089162596 0.00049180415 -0.0002678652 -0.00051864213 -0.0005777079 0.22127002
0.00010537702 0.00080254866 0.0012877105 -6.14139e-05 2.9906516e-05 0.0004265202 0.003003289 0.0006966128
2.5123525e-05 0.00037157326 0.00095553015 1.747693e-05 2.274152e-05 7.825543e-05 -2.7611895e-07 -0.0007085297
-0.018959422 0.0099994205 -0.08418947 0.0038552568 0.0027870573 -0.001868502 -0.09030785 -0.015021314
0.0039628437 -0.03110603 -0.05580787 0.0025329448 -0.0051961853 -0.009557532 -0.003003278 0.04496509
0.0065679913 0.24336603 -0.15039146 0.0012457445 0.0018221345 0.2026017 0.27211487 -0.123972535
0.00166956 -0.020568045 -0.19920872 0.0007745276 -0.004782382 -0.00967342 -0.0011376094 -0.3211106
-0.032427337 -0.2165126 0.005101848 0.0005779212 0.00066253555 -0.11715564 -0.3759266 0.09054506
0.0022473382 -0.024010535 0.104985595 0.0013781532 -0.0023759212 -0.0054119406 -0.0017133662 0.27337706
0.06538646 0.4503509 -0.10154139 -0.00022823489 -0.00058069435 0.4386193 0.60843027 -0.36266515
0.0023003519 0.0016994397 -0.3187272 0.0003547203 -0.0029217547 -0.00640849 -0.0010614595 -0.69931465
-0.027143665 0.00012305046 -0.105949074 0.004551778 0.0032333713 -0.004141962 -0.13212115 -0.015029938
0.0046498645 -0.04145511 -0.06460567 0.0028491793 -0.00634951 -0.012585029 -0.003447507 0.073982686
00000000: c771 f03b eb64 a4b8 9226 243d 69c6 fbba
00000010: f72f aaba 59eb ec3b a5b2 5f3d 9f7e 113c
00000020: 422e 03bb 3b65 653c a192 de3c 31b0 a9ba
00000030: d22d 223b fb55 913b d06b c73a adc3 d7bc
00000040: a797 ea3c 6744 59bc 4329 ed3d 9b08 9bbb
00000050: 80ce 61bb 826d 6ebb fe4b f03d a814 9e3c
00000060: d3d1 a3bb 3c2d 353d eeae 983d fd8f 47bb
00000070: b8d5 df3b 477d 5d3c 5cd6 713b 5ef0 6ebd
00000080: 269f ecba ad2f 0dbb 8ab9 4ebc 2ff3 233a
00000090: 2382 af39 a8c6 4bbb ca06 a8bc c289 86bb
000000a0: 8957 103a 78ff 82bb 9931 0dbc 9c3e c839
000000b0: c59c 35ba 71c8 b0ba 14af f1b9 f55f 053c
000000c0: d050 63b6 2f5b 093a c7a7 8339 c0a2 3c37
000000d0: d02c f337 91fc d238 0e6b 883a 7849 3539
000000e0: a2ef 9b37 75df 4b38 6a09 3639 ffd0 e037
000000f0: 8c6c 5036 d0f7 1cb7 df45 c9b7 57f3 27b9
00000100: 9f27 c5bc 22fc 29bd efe6 92bd 93e8 493b
00000110: 0afb 083b 189f cfbc 03a9 2cbe 6563 fb39
00000120: d957 523b ecc7 09bd 0c5c f0bc 2926 ef3a
00000130: 0559 9cbb 33af 25bc d0bc 16bb 96f8 ec3d
00000140: 2141 593c d299 2c3d 148a e13c cb89 e1ba
00000150: 39f9 8fba 8eb4 113d 5f04 e93d 3147 1abc
00000160: 7fa7 daba b4f3 853c eb10 593b 3332 83ba
00000170: 6be6 1b3b 5a35 9b3b 9039 a13a 03b7 aabd
00000180: 88a4 83bc 16f9 8e3c d087 99bd 7b40 4f3b
00000190: 5060 233b 7406 ba3b 35ec 81bd 3e65 86bc
000001a0: 32fa 6c3b e59d ddbc 6e21 57bd 2039 163b
000001b0: 326e 99bb 41ec 09bc 16db 30bb 55c3 ce3c
000001c0: 6b8e f1bc 5d01 443c 4c22 f2bd 317d 9d3b
000001d0: 9aac 643b 5945 5d3b 8cd5 fabd 50c1 9ebc
000001e0: a53f a63b 94c5 39bd 3c97 9abd eed2 493b
000001f0: 23f6 e3bb f2eb 62bc 940b 75bb 2bb6 7c3d
00000200: 079b 083a 430c d738 2d4c 033c fe85 afb9
00000210: ce92 55b9 3edf fe3a d283 703c fe21 8f3b
00000220: 1d8d dcb9 f9bc 183b 7796 e53b 8d98 8eb9
00000230: 38ab 9a39 e646 333a b08c a639 1a49 3bbb
00000240: 563b 81bc 7a7c 24be e4a1 183d bd02 8a39
00000250: 53f2 e837 07b3 dabd b725 83be c645 833d
00000260: c4d4 363a 5e6e f4bb e19a b63d 6bec 003a
00000270: 4270 8cb9 7cf5 07ba 5271 17ba 9c94 623e
00000280: dbfd dc38 2162 523a 65c8 a83a 56cb 80b8
00000290: c1df fa37 929e df39 d4d2 443b e59c 363a
000002a0: 5cc0 d237 b8cf c239 8b7c 7a3a 6c9b 9237
000002b0: 0bc5 be37 101d a438 803d 94b4 a0bc 39ba
000002c0: ca50 9bbc 9cd4 233c 876b acbd 7aa8 7c3b
000002d0: 10a7 363b 86e8 f4ba 52f3 b8bd f51b 76bc
000002e0: beda 813b 13d2 febc cb96 64bd c3ff 253b
000002f0: c344 aabb 3297 1cbc a5d2 44bb 502d 383d
00000300: 4e38 d73b f234 793e 3800 1abe 4048 a33a
00000310: b0d4 ee3a d276 4f3e a452 8b3e 50e5 fdbd
00000320: 23d5 da3a 517e a8bc 5ffd 4bbe ab09 4b3a
00000330: 87b5 9cbb 447d 1ebc d61b 95ba 9c68 a4be
00000340: 87d2 04bd 7bb5 5dbe 672d a73b a37f 173a
00000350: 02ae 2d3a 4cef efbd 7479 c0be b06f b93d
00000360: 1448 133b beb1 c4bc b002 d73d 26a3 b43a
00000370: 58b5 1bbb a656 b1bb 0893 e0ba 14f8 8b3e
00000380: 56e9 853d 6594 e63e eff4 cfbd 5652 6fb9
00000390: bd39 18ba b592 e03e 16c2 1b3f 3faf b9be
000003a0: 80c1 163b bcbf de3a 3630 a3be c1f9 b939
000003b0: e97a 3fbb 4ffe d1bb ac20 8bba 4906 33bf
000003c0: 645c debc 1b07 0139 d4fb d8bd 1527 953b
000003d0: f8e6 533b 4cb9 87bb c44a 07be 2140 76bc
000003e0: e45d 983b d5cc 29bd fa4f 84bd 4cb9 3a3b
000003f0: 8d0f d0bb 7031 4ebc 92ef 61bb 3c84 973d

model.net.2.bias f4 [16]
-0.022470456 -0.062158592 0.008236841 -0.0010630636 0.05131226 -0.022753067 0.037828296 0.06409213
-0.010511567 0.004126374 -0.0020325996 0.04537416 0.014701224 -0.023228496 0.03140706 0.06126702
00000000: f613 b8bc 029a 7ebd d1f3 063c 7f56 8bba
00000010: ce2c 523d a464 babc d8f1 1a3d bc42 833d
00000020: b538 2cbc 8936 873b 5d35 05bb 41da 393d
00000030: 67dd 703c b049 bebc b0a4 003d 20f3 7a3d

model.net.4.weight f4 [2, 16]
-0.024875665 -0.08740866 0.00930715 -0.000697108 -0.0077231997 0.031851366 0.064371005 0.087725826
-0.0074288906 -0.24797907 -0.0014865459 0.05983405 0.4802715 -0.29485443 1.0529329 0.06382511
0.07288468 0.18065163 -0.026821995 0.0010603737 -0.23071322 0.14699872 -0.09905327 -0.18808897
0.016976418 -0.29724762 0.003487751 -0.13207327 0.29393256 -0.43353873 0.43066514 -0.19437
00000000: 0dc8 cbbc 5003 b3bd 047d 183c 20be 36ba
00000010: e512 fdbb 9476 023d f2d4 833d 99a9 b33d
00000020: 0d6e f3bb 3aee 7dbe 34d8 c2ba 8c14 753d
00000030: 25e6 f53e 29f7 96be 81c6 863f bdb6 823d
00000040: 9044 953d befc 383e cdb9 dbbc 3dfc 8a3a
00000050: 1640 6cbe d586 163e 71dc cabd 659a 40be
00000060: 2112 8b3c d730 98be c092 643b 373e 07be
00000070: 547e 963e caf8 ddbe 2480 dc3e ee08 47be

model.net.4.bias f4 [2]
0.11577172 -0.3427185
00000000: b919 ed3d cd78 afbe

exp_avg f4 [16, 9]
0.0023573644 0.004364639 0.0052963966 0.0021911794 0.0025637865 0.0039207772 0.0037792253 0.00669602
0.0005828745 0.014072024 0.027529415 0.030411063 0.015472254 0.015830707 0.02647726 0.012554676
0.04952175 0.0016542969 -0.0035718163 -0.0044496716 -0.002035594 -0.0022095717 -0.0037577904 -0.0048172353
-0.00656144 -0.008391168 0.0001662735 0.00014794304 0.0001020559 -0.0001778718 0.00010962728 0.00013710475
0.000121994504 0.000112570044 -4.2393873e-05 -0.000106057596 8.8977744e-05 2.734073e-05 -0.00018184034 5.1587973e-05
8.405499e-05 4.1720636e-05 4.4157296e-05 -0.000104915925 -5.066581e-05 0.016260233 0.022253599 0.017277973
0.016395606 0.017363904 0.021882659 0.0154421395 0.01954563 -0.004713078 0.016807659 0.02586442
0.023464486 0.008971332 0.020443054 0.017766707 0.020685641 0.045503985 0.01872182 -0.016778795
-0.025400328 -0.021608787 -0.014322752 -0.018064026 -0.024257014 -0.014125326 -0.031161709 0.0023249055
0.00022730179 0.000102968756 -0.00025630413 0.00018374267 0.00022035744 0.00017471521 6.7488414e-05 -8.186004e-05
-0.00013591062 -0.0010253155 -1.568095e-06 0.0021448755 -0.0010398119 -0.0009689899 -0.00058482226 -4.6337747e-05
0.0012487768 0.001844174 -0.011422061 -0.018652404 -0.018370098 -0.010501909 -0.012698834 -0.018206988
-0.017595854 -0.03232683 4.517767e-05 8.1822356e-05 -1.9739551e-05 -0.0002521063 4.044462e-05 7.2060706e-05
1.49006155e-05 -1.04405935e-05 -0.00017447589 -2.6194586e-05 -0.00037067084 -0.00028300163 0.00012792784 -0.00034055105
-0.0003761866 -0.00035541708 -0.00018575216 -0.00010217697 0.00027886403 -0.0007333317 -0.0005895514 0.00012002267
-0.0007461842 -0.00075751165 -0.00074968825 -0.0004103655 -0.00035714987 0.0006560524 -0.00013511075 -2.7958231e-05
0.00024614783 -9.341253e-05 -0.00012661658 -7.433195e-05 -2.0616875e-05 0.0001365532 7.0082104e-05 -0.019388976
-0.029721184 -0.023673307 -0.009709888 -0.02273631 -0.024705235 -0.025083885 -0.026189173 -0.007982106
00000000: 037e 1a3b 3f05 8f3b 658d ad3b e499 0f3b
00000010: 3305 283b dd79 803b e1ac 773b 496a db3b
00000020: 0ccc 183a 598e 663c 5e85 e13c 9f20 f93c
00000030: 567f 7d3c 66af 813c d7e6 d83c 21b2 4d3c
00000040: 52d7 4a3d fed4 d83a 2215 6abb 8dce 91bb
00000050: 9a67 05bb 76ce 10bb 4345 76bb e6d9 9dbb
00000060: 5901 d7bb 1c7b 09bc b459 2e39 2821 1b39
00000070: d806 d638 1983 3ab9 b3e7 e538 c7c3 0f39
00000080: 4dd7 ff38 9513 ec38 13d0 31b8 3d6b deb8
00000090: 9099 ba38 c559 e537 65ac 3eb9 2a60 5838
000000a0: ae46 b038 31fd 2e38 8935 3938 4f06 dcb8
000000b0: 0082 54b8 2e34 853c 2e4d b63c 898a 8d3c
000000c0: 1450 863c bf3e 8e3c 4343 b33c 0701 7d3c
000000d0: 281e a03c 2a70 9abb 37b0 893c 9fe1 d33c
000000e0: 9838 c03c 7efc 123c 3178 a73c 7c8b 913c
000000f0: ef74 a93c 6362 3a3d 815e 993c af73 89bc
00000100: 5914 d0bc e904 b1bc faa9 6abc 02fb 93bc
00000110: a5b6 c6bc e96d 67bc d746 ffbc 715d 183b
00000120: dc57 6e39 eef0 d738 8f60 86b9 0cab 4039
00000130: c00f 6739 c233 3739 9188 8d38 46ac abb8
00000140: 3b83 0eb9 e163 86ba 5577 d2b5 0a91 0c3b
00000150: 4c4a 88ba d003 7eba c24e 19ba c75a 42b8
00000160: ffad a33a 36b8 f13a 9923 3bbc edcc 98bc
00000170: e37c 96bc 3310 2cbc c50e 50bc d226 95bc
00000180: 2e25 90bc 2369 04bd 277d 3d38 0b98 ab38
00000190: 5d96 a5b7 232d 84b9 14a3 2938 4c1f 9738
000001a0: a8fd 7937 022a 2fb7 84f3 36b9 72bc dbb7
000001b0: 9956 c2b9 d65f 94b9 5e24 0639 fd8b b2b9
000001c0: e93a c5b9 4657 bab9 77c6 42b9 d847 d6b8
000001d0: 7f34 9239 0f3d 40ba 208c 1aba aeb4 fb38
000001e0: 939b 43ba bf93 46ba ba86 44ba 5326 d7b9
000001f0: d83f bbb9 eefa 2b3a 84ac 0db9 d887 eab7
00000200: 670d 8139 78e6 c3b8 61c4 04b9 a9e2 9bb8
00000210: 67f2 acb7 b82f 0f39 0bf9 9238 a1d5 9ebc
00000220: d779 f3bc 86ee c1bc 3916 1fbc 7f41 babc
00000230: a262 cabc b87c cdbc ad8a d6bc 61c7 02bc

exp_avg_sq f4 [16, 9]
0.00047442596 0.00048622285 0.00048419175 0.00046026258 0.0004818649 0.000522859 0.0005146745 0.0005178582
0.0005378383 0.015542172 0.012708424 0.009361807 0.016081298 0.015803112 0.016398035 0.0052122013
0.018465204 0.018132294 0.00076265127 0.00064428523 0.00096885645 0.00076563226 0.0007812256 0.00078006
0.00057905907 0.001080532 0.00097078807 6.5864497e-06 6.4359e-06 6.369181e-06 6.5686027e-06 6.6370976e-06
7.402126e-06 5.105572e-06 8.084822e-06 7.5272196e-06 5.92693e-06 5.7472366e-06 5.5491932e-06 6.098276e-06
5.905876e-06 6.377017e-06 4.4649096e-06 6.7908127e-06 6.6443154e-06 0.0073037436 0.00991938 0.011449041
0.0071935407 0.0074255555 0.009231197 0.0029049225 0.0106248865 0.008530195 0.027698169 0.02894881
0.030672826 0.025090106 0.028576436 0.029136507 0.017076384 0.017977785 0.031941544 0.00953783
0.009917828 0.009472033 0.008878019 0.009701278 0.010231786 0.0038856862 0.009753714 0.010587223
1.0854216e-05 1.1435271e-05 1.1431284e-05 1.03409075e-05 1.0896996e-05 1.1079017e-05 7.32936e-06 1.0937982e-05
1.2655867e-05 6.8163936e-05 6.768478e-05 7.217317e-05 7.258575e-05 6.876502e-05 7.9766476e-05 4.061243e-05
8.205544e-05 7.792511e-05 0.007924447 0.00695065 0.007272445 0.008169053 0.008067462 0.008370159
0.0060890066 0.010299698 0.009727975 8.889946e-06 9.075256e-06 9.272258e-06 8.752115e-06 8.931858e-06
9.061226e-06 5.8757487e-06 9.231263e-06 1.0607926e-05 8.464441e-06 8.225537e-06 7.2665375e-06 8.454146e-06
8.424892e-06 9.38054e-06 7.6078854e-06 9.602986e-06 8.573313e-06 1.49132e-05 1.4375726e-05 1.2791129e-05
1.4985558e-05 1.4845589e-05 1.6684216e-05 1.3555267e-05 1.6417629e-05 1.4725077e-05 8.987688e-06 9.302317e-06
9.332879e-06 8.668652e-06 9.032409e-06 9.118658e-06 5.8165183e-06 9.120034e-06 1.0583191e-05 0.030494886
0.02977164 0.032921933 0.025183953 0.03135106 0.027958753 0.01447921 0.027007619 0.033019885
00000000: 60bc f839 baeb fe39 1edb fd39 664f f139
00000010: d0a2 fc39 7910 093a 39eb 063a e0c0 073a
00000020: b8fd 0c3a 98a4 7e3c fe36 503c 4462 193c
00000030: edbc 833c 8775 813c 2c55 863c 1dcb aa3b
00000040: 5744 973c 2d8a 943c a9ec 473a 40e5 283a
00000050: dbfa 7d3a b6b4 483a 2acb 4c3a f17c 4c3a
00000060: ffcb 173a a3a0 8d3a 7c7c 7e3a 2c01 dd36
00000070: f6f3 d736 d9b6 d536 de67 dc36 3cb4 de36
00000080: c75f f836 8850 ab36 0ca4 0737 5392 fc36
00000090: f1df c636 63d8 c036 3533 ba36 cb9f cc36
000000a0: 172b c636 29fa d536 48d1 9536 a3dc e336
000000b0: 3cf2 de36 3e54 ef3b e584 223c c294 3b3c
000000c0: cbb7 eb3b 1352 f33b 723e 173c 8360 3e3b
000000d0: 0114 2e3c 3bc2 0b3c 45e7 e23c 0e26 ed3c
000000e0: 9445 fb3c c489 cd3c 2119 ea3c afaf ee3c
000000f0: c6e3 8b3c 2646 933c 23d5 023d 8f44 1c3c
00000100: 637e 223c 9630 1b3c 1c75 113c 1cf2 1e3c
00000110: 39a3 273c ffa6 7e3b 0bce 1f3c 0876 2d3c
00000120: 811a 3637 1dda 3f37 fec8 3f37 dc7d 2d37
00000130: 3ed2 3637 04e0 3937 b9ee f536 4682 3737
00000140: 8954 5437 3cf3 8e38 fdf1 8d38 ad5b 9738
00000150: 2e39 9838 f035 9038 4d48 a738 4457 2a38
00000160: 2e15 ac38 ba6b a338 8ad5 013c 47c2 e33b
00000170: b14d ee3b 7ed7 053c 632d 043c fe22 093c
00000180: 4a86 c73b 11c0 283c 1662 1f3c 0726 1537
00000190: ed41 1837 0b90 1b37 0cd6 1237 0ada 1537
000001a0: ab05 1837 4c28 c536 f9df 1a37 b2f8 3137
000001b0: 7f02 0e37 6a00 0a37 15d3 f336 48d6 0d37
000001c0: a358 0d37 1d61 1d37 3d47 ff36 831c 2137
000001d0: 19d6 0f37 b533 7a37 462f 7137 7b99 5637
000001e0: 7b6a 7b37 5211 7937 15f5 8b37 6e6b 6337
000001f0: 97b8 8937 b90b 7737 d3c9 1637 2611 1c37
00000200: 6994 1c37 946f 1137 e789 1737 57fc 1837
00000210: 832b c336 3f02 1937 768e 3137 69d0 f93c
00000220: a8e3 f33c 26d9 063d 944e ce3c f869 003d
00000230: c109 e53c 353a 6d3c 153f dd3c dc3f 073d

exp_avg f4 [16]
0.0019807857 0.017481668 -0.00089110003 -6.352721e-05 -5.5461784e-05 0.012764869 0.00017722642 -0.008406152
-6.462745e-05 0.0007485859 -0.0077074734 -7.1428876e-05 6.937441e-06 1.795684e-05 6.401915e-05 -0.0031072537
00000000: 12d0 013b b735 8f3c b698 69ba e939 85b8
00000010: a39f 68b8 be23 513c dbd5 3939 f5b9 09bc
00000020: 9988 87b8 c03c 443a f98e fcbb 16cc 95b8
00000030: 2ac8 e836 05a2 9637 0542 8638 11a3 4bbb

exp_avg_sq f4 [16]
0.0006044427 0.019735077 0.0014956453 8.55132e-06 6.8215445e-06 0.01408917 0.03898938 0.012145419
1.2471741e-05 8.378812e-05 0.011302398 1.0378485e-05 9.058681e-06 1.6184165e-05 1.0321066e-05 0.040713586
00000000: 7773 1e3a 75ab a13c 8709 c43a a477 0f37
00000010: 9fe4 e436 43d6 663c 54b3 1f3d 94fd 463c
00000020: b83d 5137 68b7 af38 b12d 393c 411f 2e37
00000030: bdfa 1737 3bc3 8737 a428 2d37 4ac3 263d

exp_avg f4 [16, 16]
0.00017703693 0.0002335103 0.0004025023 -9.951301e-06 -1.8169068e-05 0.00214005 0.0011087247 -0.00026517722
-2.7419339e-05 0.00010750278 0.00020360979 -2.375478e-05 2.1903403e-05 2.1529442e-05 2.4492565e-05 0.0014345681
0.00062542903 0.0002329889 0.0014957668 -3.4698987e-05 -4.4483026e-05 0.005098265 0.001679824 -0.00079964177
-5.9330367e-05 0.0004268443 0.00076337036 -4.9200662e-05 5.691197e-05 8.8182336e-05 5.2364223e-05 0.003045413
-5.970807e-05 -9.36505e-05 -0.00014236124 3.0712158e-06 6.373314e-06 -0.00080922776 -0.00042909558 8.649809e-05
1.0267061e-05 -3.309667e-05 -7.781826e-05 8.911802e-06 -7.3801916e-06 -7.0728865e-06 -9.103828e-06 -0.000554773
4.005154e-06 4.312556e-06 7.520006e-06 -1.2575049e-07 -1.1255216e-07 3.8026756e-05 1.3035431e-05 -4.3665746e-06
-2.5606528e-07 2.2651143e-06 5.6287295e-06 -2.3523202e-07 6.761773e-08 6.869519e-08 2.3723904e-07 2.6077216e-05
-0.00022582579 -0.002084958 0.0005052756 -4.4828346e-05 1.2102545e-05 -0.0061204894 -0.006273193 0.00070992083
5.3221956e-05 1.3698667e-05 0.0006435019 4.981887e-05 -3.1709937e-05 7.833489e-07 -5.0429073e-05 -0.005474368
2.8474399e-06 0.0017674242 -0.0009434396 4.600148e-05 -5.527535e-08 0.0039176275 0.00493002 -0.00040781774
-3.1328953e-05 -0.00015630409 -0.00082085264 -3.170981e-05 1.14940885e-05 -3.3291217e-05 3.1067557e-05 0.0038991151
-0.0004148599 0.00015532154 -0.0011736779 3.4139393e-05 3.4677923e-05 -0.0029064792 -0.0003635457 0.00045955414
4.008623e-05 -0.00030972602 -0.0006714556 3.2479857e-05 -4.0754334e-05 -6.378084e-05 -3.4624707e-05 -0.001526047
-0.00063572807 -0.00029441222 -0.0014908795 3.3204622e-05 4.4689983e-05 -0.005287771 -0.0018623336 0.00082433113
6.0777857e-05 -0.00042937207 -0.00074912416 5.052815e-05 -5.7818954e-05 -8.880818e-05 -5.372791e-05 -0.0032036528
3.992953e-05 2.5656684e-05 0.00011505988 -3.7280117e-06 -4.7308667e-06 0.00053413806 0.0002466368 -4.1829568e-05
-6.9698417e-06 2.5864514e-05 8.441875e-05 -6.0739876e-06 4.4029634e-06 4.822524e-06 6.3342814e-06 0.000370297
0.00094721676 -0.005750717 0.0054970277 -0.00020786354 -5.93125e-05 -0.0061873724 -0.01571191 0.00012512322
3.1402258e-05 0.0011840889 0.003924259 4.680023e-05 4.3533895e-05 0.00025161853 -4.0418825e-05 -0.010523354
7.8227395e-06 1.3197095e-05 1.8761126e-05 -6.3294567e-07 -6.364388e-07 0.000111305126 5.671965e-05 -9.545814e-06
-8.9997826e-07 3.997117e-06 1.2955621e-05 -1.0618579e-06 5.381885e-07 3.1268684e-07 1.1268752e-06 8.086424e-05
-0.00042673186 -0.00020261518 -0.0010312612 2.9045841e-05 3.6162844e-05 -0.0037972166 -0.0014072252 0.00056178286
4.755019e-05 -0.00028772224 -0.0005337212 4.0393872e-05 -4.3899414e-05 -5.8505673e-05 -4.2560216e-05 -0.0023289814
-0.002191013 0.008036285 -0.010373796 0.00033245605 0.00012995041 0.004055834 0.022307001 0.00062646304
1.284166e-05 -0.0024221695 -0.006813116 -2.745794e-05 -0.00015040259 -0.000541027 1.0718607e-05 0.014316995
0.0011046473 -0.0071341963 0.006368047 -0.0002596923 -6.502515e-05 -0.008484857 -0.020433797 0.0001771367
5.59821e-05 0.0013967566 0.0045638424 7.197653e-05 3.787027e-05 0.00028763054 -6.529909e-05 -0.014520929
-0.0061041564 0.011265143 -0.02070783 0.0005985244 0.00027109502 -0.007558732 0.03655273 0.0049899947
0.00015735741 -0.0059941746 -0.011896966 2.318067e-05 -0.00043066783 -0.0013725824 -7.7653895e-05 0.027356554
-0.0005274525 -0.0006991466 -0.0010119387 1.697645e-05 3.8250004e-05 -0.0054109837 -0.0028731723 0.00078271277
5.9738813e-05 -0.0003176462 -0.00042425498 5.135089e-05 -5.159561e-05 -6.53387e-05 -5.382391e-05 -0.0036611957
00000000: fda2 3939 72da 7439 f206 d339 83f4 26b7
00000010: c769 98b7 1540 0c3b a152 913a 7c07 8bb9
00000020: 9502 e6b7 1e73 e138 1680 5539 0045 c7b7
00000030: 33bd b737 209a b437 6275 cd37 1e08 bc3a
00000040: d5f3 233a 7b4e 7439 9b0d c43a c189 11b8
00000050: 4993 3ab8 590f a73b 8a2d dc3a 0d9f 51ba
00000060: 7fd9 78b8 12ca df39 eb1c 483a cf5c 4eb8
00000070: c3b4 6e38 88ee b838 a8a1 5b38 8d95 473b
00000080: 0d6f 7ab8 3b66 c4b8 ce46 15b9 161b 4e36
00000090: 5ada d536 5b22 54ba 3cf8 e0b9 4f66 b538
000000a0: b140 2c37 47d1 0ab8 5c32 a3b8 e683 1537
000000b0: 5da3 f7b6 a253 edb6 a5bc 18b7 306e 11ba
000000c0: 0364 8636 93b4 9036 5c54 fc36 0806 07b4
000000d0: 34b4 f1b3 eb7e 1f38 c0b2 5a37 9784 92b6
000000e0: 5879 89b4 5e02 1836 6bde bc36 1694 7cb4
000000f0: 3d35 9133 9585 9333 c5bb 7e34 65c0 da37
00000100: a6cb 6cb9 caa3 08bb 7974 043a 1206 3cb8
00000110: 090c 4b37 638e c8bb 5b8f cdbb fb19 3a3a
00000120: a43a 5f38 54d3 6537 aeb0 283a 9bf4 5038
00000130: 4900 05b8 5447 5235 ce83 53b8 5462 b3bb
00000140: a516 3f36 eaa8 e73a 2951 77ba b7f1 4038
00000150: e467 6db3 715f 803b 018c a13b 5fd0 d5b9
00000160: 3567 03b8 8fe5 23b9 7d2e 57ba 2600 05b8
00000170: bcd6 4037 2ca2 0bb8 894e 0238 4c88 7f3b
00000180: 8e81 d9b9 cfdd 2239 18d6 99ba e530 0f38
00000190: 2373 1138 a17a 3ebb 479a beb9 50f0 f039
000001a0: 4322 2838 b962 a2b9 9f04 30ba fb3a 0838
000001b0: a2ef 2ab8 14c2 85b8 ff39 11b8 a405 c8ba
000001c0: fda6 26ba 575b 9ab9 9d69 c3ba 3145 0b38
000001d0: 8171 3b38 0a45 adbb 8c19 f4ba ed17 583a
000001e0: baeb 7e38 581d e1b9 df60 44ba 30ee 5338
000001f0: a182 72b8 873e bab8 e759 61b8 60f4 51bb
00000200: 027a 2738 4f39 d737 4d4c f138 c12e 7ab6
00000210: d6bd 9eb6 6605 0c3a 084f 8139 2872 2fb8
00000220: 7cde e9b6 9ff7 d837 f909 b138 28cf cbb6
00000230: 2bbd 9336 2ad1 a136 108b d436 6c24 c239
00000240: a44e 783a 8370 bcbb 6920 b43b f2f5 59b9
00000250: 50c6 78b8 71bf cabb 43b6 80bc 8233 0339
00000260: ebb5 0338 6e33 9b3a 1297 803b 5d4b 4438
00000270: 2a98 3638 abeb 8339 6287 29b8 256a 2cbc
00000280: 693e 0337 1769 5d37 3661 9d37 b2e7 29b5
00000290: bed7 2ab5 7c6c e938 43e6 6d38 f526 20b7
000002a0: 0996 71b5 f91e 8636 f85b 5937 2985 8eb5
000002b0: 0878 1035 5adf a734 233f 9735 a995 a938
000002c0: fbba dfb9 1975 54b9 622b 87ba 78a7 f337
000002d0: 8fad 1738 b9da 78bb a472 b8ba 9c44 133a
000002e0: a170 4738 6dd9 96b9 6ce9 0bba 976c 2938
000002f0: a320 38b8 fd63 75b8 af82 32b8 d3a1 18bb
00000300: 1997 0fbb 9faa 033c dbf6 29bc 7f4d ae39
00000310: 4c43 0839 cde6 843b 2cbd b63c 3939 243a
00000320: 8272 5737 43bd 1ebb 8f40 dfbb 7a55 e6b7
00000330: 63b5 1db9 b5d3 0dba 11d4 3337 d491 6a3c
00000340: d0c9 903a fac5 e9bb 0dab d03b 4f27 88b9
00000350: 1d5e 88b8 1204 0bbc c764 a7bc c5bd 3939
00000360: 52ce 6a38 6013 b73a 498c 953b 1bf2 9638
00000370: e5d6 1e38 1ecd 9639 2ff1 88b8 31e9 6dbc
00000380: 6005 c8bb 6f91 383c 78a3 a9bc 4be6 1c3a
00000390: c221 8e39 3daf f7bb 51b8 153d 1c83 a33b
000003a0: 4f00 2539 c86a c4bb 7eeb 42bc 1c74 c237
000003b0: 42cb e1b9 39e8 b3ba 1eda a2b8 da1a e03c
000003c0: bd44 0aba ef46 37ba 07a3 84ba a668 8e37
000003d0: a16e 2038 9f4e b1bb d54b 3cbb f72e 4d3a
000003e0: 1090 7a38 c089 a6b9 8a6e deb9 9961 5738
000003f0: 5d68 58b8 7306 89b8 fcc0 61b8 acf0 6fbb

exp_avg_sq f4 [16, 16]
1.9970835e-06 1.9374515e-05 1.7478565e-05 1.0105766e-07 6.418986e-08 2.4563735e-05 2.3994331e-05 4.7259346e-06
1.0816077e-07 1.4316672e-06 1.0654718e-05 1.222198e-07 9.465905e-08 1.9188579e-07 1.3676532e-07 2.3100383e-05
1.0543978e-05 9.5643314e-05 9.4349874e-05 2.413715e-07 3.2614057e-07 0.00014271853 0.00012146339 2.877816e-05
5.812916e-07 6.688853e-06 5.6493605e-05 5.699174e-07 4.339228e-07 9.980771e-07 5.9297554e-07 0.000121140314
1.0017205e-06 8.149841e-06 7.5898747e-06 9.2971376e-08 2.8660745e-08 9.685516e-06 9.563792e-06 1.7978413e-06
3.7742403e-08 7.2026256e-07 4.390927e-06 5.909006e-08 3.8911868e-08 6.035661e-08 7.1195025e-08 9.28738e-06
4.139131e-08 4.0448472e-07 4.0788268e-07 9.542568e-10 1.5202833e-09 5.158553e-07 4.736624e-07 1.0542772e-07
3.413181e-09 2.545853e-08 2.243807e-07 2.728872e-09 1.918245e-09 4.7201434e-09 2.9857026e-09 4.4261995e-07
2.1926611e-05 0.00025110136 0.00021128649 5.856052e-07 8.122036e-07 0.00027614515 0.00030269063 5.1679483e-05
1.3817119e-06 1.6000356e-05 0.00012587986 1.309289e-06 1.2303633e-06 2.711738e-06 1.3917742e-06 0.00027604323
1.4624634e-05 0.00016313902 0.00014262699 4.454999e-07 5.530117e-07 0.00017760781 0.00018984471 3.2490123e-05
9.065714e-07 1.0682485e-05 8.299188e-05 8.761298e-07 8.3675855e-07 1.7764777e-06 9.4442976e-07 0.00017617289
5.180954e-06 4.3082255e-05 4.5836263e-05 1.5741088e-07 1.644711e-07 6.521128e-05 5.1212224e-05 1.3133695e-05
2.68505e-07 3.22248e-06 2.6482601e-05 2.792536e-07 2.1119256e-07 4.5371812e-07 2.9514237e-07 5.3106964e-05
1.1109497e-05 0.000101750105 9.93529e-05 2.5322703e-07 3.4352234e-07 0.00015066325 0.00012972551 3.0351453e-05
6.140257e-07 7.0771703e-06 5.967113e-05 6.009208e-07 4.5945737e-07 1.0590293e-06 6.252651e-07 0.00012870636
1.6107182e-07 1.7748115e-06 1.4586426e-06 1.4559528e-08 2.1844228e-08 2.1494152e-06 2.0638365e-06 4.310884e-07
5.2292616e-08 1.0571413e-07 9.177225e-07 5.325663e-08 7.436672e-09 1.0522271e-08 5.236496e-08 1.8065288e-06
0.00013809926 0.0015550317 0.001428831 3.173993e-06 5.4944835e-06 0.0017251831 0.0017716008 0.00031615322
9.384633e-06 9.958803e-05 0.0008056208 8.654322e-06 8.071421e-06 1.781419e-05 9.1335405e-06 0.0016744718
1.8756646e-07 1.2176741e-06 1.2227138e-06 1.4528511e-08 5.360728e-09 1.8577399e-06 1.4780809e-06 3.7178197e-07
6.7968675e-09 1.2144193e-07 7.4063263e-07 1.0331666e-08 6.771353e-09 9.409695e-09 1.2725713e-08 1.5503311e-06
5.3104172e-06 4.9108115e-05 4.7940917e-05 1.2467417e-07 1.6747158e-07 7.184097e-05 6.2268016e-05 1.4462913e-05
3.022748e-07 3.4532102e-06 2.9089519e-05 2.946769e-07 2.259948e-07 5.18519e-07 3.0818234e-07 6.1801555e-05
0.00032818786 0.0034523867 0.0034159645 7.2062544e-06 1.3131465e-05 0.0041576014 0.0040254383 0.00075387285
2.2539873e-05 0.00023234445 0.0018760592 2.0765969e-05 1.8962754e-05 4.179966e-05 2.1845062e-05 0.0039203507
0.00022302938 0.0025622044 0.002304784 4.994602e-06 8.813219e-06 0.0027804861 0.0029232043 0.00051253603
1.5136997e-05 0.00016115393 0.0013061853 1.3876344e-05 1.3028396e-05 2.8980565e-05 1.4617839e-05 0.0027434898
0.0010720914 0.012068304 0.012122965 2.2333195e-05 4.3045504e-05 0.013991852 0.013450916 0.002486052
7.4702424e-05 0.00075107865 0.0066498662 6.885424e-05 6.1288294e-05 0.00013595498 7.22357e-05 0.012945972
1.0327965e-05 0.00010380113 9.360978e-05 2.476743e-07 3.3163957e-07 0.00013962513 0.00013329517 2.7698765e-05
5.9885423e-07 6.9699718e-06 5.7504112e-05 5.791806e-07 4.6882818e-07 1.0782924e-06 6.0751273e-07 0.00012703417
00000000: a205 0636 7486 a237 ef9e 9237 0905 d933
00000010: c0d8 8933 380e ce37 6f47 c937 7893 9e36
00000020: 0346 e833 b627 c035 aac1 3237 863b 0334
00000030: 5d47 cb33 2a09 4e34 c4d9 1234 b2c7 c137
00000040: 0ae6 3037 1d94 c838 b4dd c538 d995 8134
00000050: 6b18 af34 b7a6 1539 29ba fe38 a168 f137
00000060: 0e0a 1c35 cf70 e036 8cf3 6c38 6dfc 1835
00000070: e5f5 e834 abf5 8535 f82c 1f35 b60c fe38
00000080: db72 8635 4dbb 0837 87ac fe36 8ea7 c733
00000090: a531 f632 f97e 2237 2d74 2037 5b4d f135
000000a0: 361a 2233 1158 4135 c755 9336 35ca 7d33
000000b0: 0d20 2733 669d 8133 e1e3 9833 fed0 1b37
000000c0: 3ac6 3133 f527 d934 f8fa da34 ed26 8330
000000d0: 37f2 d030 4e79 0a35 aa4b fe34 8167 e233
000000e0: 518d 6a31 e6af da32 4ced 7034 d386 3b31
000000f0: 1fd2 0331 d22e a231 092d 4d31 39a1 ed34
00000100: 0aef b737 41a6 8339 c98c 5d39 7c32 1d35
00000110: 3506 5a35 93c7 9039 73b2 9e39 6cc2 5838
00000120: 4273 b935 8138 8637 9efe 0339 d4ba af35
00000130: f622 a535 4efb 3536 ffcc ba35 e5b9 9039
00000140: 535c 7537 4c10 2b39 248e 1539 0a2d ef34
00000150: ad72 1435 3c3c 3a39 0d11 4739 0146 0838
00000160: 1d5b 7335 ec38 3337 ed0b ae38 2e2f 6b35
00000170: 9c9d 6035 4f6f ee35 b884 7d35 0dbb 3839
00000180: 0ed8 ad36 38b3 3438 5040 4038 c604 2934
00000190: 7999 3034 0ac2 8838 b5cc 5638 ca58 5c37
000001a0: 0c27 9034 c941 5836 f426 de37 53ec 9534
000001b0: 2bc4 6234 8b96 f334 0f74 9e34 2bbf 5e38
000001c0: ed62 3a37 ac62 d538 af5b d038 42f3 8734
000001d0: 5a6d b834 5cfb 1d39 ed06 0839 409b fe37
000001e0: 86d3 2435 6e78 ed36 6347 7a38 f74e 2135
000001f0: 57ab f634 f823 8e35 e4d7 2735 5af5 0639
00000200: 16f3 2c34 0f36 ee35 94c6 c335 7b21 7a32
00000210: f7a3 bb32 ac3e 1036 7180 0a36 5770 e734
00000220: 5798 6033 f504 e333 6959 7635 49bc 6433
00000230: a985 ff31 70c5 3432 e2e7 6033 db77 f235
00000240: bdce 1039 35d2 cb3a 9d47 bb3a c900 5536
00000250: 415d b836 8a1f e23a 0f35 e83a 5ec1 a539
00000260: b172 1d37 ebd9 d038 4c30 533a 0832 1137
00000270: 7d6a 0737 af6f 9537 423c 1937 f379 db3a
00000280: e065 4934 f76e a335 201c a435 1199 7932
00000290: 7631 b831 7557 f935 7962 c635 5399 c734
000002a0: e189 e931 b465 0234 e3cf 4635 267f 3132
000002b0: 73a9 e831 47a8 2132 47a0 5a32 f914 d035
000002c0: 2330 b236 70f9 4d38 2b14 4938 2dde 0534
000002d0: 3dd2 3334 54a9 9638 e395 8238 bda5 7237
000002e0: 5548 a234 b3bd 6736 4405 f437 1634 9e34
000002f0: faa8 7234 5b30 0b35 4274 a534 759b 8138
00000300: a110 ac39 7041 623b 60de 5f3b 41cd f136
00000310: 364f 5c37 7d3c 883b d3e7 833b 8d9f 453a
00000320: 0214 bd37 7da1 7339 1ae6 f53a 9432 ae37
00000330: 3412 9f37 0b52 2f38 ea3f b737 4976 803b
00000340: fedc 6939 a8ea 273b dc0b 173b 4e97 a736
00000350: 7ddc 1337 d138 363b 3b93 3f3b b65b 063a
00000360: e8f4 7d37 6efb 2839 4e34 ab3a 72ce 6837
00000370: 8994 5a37 4a1b f337 243f 7537 1fcc 333b
00000380: 6b85 8c3a 23ba 453c 679f 463c 2c58 bb37
00000390: c28b 3438 153e 653c 3b61 5c3c 08ed 223b
000003a0: 8fa9 9c38 09e4 443a 1fe7 d93b d765 9038
000003b0: e787 8038 238f 0e39 3f7d 9738 581b 543c
000003c0: 4646 2d37 cfaf d938 5e50 c438 19f8 8434
000003d0: 320c b234 5668 1239 26c5 0b39 a55a e837
000003e0: f3c0 2035 9adf e936 9230 7138 fd78 1b35
000003f0: 41b3 fb34 d8b9 9035 f513 2335 7a34 0539

exp_avg f4 [16]
0.0011591007 0.0026040482 -0.00042725552 9.578065e-06 -0.004005884 0.002735602 -0.001403739 -0.002717851
0.00021618402 -0.0065189674 4.799986e-05 -0.0019755017 0.008965554 -0.009138019 0.016691405 -0.0029619052
00000000: f7ec 973a aea8 2a3b 4401 e0b9 7ab1 2037
00000010: ca43 83bb c947 333b aafd b7ba f91d 32bb
00000020: 75af 6239 109d d5bb 7553 4938 6b77 01bb
00000030: 42e4 123c a1b7 15bc 6abc 883c 861c 42bb

exp_avg_sq f4 [16]
8.3266306e-05 0.00043841006 3.582602e-05 1.7815619e-06 0.0010375776 0.00068947696 0.00020449131 0.00046373278
7.774938e-06 0.006810439 5.5053565e-06 0.00022141804 0.016184239 0.011051943 0.056857944 0.00044856797
00000000: 429f ae38 67da e539 e543 1638 001e ef35
00000010: 54ff 873a 04be 343a b86c 5639 2921 f339
00000020: 1b71 0237 1a2a df3b a7ba b836 742c 6839
00000030: cf94 843c 3513 353c e0e3 683d c62d eb39

exp_avg f4 [2, 16]
0.00021883707 -0.0006914744 -0.00021251911 2.7547283e-05 -0.0026008452 0.0025199475 0.0009115231 0.00061073183
0.00018788702 -0.009040553 6.5246604e-05 0.00038355493 0.0122927595 -0.012139072 0.014358687 -0.00017001323
0.0005113046 -3.0921452e-05 -0.00033448078 3.2921733e-05 -0.001690966 0.00196698 0.00022862552 -1.0724382e-05
0.00027225312 -0.0059264493 7.574732e-05 -0.00014119418 0.0076729516 -0.009012694 0.012038487 -0.00040304393
00000000: a177 6539 1044 35ba aad7 5eb9 5715 e737
00000010: f172 2abb b425 253b 48f3 6e3a 8519 203a
00000020: 8a03 4539 d41e 14bc 01d5 8838 df17 c939
00000030: 9267 493c f5e2 46bc b340 6b3c 9445 32b9
00000040: 1209 063a a8b1 01b8 405d afb9 7115 0a38
00000050: 67a3 ddba 73e8 003b 32bb 6f39 dfec 33b7
00000060: 32bd 8e39 a932 c2bb 88da 9e38 860d 14b9
00000070: 626d fb3b faa9 13bc 133d 453c a44f d3b9

exp_avg_sq f4 [2, 16]
9.124346e-05 0.00067364686 1.7250866e-05 4.9887944e-06 0.0005834394 0.00020012385 0.00026533133 0.0007118041
1.9586156e-05 0.00086627423 9.624345e-06 0.00036612872 0.0020527649 0.0012174879 0.0058056302 0.000647143
4.15048e-05 0.0002777982 8.400037e-06 1.8303605e-06 0.00027817825 0.00010759634 0.00010401105 0.00029464232
8.209981e-06 0.00046093762 3.9648e-06 0.0001523584 0.0010553546 0.00062106387 0.0034615458 0.0002773232
00000000: f659 bf38 ad97 303a f4b5 9037 6b65 a736
00000010: f5f1 183a 56d8 5139 2b1c 8b39 5d98 3a3a
00000020: f34c a437 ae16 633a 3f78 2137 f7f4 bf39
00000030: ae87 063b 1d94 9f3a 283d be3b 08a5 293a
00000040: 7115 2e38 71a5 9139 e2ed 0c37 b5aa f535
00000050: 74d8 9139 58a5 e138 8220 da38 397a 9a39
00000060: 9abd 0937 00aa f139 5f09 8536 66c2 1f39
00000070: d353 8a3a e4ce 223a 1adb 623b b165 9139

exp_avg f4 [2]
0.0031784868 0.016718809
00000000: 294e 503b e2f5 883c

exp_avg_sq f4 [2]
0.052216448 0.017932694
00000000: eae0 553d 96e7 923c
