experiments/fcn_ensembles/lightning_logs/version_5/checkpoints/epoch=2-step=3432.ckpt (torch, 15179 bytes, 18 tensors)

model.net.0.weight f4 [16, 9]
00000000: 30d2 71be a939 89be 8ba9 9d3e 1b14 803e
00000010: 5b24 1f3e 3902 aa3e fd74 64bc c9ab 2ebf
00000020: 922c 5d3e e5c6 9abd 78dc 16bd 7dd4 423e
00000030: 449a ac3e eed0 38be 2e0c f93b f6c9 e6bd
00000040: a027 b93d f4b9 ebbd 1557 c6bc 79bd c7bd
00000050: b43d 463e 41e3 943c 804e b33d 50c2 a83d
00000060: 9390 1f3e bec6 afbe de1e 7f3e 6e28 e43d
00000070: bfeb 7bbd 97e1 103e c5b7 0e3e f3c0 3abd
00000080: feec 183b 3452 4d3d 7989 9c3d c62b ce3c
00000090: b80f 103e 92ca 9b3e 0670 8b3e e3e1 a6be
000000a0: 38df 4bbd 328d 1a3e 68c1 003e acc1 1abe
000000b0: 895a a9bd ee64 e83d c548 e43a c6a4 573e
000000c0: 7835 36bd e97e 2cbe bfa9 7ebe 0fa0 eebd
000000d0: a1a5 063d 9b6b 623e f846 b5bc 48b7 a33c
000000e0: 8d6c a8bd 93bf 913d 3de0 9bbd 680c d03d
000000f0: 2506 b43d d14b c13d 0c07 d13c 65e4 52be
00000100: ecd7 2cbe 9851 eebd 0a31 043e 465b 39be
00000110: 9994 bcbd bbc6 6c3c 932c 493c 8e24 103e
00000120: e0e0 943c c114 c93c 77c4 9fbd 2521 1bbe
00000130: 78ab cabc f5c7 20bc cf35 1f3d c3f4 8cbd
00000140: 828e 513b c129 95bc 659a 4b3e 721b 273e
00000150: 8367 8fbe fa52 84be ee51 cfbc a9b1 3ebd
00000160: 3143 d53c c61e 433e 9826 f73d d35c a7bd
00000170: 877c f6bd 322b de3d 0c4c 1a3e 6451 d1bd
00000180: 5e24 32bc 690c 923d 2567 fa3d 4c4b d13d
00000190: 254b 593d fd1b 313e e861 e5be fc55 ddbc
000001a0: 2be7 cabd 24cd 28be b5a2 cd3d c929 053d
000001b0: fabe 81be 4b3a b3bd f521 283c 96e5 2a3e
000001c0: c013 31bc 381c eabd 71db 283e 63e1 593e
000001d0: 6887 9c3d 4fd1 5ebe badc bfbc 5053 f9ba
000001e0: 06df d03e f6e8 b0bd c27c ae3d 7d81 7d3e
000001f0: d483 8dbc f852 f13d 478e 1f3d 72a5 e53e
00000200: c919 333c b8c5 8ebe 20f8 333e e1a4 c6bd
00000210: dcc5 4c3e f9bc 90bd 0bef 803e 212e d5bc
00000220: 66ab 233e daff 393e 51f9 f7be 21b1 c43d
00000230: bb98 183e d437 a93d 4cf3 3f3c 81b7 03bd
-0.23615336 -0.26801804 0.30793414 0.2501534 0.15541212 0.3320482 -0.013943908 -0.68230873
0.21599033 -0.07557467 -0.03683135 0.1902637 0.33711445 -0.1804845 0.007600329 -0.1126899
0.09040761 -0.11510077 -0.024211446 -0.09752936 0.19359475 0.01817477 0.08755207 0.08240187
0.15582494 -0.34331316 0.24914119 0.11140524 -0.061504122 0.14148556 0.1393729 -0.045594167
0.0023334618 0.050127223 0.07643408 0.025167357 0.14068496 0.30427986 0.27233905 -0.32594213
-0.049773425 0.15092924 0.12573779 -0.15112942 -0.08269221 0.11347376 0.0017416707 0.2105895
-0.044484586 -0.16845287 -0.2486944 -0.116516225 0.0328728 0.2211136 -0.022128567 0.019984856
-0.082238294 0.07116618 -0.076111294 0.10158616 0.087902345 0.09438289 0.025516056 -0.20594938
-0.16879243 -0.116366565 0.12909332 -0.18101224 -0.0920803 0.014451678 0.012278694 0.14076445
0.018173635 0.024546029 -0.078011446 -0.15149362 -0.024739966 -0.0098132985 0.038869675 -0.06882622
0.003197581 -0.018208386 0.19883116 0.16319063 -0.2800866 -0.25844556 -0.025307622 -0.04655615
0.026033016 0.19054708 0.12067908 -0.08172002 -0.120354705 0.108480826 0.15068072 -0.10220602
-0.010872928 0.07131273 0.122267045 0.1021944 0.05305018 0.17295833 -0.4480126 -0.02701854
-0.09907373 -0.16484505 0.100407995 0.032510553 -0.25341016 -0.08751353 0.010262002 0.16689143
-0.010807931 -0.114311635 0.1648996 0.21277384 0.07643014 -0.21759532 -0.02342068 -0.0019022021
0.40795153 -0.08638184 0.085198894 0.24756427 -0.017274775 0.11783403 0.038954046 0.44852787
0.010931441 -0.27885222 0.17575121 -0.09699417 0.19997352 -0.07067294 0.25182375 -0.026022973
0.15983352 0.18164006 -0.484324 0.09604097 0.14902012 0.082626015 0.011715721 -0.032157425

model.net.0.bias f4 [16]
00000000: 3369 18be a9b2 a13d 27f5 7abd 15fa dd3c
00000010: 2889 4fbe 3ce0 2a3e f282 6abd b621 70bc
00000020: 2fa0 d7bc 9d2c 14bd 3062 ae3d 29c4 b73d
00000030: a89d 45bd f5ec 283d 38e6 b0bd 1f18 88bd
-0.1488388 0.07895405 -0.06126895 0.027096787 -0.20267165 0.16687101 -0.057253785 -0.014656475
-0.026321499 -0.03617536 0.085148215 0.089729615 -0.048246056 0.041241605 -0.08637661 -0.06645226

model.net.2.weight f4 [16, 16]
00000000: 5350 0bbe 90fa 283c f9b9 0abe b79e 803d
00000010: 4a9c dabd f09a b13d d0d8 80bd 952b 0bbe
00000020: 55ad afbd 751b 7f3e 58ae c53b a23b a23d
00000030: 0da5 8bbd cd4e fcbd f5d2 d7bc 3478 bf3d
00000040: 00bf 3e3d f89b 603a a81e b63d 0fb1 d93d
00000050: 7760 f8bd 8667 52be 51a8 cd3d d2e4 d43d
00000060: 3eb8 c33c c2e3 fbbd a7cb f3bc 338f a1bd
00000070: 1b1a d23d 9913 d03d 90b8 c9bd 556d 2e3d
00000080: 247f b7bd 9799 78bd 8679 43be f8f3 d6bd
00000090: fa00 9a3c df40 fb3c 8446 cbbb 4c89 8dbd
000000a0: 3abc 913d 992d 74bd 1e17 87bd a526 1b3e
000000b0: 6b1d 0f3d 293e 26be 2452 f63d a537 273e
000000c0: aa64 12be 2195 37bd 0202 d03b 7814 a0bd
000000d0: 8767 043e 16e8 8abd 12fe 8e3c 41b6 cb3d
000000e0: 0afa 153c ad55 a93a 02bc 01be 1c14 c5bc
000000f0: d791 9d3d 6bc4 1eb9 1496 923d 5369 6f3d
00000100: f896 53be 1ca2 533b 23a6 243b bbcb 333c
00000110: be61 2d3e d68a ed3c 97c7 06bd 406b fe3d
00000120: c5ef 9e3d 1c06 afbd cab7 0fbe 0cee 213c
00000130: e8ff 66bc 207f 9dbd d5d0 fe3d 17bb 71bc
00000140: a24f 66be 95c3 c23c f099 bdbd 5128 80bd
00000150: 4fb1 173e eac1 7e3e 891a c3bc 3d0e 97bc
00000160: 9702 a53c e224 9abd 43e7 cbbd dfa3 893e
00000170: 239c e1bd 99de bbbd f605 663d a74e 083e
00000180: ef14 b73e 3064 663e 0207 58bd f994 ae3c
00000190: 1f5f a2be f808 38bd e7e1 e23b c84d b33d
000001a0: 3322 25be a1bc 28be 3e41 2dbe 32d9 9cbe
000001b0: e066 393e 8353 593e b4f1 81be b771 66be
000001c0: 68f2 9f3e da82 ba3d b182 a13d 660a 183e
000001d0: 39bf 983d febf e2bd 508c 653d f3fe 10bc
000001e0: 988d bebd 95a5 323d 9e50 a03c 54af 6dbd
000001f0: dda6 ee3c caeb d93d 32a0 03be 7f9a bfbd
00000200: 6ba2 ca3d b29a 203d b5ea e43c f177 203d
00000210: 38de 82bd f3a7 a6bb 4255 203b 0b65 9abc
00000220: 6f6c 9ebc ff93 41bd 3e55 143b 0b2f 8cbc
00000230: ffce a7bc b3a8 8e3c 0ac6 4cbd 77c8 e6bc
00000240: 531c 2f3d 9d0c ee3c 6c27 be3c 99bd c73c
00000250: 295c 7bbd 7504 32bc 8f2a df3b 5af3 84bd
00000260: 50a8 3abc 1e55 0e3d c2d9 f33c e850 f03c
00000270: fd4a d1bc 70ad d83b b05e 1fbd 0bbf 1abd
00000280: 9c57 90bd 179d e2bd 03ec 9bbd e7ee 02be
00000290: 7c2a cf3d b786 063e 1349 0fbe dff0 90bc
000002a0: d3e4 a6bd a89e 3d3e 3e58 b43d 618d 063d
000002b0: 0298 8abd c093 02be ccab 073d 6b7c 4dbd
000002c0: dd32 25bd 068c 613c ed85 ff3c 1712 9abd
000002d0: 3a2a ecbd 81c5 bb3c c3de f73c 7017 3c3e
000002e0: 4a65 9b3d 3d68 4b3d d1ec 2e3d 28a4 893d
000002f0: e911 d43d 5aaa 3c3d c023 bbbd 9742 91bb
00000300: e381 663e 8eee 0b3e 2337 c0bd b9be bdbd
00000310: c581 87be d986 9a3d b060 4cbd be67 2b3e
00000320: 14a4 8cbc 3dd2 71be 70bd 453e 6fbe 5bbe
00000330: a835 4e3e 6781 2c3e 2198 90be 572e 6bbe
00000340: 43ea d23d 2cff 113d 3cd5 3f3d 66f8 253c
00000350: c280 9bbd 870e adbd 6989 41bc 9551 d3bd
00000360: f521 d0bc f991 643d f8fa 833d 0f0f 433d
00000370: 332c 79bd f713 743a b9c8 d3bc cf21 75bd
00000380: dc79 863e 4b03 083d 0100 c33d 40ae f7bc
00000390: 7e39 9d3d ab2a b1bd 32b4 0abd 453a e43d
000003a0: 6803 4bbd 2d11 41bd 45d8 f83d cb04 0fbe
000003b0: 7eee 563d 181d b63d 952a 86bd 4f0b 0ebd
000003c0: 2221 153e 4031 1d3e bccf eb3d c204 d33c
000003d0: 9a78 10be 299c 4ebd 7f79 9c3d d88f c3bd
000003e0: f623 85bd ec0f a63d 4b07 28bd 441e 4d3d
000003f0: ce8c 52bd 713a 293d 6144 eebd 0844 51be
-0.1360486 0.010313645 -0.13547505 0.062802725 -0.10674341 0.0867213 -0.06291354 -0.13590844
-0.08577982 0.24912818 0.0060327463 0.0792153 -0.0681859 -0.123197176 -0.02634571 0.09349099
0.04656887 0.0008568163 0.08892566 0.10629474 -0.12127774 -0.20547304 0.100418694 0.103952065
0.023891564 -0.12299301 -0.029760195 -0.07888641 0.102588855 0.10159988 -0.09849656 0.042584736
-0.08959797 -0.06069335 -0.19089326 -0.10495752 0.018799294 0.030670581 -0.0062034745 -0.06910953
0.071159795 -0.059613798 -0.06596206 0.1515146 0.034940165 -0.1623465 0.12027386 0.1632982
-0.14296213 -0.044819955 0.0063478956 -0.07816404 0.12930118 -0.06782548 0.017455135 0.099468715
0.009153852 0.001291921 -0.12669376 -0.02405744 0.07693832 -0.00015141226 0.071575314 0.058450054
-0.20663059 0.003229267 0.002512344 0.010973866 0.16931817 0.028996866 -0.032905187 0.124228
0.07760576 -0.08546087 -0.14034954 0.009883415 -0.014099099 -0.07690263 0.12442175 -0.014754078
-0.22491315 0.023774901 -0.09257877 -0.0625769 0.14813732 0.2487866 -0.023816364 -0.018439407
0.020142836 -0.07526566 -0.09956219 0.26882836 -0.11016109 -0.091733165 0.05615803 0.13311253
0.3575816 0.22499156 -0.05274106 0.02131127 -0.31713197 -0.04493043 0.0069239023 0.0875507
-0.16126327 -0.16478206 -0.16919419 -0.30634457 0.1810565 0.21223263 -0.25379717 -0.22504316
0.3123963 0.09106989 0.078862555 0.14847717 0.07458348 -0.11071776 0.056042016 -0.008849847
-0.093043506 0.043614943 0.019569691 -0.058028534 0.029132301 0.10640676 -0.12854078 -0.0935564
0.0989426 0.03921003 0.027943948 0.039176885 -0.06390041 -0.005085939 0.002446488 -0.01884701
-0.019338815 -0.04726028 0.0022633816 -0.017112276 -0.020484446 0.017414426 -0.049993552 -0.028171761
0.04275162 0.029058749 0.023212157 0.0243824 -0.061367188 -0.01086532 0.0068104933 -0.06491728
-0.011392668 0.034749143 0.029766921 0.029335454 -0.025548453 0.0066124722 -0.03890866 -0.03777985
-0.0704796 -0.11065119 -0.07613375 -0.12786447 0.10115525 0.13137327 -0.1399272 -0.017692981
-0.081491135 0.18517554 0.08805893 0.032849673 -0.067672744 -0.12751675 0.033122823 -0.050167482
-0.04033171 0.013766294 0.03119179 -0.075229816 -0.115314916 0.022921326 0.030257588 0.18368316
0.07587679 0.049659956 0.042706314 0.067207634 0.103549786 0.046060897 -0.09137678 -0.004432987
0.22510485 0.1366522 -0.093855165 -0.09264893 -0.26466194 0.075452514 -0.049896896 0.16738793
-0.017168082 -0.23615356 0.19310546 -0.21459363 0.20137656 0.16846238 -0.28241065 -0.22966896
0.10298588 0.03564374 0.046834216 0.010130024 -0.07592918 -0.084500365 -0.011812546 -0.10318295
-0.025406817 0.055803273 0.06444353 0.047621783 -0.060833167 0.00093108363 -0.025852548 -0.059846696
0.26264846 0.033206265 0.09521485 -0.030234456 0.076769814 -0.086507164 -0.033863254 0.111439265
-0.049563795 -0.04713552 0.12150625 -0.13966672 0.052473538 0.08892268 -0.06551091 -0.034678753
0.1456342 0.15350819 0.115142316 0.025759105 -0.14108506 -0.050441895 0.07640361 -0.095489204
-0.06501 0.081085056 -0.04102258 0.05007769 -0.051403813 0.0413155 -0.11634136 -0.20436108

model.net.2.bias f4 [16]
00000000: c0aa 523c da98 45bd 4dbd 7ebc 03c2 02be
00000010: f7e2 55bd 751f edbb d36a 6a3c cdd9 0e3e
00000020: c056 d03d ea9a 8d3d 919d 86bb 1fd3 27bd
00000030: 7e93 de3d 596f f53d 76b9 98bd be3d 7f3d
0.012858093 -0.048241474 -0.0155480625 -0.12769322 -0.052218404 -0.007236416 0.014307695 0.13950272
0.10172796 0.06914313 -0.004108139 -0.040972825 0.10867976 0.119841285 -0.07457249 0.06231474

model.net.4.weight f4 [2, 16]
00000000: e370 923e b7bc 9ebe ee32 633e ddbe d2bc
00000010: c70d 183e 8fdb 9e3e a1e4 08bf 112f 34be
00000020: a55a 96bc 1d84 c63c 8d8b b93e 54e8 87be
00000030: 6d0b 06bf ffde 593d 25d7 90be ed23 d4bd
00000040: 62d3 e43d 6ece a4bc 1340 793e b3b8 ad3e
00000050: 3a83 7c3e a1a8 8c3e e6c4 aabe 2f7f bebe
00000060: 8c16 37be 9a75 09be f8e6 b13d 82bf be3d
00000070: e375 15be c1d7 7bbe 00b7 b2bd e143 a6be
0.2860175 -0.31003353 0.22187397 -0.025725776 0.14849006 0.31026885 -0.5347386 -0.1759608
-0.01835377 0.024232918 0.3623928 -0.2654444 -0.52361184 0.05319118 -0.28289142 -0.10358415
0.111731306 -0.020117965 0.24340849 0.33929977 0.24659434 0.27472404 -0.33353347 -0.37206408
-0.17879695 -0.13423768 0.08686632 0.09313871 -0.14595751 -0.24594022 -0.08726311 -0.32473662

model.net.4.bias f4 [2]
00000000: b940 a83d 01c6 3dbe
0.0821547 -0.18532564

exp_avg f4 [16, 9]
00000000: 7f36 e93c 98c3 963c 8032 b0bc 41b8 9d3c
00000010: 788f fb3c 7de2 e73c 30ca 513c d8f7 1c3c
00000020: 5524 563b 77f2 9c3c 6ce4 8b3c 9493 5dbb
00000030: 9f97 523c 4301 913c 67f5 6c3c 56ce 233c
00000040: 5d29 e4ba e97b 05bb 8cad 1e3c 5a42 ce3b
00000050: d0fd 7dbb 3f6d b23b 2915 283c f775 023c
00000060: 0b2d e63b 883c 06bb 57f5 d23a 203b 893b
00000070: 7ca2 483b 3e19 bf38 f6bf 1f3a fb43 1b3b
00000080: c993 063b 11ed 3b3b a56d a6bb 994f cb3a
00000090: 2c53 9bbc ce9d 20bc 6e55 843c f9d5 4dbc
000000a0: 1332 aebc 19e5 83bc 2514 34bc 6a03 b5bb
000000b0: 30de 35bb 14c4 44bb ec0d 9fbb 5342 6d3b
000000c0: e90d 893b 7896 aabb 7ab1 2dbb 5a19 3eba
000000d0: ff45 0f3c 5a50 0cbc ba40 103c 49c2 e43b
000000e0: 5a05 87bb fc2c c63b d608 033c 41f0 053c
000000f0: a681 933b e3f3 20b9 2f68 62ba ccfb 153c
00000100: a2b1 b63b afb9 e7bb be34 023c bc9d 193c
00000110: 9f4d d73b 86c0 903b cdb1 a73b 7b6b 8b3b
00000120: 7d11 6fbb e8c9 8bbb 1624 bf3a cf49 81b8
00000130: 245b 80bb 04b3 0ebb 2435 9bbb 35a7 ac3b
00000140: 804f 0cbb cbec fcbb 7a2b 67bb bc05 033c
00000150: 9256 c0ba 814a 1fbc 7d07 e2ba 0358 caba
00000160: 9f6b e93a 66a9 02bc 5a21 a23b 3884 263b
00000170: 9cb5 53bb 6c36 d73a 2513 ab3b 3afe 0b3b
00000180: addb 5d3b ade5 0dbb 0421 093b 6396 6dbc
00000190: 35c9 5abc c5a8 0e3c 9522 2ebb 18d7 79bc
000001a0: a35c 0cbc cdaa c3bb a62c 103c 9fad 72bc
000001b0: 08ab b43c 95f3 5b3c f9cc 7bbc 11c3 943c
000001c0: dd25 c43c d64b 8e3c fff6 1c3c fdbf f53b
000001d0: 91f5 feba c662 d13c 4e76 a93c bd93 7abc
000001e0: 5a51 683c a891 d43c 0889 903c 934a 643c
000001f0: b019 09bc 8406 c8ba e4de a1bc 893d c6bb
00000200: 5bda bf3c 5b69 adbb da89 8ebc ba56 e6bb
00000210: 044d 01bc ab46 1c3c df30 133b 1e61 9dbc
00000220: e816 76bc d624 1f3c 674b 01bc 73a6 92bc
00000230: 3ad5 40bc 0b48 4fbc 661a 243c 65d4 97bb
0.028468369 0.018403813 -0.021508455 0.019252898 0.03070806 0.02830624 0.012804553 0.009580575
0.0032675464 0.019158585 0.017076693 -0.0033809887 0.012853532 0.017700797 0.014462805 0.009997925
-0.0017407347 -0.0020368046 0.0096849315 0.006294531 -0.003875602 0.005445152 0.010258951 0.007962695
0.0070244125 -0.0020482857 0.0016094845 0.0041879565 0.0030614426 9.1122914e-05 0.0006093973 0.0023691643
0.0020534864 0.0028675238 -0.0050789886 0.0015511393 -0.018960558 -0.009803249 0.016154017 -0.012563222
-0.021264112 -0.016100453 -0.010991131 -0.0055240886 -0.0027750842 -0.0030024098 -0.0048539545 0.0036202862
0.0041825664 -0.0052059256 -0.002650349 -0.00072517025 0.008744716 -0.008564079 0.0088044945 0.0069811684
-0.004120511 0.006047843 0.007997712 0.008174957 0.0045015393 -0.00015349644 -0.00086367404 0.009154271
0.0055753747 -0.0070716958 0.007947145 0.009375986 0.0065705325 0.004417482 0.005117631 0.004254756
-0.003647893 -0.0042660125 0.0014582898 -6.164947e-05 -0.003917115 -0.0021774182 -0.0047365595 0.005268956
-0.002140969 -0.0077186576 -0.0035273717 0.007996973 -0.0014674237 -0.009722353 -0.0017244663 -0.0015437606
0.0017808563 -0.007974958 0.0049478235 0.0025408398 -0.0032304293 0.0016419417 0.005220788 0.0021361248
0.003385286 -0.002165179 0.002092422 -0.014501187 -0.013353636 0.00870723 -0.0026570905 -0.015249036
-0.008567008 -0.005971289 0.0087997075 -0.014811902 0.02205421 0.013424774 -0.0153686935 0.018159421
0.023943836 0.017370146 0.009580373 0.0074996934 -0.0019451847 0.025559794 0.020686295 -0.015294013
0.014179552 0.02594836 0.017643467 0.0139337955 -0.008367941 -0.0015260731 -0.019759603 -0.006049816
0.02341955 -0.0052921004 -0.017399717 -0.0070293816 -0.007891897 0.009538333 0.002245955 -0.019211348
-0.01502011 0.009713372 -0.0078915125 -0.017901635 -0.011769587 -0.012651454 0.0100160595 -0.0046334737

exp_avg_sq f4 [16, 9]
00000000: 8fc3 443c 0703 543c 6b8e 783c 2f03 4a3c
00000010: 606b 483c c70e 5e3c 2aa6 e53b cc2a 023c
00000020: 212e 563c 22a3 6a3b 4956 513b 2617 5a3b
00000030: 938c 5e3b 0762 6d3b ba72 673b 7f57 943a
00000040: 0196 513b 6f26 6f3b fc46 f03a 958d fe3a
00000050: 1d2b 1b3b 1b9a fc3a 31ca f33a a276 053b
00000060: 82ac 1a3a cb0d bd3a a99f ff3a e108 0e3a
00000070: a239 033a c6e8 393a 99b4 153a 3257 0f3a
00000080: 694c 183a 0f65 3939 74b0 083a 24a7 1a3a
00000090: ce3f b13b ef4b 8c3b 2f92 523b 9272 c13b
000000a0: 72c4 b13b 5141 b73b 846c cb3a afe1 ba3b
000000b0: 6758 bd3b 652d a73a 741e d83a bb51 223b
000000c0: 314b b93a c28c a83a 9ab4 c83a bfaa e139
000000d0: 2b7f e03a a07e b53a 0c66 043a bf6b 0a3a
000000e0: b7e9 213a 1908 013a 0763 063a e4ec 073a
000000f0: cbee 3f39 fdd8 ff39 3008 0b3a 5438 853a
00000100: 50cd 6b3a 1231 de3a 9480 8a3a 417e 873a
00000110: 4c1a 873a 6b3d 183a 0037 a93a 1bb0 a23a
00000120: f7f0 0e3a cc14 043a 22c6 183a 4c8f 123a
00000130: 6833 0f3a f409 163a f1c4 9a39 4d7c 033a
00000140: 152e 143a 0dd2 ab3a 771c e53a 26c8 033b
00000150: 21e5 9e3a 53a4 ad3a 08a2 c63a 74cd 253a
00000160: d39f c03a 0d39 b93a 0778 da39 8427 cb39
00000170: 2be8 9039 edeb 023a 3e46 d939 c44e ff39
00000180: d3dd 1f39 b291 e039 e31b f339 1106 bb3b
00000190: 8e1f db3b bfd5 083c 6daa b53b 19c5 bd3b
000001a0: 70db d33b e426 f73a 0fbc e53b e863 d23b
000001b0: b689 513b 2d3b 4d3b 5c46 5c3b 6916 523b
000001c0: 9873 523b 0b48 583b e301 a13a 875e 5b3b
000001d0: 8ba0 633b 3c15 273c 64e5 1f3c c244 2b3c
000001e0: ef79 253c 205e 283c 538c 2b3c 4736 473b
000001f0: d10e 263c 68db 2f3c 44a1 333c 3525 233c
00000200: 1a96 193c 7d30 3b3c 45ee 333c 178a 3a3c
00000210: d9b8 4c3b f146 303c c92b 393c 177c fe3b
00000220: f7ca ed3b 70ff c33b aa5c 063c 364a fe3b
00000230: c59a 0a3c c1e2 183b 45d6 fd3b 78f2 053c
0.012009515 0.012940175 0.015170674 0.012329861 0.012232631 0.013553328 0.0070083337 0.007944774
0.013072521 0.00358028 0.00319423 0.0033277958 0.00339583 0.003622176 0.0035316185 0.001131758
0.0031980278 0.0036491414 0.0018331702 0.0019420857 0.002367682 0.0019272001 0.0018599686 0.00203649
0.00059003395 0.0014423666 0.0019502538 0.0005418193 0.00050058414 0.0007091876 0.000571081 0.000546801
0.0005809726 0.00017680622 0.0005214282 0.00058995397 0.0054092174 0.004281513 0.003213059 0.0059035504
0.0054250294 0.005592503 0.0015520011 0.005703173 0.0057783606 0.0012754617 0.0016488568 0.0024767953
0.0014136789 0.0012859332 0.0015312613 0.0004304256 0.0017127743 0.0013846941 0.00050506066 0.00052803376
0.0006176489 0.0004922166 0.00051264506 0.0005185141 0.00018304137 0.0004879906 0.0005303649 0.0010163882
0.00089951325 0.001695188 0.0010566884 0.0010337309 0.001030752 0.0005807492 0.0012910068 0.0012412103
0.00054527767 0.00050384994 0.0005827864 0.0005590811 0.0005462677 0.0005723529 0.00029519902 0.00050157757
0.0005652619 0.0013108865 0.0017479797 0.0020108311 0.0012122729 0.0013247825 0.001515449 0.00063248654
0.0014696069 0.0014131382 0.00041669628 0.0003874862 0.000276388 0.0004994262 0.000414418 0.00048696075
0.00015246058 0.0004283316 0.0004636935 0.0057075103 0.006687111 0.008351742 0.005543998 0.005791318
0.006465368 0.0018856195 0.0070109437 0.006420601 0.0031972951 0.003131579 0.0033611273 0.0032056815
0.0032112356 0.0033001925 0.0012283887 0.003347309 0.0034733142 0.010197934 0.009759281 0.010453405
0.010099872 0.010276347 0.010470468 0.0030397342 0.010135368 0.010733463 0.010963742 0.009957601
0.009374166 0.011425135 0.010982101 0.011385462 0.0031238107 0.010759101 0.011301943 0.0077662575
0.0072568613 0.0059813783 0.008200804 0.0077603115 0.0084597515 0.0023328515 0.00774649 0.008175485

exp_avg f4 [16]
00000000: a933 d43c 740d f93a 7a10 213b 315a 36bb
00000010: 4149 03bb 9fb1 273b 43db 233a ca60 113b
00000020: 81e2 c53a 4327 96bb 21a8 00ba f585 c1bb
00000030: 0f86 f73b 4bbc 3b3b bee7 7cba 85f7 3bbb
0.02590354 0.0019001202 0.0024576471 -0.0027824754 -0.0020032676 0.0025588048 0.0006250629 0.0022182935
0.0015097411 -0.004582317 -0.00049078657 -0.0059058615 0.007553823 0.0028646167 -0.00096475694 -0.0028681469

exp_avg_sq f4 [16]
00000000: e53f 953c ec82 963b a1ae 2c3b 24e1 463a
00000010: 144d cd3b e253 263b 747d 2c3a 644d 153b
00000020: 80cc 2d3a b175 1f3b 0e8e f739 817d 1f3c
00000030: 72f9 873b 2119 4f3c c220 543c 32bc 113c
0.018218944 0.004593244 0.0026349204 0.0007586649 0.006265292 0.0025379588 0.0006579973 0.0022781724
0.0006629899 0.0024331624 0.0004721735 0.009734512 0.0041496092 0.012640269 0.012947263 0.008894967

exp_avg f4 [16, 16]
00000000: 5d88 9c3b b442 1a3b 57be bb39 266d 1bbb
00000010: eaa2 14bb b071 f33b c87e 8bbb 88af ec3b
00000020: a30c bc3a 0582 103c bd3b e1bb 895f e93b
00000030: 7732 a73b a94e 8cbb 3d8f b5bb 8630 383b
00000040: 5b17 eabb a3ff 83ba e5ab 17bb 33e2 a73b
00000050: 356d 96ba 567d 21bc 2af3 aa3b 7333 13bc
00000060: d988 4abb f6cf 18bc 8340 033c cdcc 08bc
00000070: ce87 9fbb 88d1 9c3b e847 5d3b f008 33bb
00000080: e2af 5e3a e2a8 913b 28f9 8cbb 2e5b b4ba
00000090: e4e5 83bb a4e4 5e3b 5674 cdba 15f8 833b
000000a0: 6327 c039 31c8 b23a 763e 79bb b06e 903b
000000b0: d843 b23b 72fa 17bb 671d d8bb e855 a9b8
000000c0: 9fbc fcbb a4da b63b 3105 e6bb d37e 563b
000000d0: 3853 9abb 6c21 a0bb 36ce 303b e222 67bb
000000e0: 12f6 85bb 2898 cdbb 79c5 663b 0864 90bb
000000f0: 284f ca3a b03f 4e3b 4580 b6bb 9678 aebb
00000100: edd6 1bbb 6f11 a03b ca57 56bb 4703 4b3a
00000110: 9339 29bb d22f cb3a eb93 5aba 3277 693b
00000120: 37bc c5b9 c181 63ba e7f7 26bb ccde a33a
00000130: 13c8 6d3b 0982 1dba a3d4 b6bb 3b2c 2cbb
00000140: ae4c 8e3a faf5 ce3b f178 55bb 4e6a c6ba
00000150: bcf4 4dbb 27aa d73b d946 1abb 4699 d13b
00000160: 88a5 5739 145f 183b f399 c2bb aa13 d83b
00000170: 3710 b33b 6d91 01bb 5843 17bc c655 aab9
00000180: ecbb 95bb d6c8 efbb 8288 b53a 4ed3 f73a
00000190: c288 033b f1e8 efbb b041 603b 2f3c 21bc
000001a0: 3491 feba 149d 0dbc 0dcf 003c efe5 22bc
000001b0: f33d 05bc fb66 753b 47f0 4f3c acfb 77ba
000001c0: 4f66 993b 626a cdbb f710 cb3b 6895 e7b9
000001d0: 3bce dd3b b507 8aba 9d56 ce39 945b abba
000001e0: bd35 c93a 587a 193b d067 d239 8ae4 fcb9
000001f0: c63f 85bb ca1b 43b9 d77d 003c a134 4d3b
00000200: daa5 673b 6da8 40bb e6d3 743b db01 b2ba
00000210: d2e0 253b 160a bf3a ffec 6bba 164b 9e3a
00000220: 3152 de3a aaa2 083b 58da d9ba a704 ad3a
00000230: f381 9cba 8d12 95ba 6fbb 583b e725 263b
00000240: 8c9e 603b e9ac 10bb 9df0 5d3b 0492 dcba
00000250: 8b29 f83a 8889 0e3b 936a a4ba eb0f eb3a
00000260: 3156 ef3a c499 653b 7e10 0cbb 1968 273b
00000270: 47b9 89b9 5034 c9ba 3076 083b 9ae4 163b
00000280: fa86 ec3b d32f aa3a c24c d33a 553a abbb
00000290: 8cea e4b9 17fc 173c 37b9 bdbb 4652 2f3c
000002a0: bdc6 123b 8ad1 1f3c 4c3c 00bc 069a 033c
000002b0: 0017 cc3b cd8b a0bb 4f69 cebb ba22 eb3a
000002c0: 5c96 18bc fba5 d13a d21f a8bb 25ae 873b
000002d0: d548 6dbb 921b 01bc 9193 a33b 6bd4 03bc
000002e0: 81f1 69bb 931b 0bbc 2599 143c bab1 eebb
000002f0: c54a 50bb faed a53b 4c32 e1b8 c8c7 a6bb
00000300: 0774 0dbc 33cd 8abb ebb1 46bb ed81 393b
00000310: b8af 27ba 8991 08bc dc1d 943b 5360 28bc
00000320: c002 2dbb 8073 43bc cd1b 4f3c ee48 31bc
00000330: 1b81 b4bb 3bc3 ab3b fa15 fc3b 2186 60bb
00000340: 086e d93b 9b37 87bb a110 cc3b acb8 63bb
00000350: 6777 773b 5bc6 5e3b 7f28 29bb e827 6c3b
00000360: 6f99 593b faff d13b c776 81bb 7b22 993b
00000370: e334 01ba 6dc7 3fbb e704 853b 4247 8c3b
00000380: d6b9 8abb d997 aaba 767c bfba c091 503b
00000390: 5a6d d53a 7ced 02bc 6d1d 703b c9ae 02bc
000003a0: 53a4 52bb 8bcf f4bb a4f5 0a3c c3bc 06bc
000003b0: eaa3 a0bb 7f10 903b 5c68 853b e22d 2abb
000003c0: eb2b 8f3b 466c 95bb 17b5 d73b a82f fdba
000003d0: c388 8c3b 48ed d239 0e7d 1938 5f9e 57ba
000003e0: aa70 fd3a 9884 653b b5b4 c8ba 8d65 be3a
000003f0: 65ce 78bb ba5c 8dba 460c d93b 86f4 123b
0.004776998 0.0023538293 0.00035809234 -0.002371618 -0.0022680112 0.007429324 -0.004257057 0.0072230734
0.0014347028 0.008820062 -0.0068735764 0.0071219844 0.0051024514 -0.004281838 -0.005540757 0.0028105094
-0.0071438975 -0.0010070693 -0.0023143229 0.0051234006 -0.0011476638 -0.009856543 0.0052169757 -0.008984434
-0.0030904321 -0.0093269255 0.008010986 -0.00834961 -0.004868484 0.0047857203 0.0033764783 -0.002731856
0.00084948365 0.004445181 -0.0043021627 -0.0013760084 -0.004025208 0.0034010792 -0.001567493 0.0040273764
0.0003665044 0.0013639984 -0.0038031614 0.004407726 0.0054402165 -0.0023190049 -0.006595302 -8.074549e-05
-0.007712915 0.005580263 -0.007019662 0.0032729402 -0.0047096275 -0.0048867967 0.002697838 -0.0035268595
-0.0040881718 -0.006274242 0.0035212918 -0.004406456 0.0015434967 0.0031471066 -0.00556949 -0.0053244336
-0.0023779229 0.0048848907 -0.0032706135 0.0007744324 -0.002582167 0.0015501922 -0.00083380815 0.0035624024
-0.00037715 -0.00086786976 -0.002547735 0.0012502312 0.0036282584 -0.00060084515 -0.0055795475 -0.002627148
0.0010856593 0.006315944 -0.0032573307 -0.0015137882 -0.003142639 0.006581563 -0.0023540764 0.0063964454
0.00020565663 0.002325003 -0.0059387623 0.006594141 0.0054645794 -0.0019770518 -0.009232365 -0.00032488833
-0.004569521 -0.0073176427 0.0013849887 0.0018907578 0.0020070528 -0.00732147 0.003421884 -0.009841009
-0.0019421936 -0.008643407 0.007861865 -0.009942516 -0.008132446 0.0037445414 0.012691564 -0.0009459804
0.0046813856 -0.0062687853 0.0061970907 -0.0004417107 0.0067689694 -0.0010530861 0.00039355914 -0.0013073557
0.0015351098 0.002341887 0.00040131668 -0.0004823546 -0.0040664403 -0.00018607001 0.007842503 0.0031311887
0.0035346658 -0.0029397265 0.0037357747 -0.0013580875 0.0025311005 0.0014575149 -0.0008999854 0.0012076821
0.0016961751 0.0020848908 -0.0016620858 0.0013200239 -0.0011940583 -0.0011373326 0.0033070704 0.0025352181
0.0034274189 -0.0022075719 0.003386534 -0.0016828184 0.0018933279 0.0021749455 -0.0012543969 0.0017933821
0.001825994 0.0035034278 -0.0021372135 0.0025544225 -0.0002626872 -0.0015350673 0.0020822398 0.002302444
0.007218239 0.0012984223 0.0016120898 -0.0052254596 -0.000436623 0.0092764115 -0.0057899016 0.010700768
0.002239629 0.009754548 -0.007826876 0.0080323275 0.0062283278 -0.004899478 -0.006299175 0.0017939426
-0.009313192 0.0015994901 -0.0051307464 0.0041406327 -0.0036206741 -0.007880108 0.0049919565 -0.00804625
-0.0035696926 -0.008490461 0.009069716 -0.0072843703 -0.0031782847 0.0050637694 -0.000107382046 -0.0050897337
-0.00863362 -0.0042358874 -0.003031845 0.0028306202 -0.00063967286 -0.00833548 0.004520161 -0.010276872
-0.0026399344 -0.011929393 0.012640906 -0.01082061 -0.0055085546 0.005241779 0.0076930495 -0.0034259635
0.006635431 -0.0041265017 0.0062275683 -0.0034747524 0.0037760378 0.003399274 -0.002581149 0.0036034528
0.0033203026 0.0064086886 -0.003950927 0.0046733 -0.000492884 -0.0029263154 0.0040594223 0.0042809555
-0.004233579 -0.0013015225 -0.0014609236 0.0031825155 0.00162832 -0.007991191 0.0036638633 -0.007976242
-0.0032141402 -0.00747103 0.008481417 -0.008223715 -0.0049023526 0.0043964977 0.0040712785 -0.002596729
0.004369249 -0.0045600263 0.006582867 -0.0019316571 0.004288764 0.0004023111 3.659451e-05 -0.0008225198
0.0019335945 0.003502166 -0.0015312644 0.0014526114 -0.0037964818 -0.0010785081 0.0066237776 0.002242358

exp_avg_sq f4 [16, 16]
00000000: 3a92 a53a 79a9 e939 9473 433a 2911 0e3a
00000010: 6f8a bf3a 353e c73a 710b 9239 285c c63a
00000020: c2b6 9a39 3bc3 bb3a 73c7 2f3a b26d 913a
00000030: f31f b239 5976 6c39 9f71 173a 766f 203a
00000040: 21f1 673a 8189 9739 2fc6 043a 8638 ac39
00000050: 12f4 793a 3654 943a 9f9c 4739 37a8 8c3a
00000060: fc06 3d39 a742 753a 7f9e b739 6092 483a
00000070: c455 8039 ca8c 1639 0926 bc39 fb4e c339
00000080: 9536 a63a 7938 eb39 c818 473a 6a89 0e3a
00000090: fbe7 be3a 1496 c03a 3cd5 8f39 96e7 c33a
000000a0: c591 a339 b647 bc3a 7ce9 333a d18c 903a
000000b0: 3de9 b539 ee73 7439 5782 193a 5dc1 213a
000000c0: 79ef ca39 c00b 1c39 9c33 7f39 55f4 2539
000000d0: 5b43 d139 cea1 e639 6b04 b238 4061 df39
000000e0: fe0f c738 ecd6 ff39 27f8 4f39 970b c739
000000f0: 6bd8 ed38 c4ee c238 22f8 5839 303b 6039
00000100: 321d 2f3a 320f 8239 2d91 d239 a091 8c39
00000110: d16a 3c3a ea7b 433a 24d3 0c39 14a8 493a
00000120: 8605 2439 e552 4d3a 3aa8 ab39 2a79 173a
00000130: 4a01 4639 5bd4 1139 af00 a639 2af9 ae39
00000140: 48f3 c63a 9930 113a 7638 6e3a a506 213a
00000150: 3009 e23a 78ea e73a 39be 9f39 23d4 ee3a
00000160: 8ed4 b639 7883 de3a eac9 393a 51d2 a83a
00000170: 75bf da39 2693 9639 ac2c 363a d022 3b3a
00000180: 25ed 483b f3b2 873a 9d05 e53a 564d 983a
00000190: 1ace 5d3b 4ede 763b 0637 203a 839f 763b
000001a0: 17b1 273a 12bd 593b 6197 ad3a cd21 293b
000001b0: 1796 643a 16ff 013a 7012 9d3a 8419 a73a
000001c0: c4b5 883a f8e3 c139 f455 273a 5eb6 d439
000001d0: 9c43 9d3a 7fde 963a 924a 5339 8543 9c3a
000001e0: b15f 7939 f97b a23a abb1 083a e4b0 693a
000001f0: 0464 9239 1cae 5c39 6bb9 093a fd56 123a
00000200: 933a 1939 06e4 6b38 525c bf38 a16f 8138
00000210: 2c83 2739 2bf7 2739 4d82 0238 4a94 2939
00000220: 877d 1638 c964 3f39 bf17 ac38 2b60 0e39
00000230: 5847 2e38 5005 1038 bfad a338 1579 ae38
00000240: c8cc a138 e341 f937 9245 6238 829d 1b38
00000250: dea5 c338 f7ba bd38 5d53 a437 9238 c038
00000260: e7bc c737 c56c d538 71a3 5d38 67e6 ac38
00000270: efc3 bb37 eef3 9437 7a26 3938 f67a 4538
00000280: f52d d13a c398 063a 65d9 6b3a 509f 193a
00000290: 43c2 df3a 28fc ff3a ec53 b939 2ac1 ef3a
000002a0: 9f30 ab39 de7b de3a 58ab 3a3a ffd2 b03a
000002b0: 955f e039 f076 8539 60e9 2d3a e387 373a
000002c0: 6a98 323a c9c3 4439 0001 c439 fce8 6239
000002d0: eaa4 203a fd2f 623a 1570 3c39 d0e6 343a
000002e0: 64c1 0e39 3415 303a a861 9039 0918 1a3a
000002f0: e2c2 1c39 da34 c538 5457 7639 0829 8439
00000300: 528e 103b b1d3 353a 01bc 9e3a 5390 3e3a
00000310: a209 e63a 292f 383b 2a74 fe39 9f21 243b
00000320: 077f e039 1c97 1b3b 5ba3 3d3a fd88 fd3a
00000330: 7c4d 223a 0a9b b739 c4d8 313a ab21 2c3a
00000340: 7bf2 4339 ac6a 8f38 e6fc fd38 c1ef 9538
00000350: 4a40 4a39 df64 6939 fa6f 3f38 eb12 5139
00000360: 3bd5 3138 d544 7639 d523 cc38 4822 4739
00000370: 0ef4 5538 0e94 3438 0062 d338 92ab dc38
00000380: f590 6a3a 5169 a039 2d54 083a 2380 b439
00000390: 8237 803a 6886 963a 780c 5939 e396 8d3a
000003a0: d8ca 4c39 c19a 823a 7259 cc39 9e09 533a
000003b0: 65d1 8139 fa42 2839 ae68 c739 6816 d139
000003c0: 6a54 4f3a b3fa 9b39 a19d 023a 4831 b639
000003d0: 346b 703a f35e 633a 385c 2d39 1166 713a
000003e0: dc81 5739 de24 7a3a 25f0 f339 a3ed 3a3a
000003f0: ac02 6d39 8ced 2f39 654a d139 fbd9 df39
0.001263208 0.0004456749 0.0007455882 0.0005419427 0.00146134 0.0015201034 0.00027855815 0.0015133666
0.00029509334 0.0014325151 0.00067054405 0.0011095314 0.0003397461 0.00022550802 0.0005777124 0.00061201246
0.00088478817 0.00028903413 0.0005064932 0.0003284851 0.00095349655 0.0011316601 0.00019036465 0.0010731284
0.00018027046 0.000935594 0.0003502257 0.0007651206 0.00024477963 0.00014357563 0.00035886493 0.00037252143
0.0012681062 0.00044864768 0.000759494 0.00054373464 0.0014564985 0.0014693164 0.00027433957 0.0014946337
0.0003119839 0.0014364633 0.00068631 0.0011028295 0.00034696786 0.0002331284 0.0005855909 0.0006170476
0.00038706863 0.00014881697 0.00024337921 0.00015826647 0.0003991377 0.00043989572 8.488524e-05 0.0004260633
9.492038e-05 0.0004879752 0.00019833502 0.00037964873 0.00011341352 9.2951144e-05 0.00020691802 0.00021384354
0.00066800707 0.00024806854 0.00040162486 0.0002681138 0.0007187548 0.00074571243 0.00013430096 0.0007692587
0.00015642316 0.00078324816 0.00032741 0.0005778248 0.00018883232 0.00013907386 0.00031662497 0.00033373508
0.0015178705 0.00055385527 0.0009087393 0.0006142653 0.001724517 0.0017693778 0.0003046857 0.0018221181
0.0003487211 0.0016976437 0.00070872775 0.0012880062 0.00041722847 0.00028719864 0.00069494057 0.00071386714
0.0030658927 0.0010353014 0.0017472986 0.0011619728 0.003384477 0.0037669125 0.0006111715 0.0037631697
0.0006396933 0.0033224267 0.0013243967 0.00258075 0.0008719875 0.000495897 0.0011983644 0.0012748693
0.0010430147 0.0003698168 0.00063833524 0.00040571665 0.0011998299 0.0011510401 0.00020150308 0.0011921978
0.00023782138 0.0012396566 0.0005214463 0.00089146034 0.00027921807 0.00021045696 0.00052537647 0.000558242
0.00014613038 5.624073e-05 9.124786e-05 6.171992e-05 0.00015975226 0.00016018438 3.1115767e-05 0.00016172338
3.5879693e-05 0.00018252725 8.206022e-05 0.00013578 4.1551277e-05 3.4337223e-05 7.8048084e-05 8.31952e-05
7.715222e-05 2.9713794e-05 5.394739e-05 3.710157e-05 9.32922e-05 9.047047e-05 1.9589143e-05 9.1658105e-05
2.3810613e-05 0.000101768914 5.2842723e-05 8.244515e-05 2.2383376e-05 1.7756563e-05 4.414327e-05 4.7082976e-05
0.0015959131 0.00051344576 0.0008996933 0.0005860226 0.0017071444 0.0019530104 0.00035348476 0.001829182
0.00032651887 0.0016974171 0.0007120869 0.0013490616 0.00042795824 0.00025456352 0.0006634202 0.00070011447
0.00068128726 0.00018764952 0.00037384778 0.00021639833 0.000612809 0.00086283666 0.00017970831 0.0006900849
0.00013614219 0.00067170267 0.0002753858 0.00058782153 0.00014949919 9.4035364e-05 0.0002349292 0.00025207573
0.0022057486 0.00069361465 0.0012110473 0.0007269431 0.0017550478 0.0028104282 0.00048533204 0.0025044454
0.00042819252 0.0023741191 0.00072341197 0.0019343194 0.00061913556 0.00035019993 0.0006784315 0.0006566296
0.0001868698 6.8386405e-05 0.00012111086 7.149531e-05 0.00019288171 0.00022258189 4.5642235e-05 0.0001993884
4.2398675e-05 0.0002348603 9.734152e-05 0.0001899089 5.101045e-05 4.305323e-05 0.00010079518 0.00010522375
0.0008947992 0.00030596045 0.00052005315 0.00034427745 0.0009782168 0.0011484148 0.00020699378 0.0010802414
0.00019530521 0.0009964333 0.00038976554 0.00080504443 0.00024760808 0.00016046679 0.0003803423 0.0003988028
0.0007909002 0.0002975069 0.0004982595 0.00034750463 0.0009171248 0.00086735113 0.0001653292 0.00092086295
0.00020552374 0.0009542237 0.00046527493 0.00071307475 0.00022603077 0.00016777794 0.00039919015 0.00042696283

exp_avg f4 [16]
00000000: 7019 d0bb a69a 183c 2f03 a739 83dc 353c
00000010: d18b 2c3b 6fcf 10bb cb4b 203c 2107 b4bb
00000020: 01f1 93bb 165f a1bb a44f 10bc 41c9 3c3c
00000030: f996 5a3c aaab 18bc 9cce d73b 89a1 dbbb
-0.0063506886 0.009314215 0.00031855094 0.011099937 0.0026328454 -0.0022096296 0.009783695 -0.005494014
-0.004514814 -0.004924665 -0.00880805 0.011522592 0.013341659 -0.009318272 0.006585909 -0.006702606

exp_avg_sq f4 [16]
00000000: 1225 dd3b d85c 9a3b d0fb d83b 2fd9 f43a
00000010: f953 633b 0d94 043c 9396 883c 215f b23b
00000020: 0983 3d3a 8187 c539 b747 0b3c 84fd 593b
00000030: 5ead 383c f381 623a fca4 9c3b 7f8a 853b
0.006748804 0.004710775 0.0066218153 0.0018680448 0.0034687503 0.008091939 0.016673362 0.005443469
0.00072293036 0.00037675726 0.008500985 0.003326268 0.011271803 0.000864058 0.00478041 0.004075348

exp_avg f4 [2, 16]
00000000: 1c84 a83b 0280 f4bb 3ef5 e93b e84f 013c
00000010: c140 c93b cf5b 493c 1d8d ecba 5541 cfbb
00000020: 0b8e abbb 9662 77bb f9be 2f3c 9267 283c
00000030: e462 12bc d5f1 f0bb 37bb 8a3a de93 53bb
00000040: ab53 473b 5d42 c53b 41f3 79bb ae11 d5bb
00000050: deaa a3bb 22c3 aebb c55f 8e3c c9cf 8e3b
00000060: 21b1 9e3b 2efa 663b 5b89 ddbb 86e4 3cba
00000070: 8848 a63c 6248 813b 6b58 88bb b750 ca3b
0.005142702 -0.007461549 0.007139831 0.007892586 0.0061417525 0.012289955 -0.0018047426 -0.006324927
-0.0052354387 -0.003774797 0.010726684 0.010278599 -0.00893471 -0.0073530474 0.0010584359 -0.003228418
0.003041486 0.006019874 -0.0038139375 -0.0065023517 -0.004994734 -0.0053333202 0.01737965 0.004358266
0.0048428928 0.0035244334 -0.006760759 -0.00072056835 0.020298257 0.0039453963 -0.004160931 0.0061741727

exp_avg_sq f4 [2, 16]
00000000: 59c4 923a 36ed df3a af54 4c3a 0539 243b
00000010: f863 aa3a 32f4 bd3a e3e6 613b 9e5e 0d3b
00000020: f151 9d3a 1ced 203a 7577 df3a b48b 5a3b
00000030: 939d f13b e146 a03a 9574 813a 644b 943a
00000040: 87b9 bd39 f520 0f3a 3809 e439 2cb8 7b3a
00000050: 84d8 ed39 dc45 3e3a 7224 0b3b eebc 833a
00000060: 15af 003a 2b6a 3b39 ee02 363a f565 903a
00000070: 597f 603b c314 e439 5376 a939 eb07 eb39
0.0011197432 0.0017084244 0.0007794601 0.00250584 0.0012999764 0.0014492332 0.0034469895 0.0021571289
0.001200257 0.00061388477 0.0017049151 0.003334743 0.0073735206 0.0012228155 0.0009876663 0.0011313972
0.00036187118 0.0005459928 0.00043494417 0.0009602334 0.0004536548 0.00072583347 0.002123144 0.0010050812
0.0004908902 0.0001787326 0.00069431856 0.0011016714 0.0034255593 0.00043503018 0.0003232235 0.00044828592

exp_avg f4 [2]
00000000: 5cc2 15bd 53a5 0e3d
-0.03656231 0.034825634

exp_avg_sq f4 [2]
00000000: 690b 4b3d 6ba8 883c
0.04957143 0.01668187
