results/de/protein.data|16-16|tanh|wd0.01|bs32|noval|1|/stdict_1.pt (torch, 4562 bytes, 6 tensors)

net.0.weight f4 [16, 9]
-0.27831313 -0.013774941 -0.009195938 0.42475334 -0.13883291 0.044698894 -0.18858466 -0.12023884
-0.29324916 -0.23050463 -0.17181964 -0.003233204 0.17618191 0.14369836 -0.20747533 -0.10470284
0.11730417 0.23650816 -0.09195365 0.32868055 -0.073287405 -0.13524505 0.35087654 -0.44163212
-0.17599091 -0.09427834 -0.14171663 0.311085 -0.13552378 -0.18214957 -0.2658891 -0.24405108
-0.13499682 0.20792991 0.14947319 0.08799117 0.09989661 -0.12683944 0.01669092 -0.49345982
-0.23063035 -0.17444238 0.2715394 0.18235756 -0.22847493 0.08391391 0.31918648 0.3839145
0.08475325 0.12572002 0.30962124 -0.15593973 0.0865244 -0.3447015 -0.29439038 -0.26038274
0.19686672 0.37623718 -0.22976795 0.18554978 0.2607843 -0.03790633 -0.007369686 0.09404118
0.16689694 0.2403333 -0.2802454 -0.105572954 0.13354288 0.2052611 0.26660797 0.26902583
0.03954697 -0.38214177 0.09624899 -0.14985421 -0.3950944 0.35295445 0.22270957 -0.4821697
0.12228494 -0.096336894 -0.050907105 -0.12746702 0.12140136 -0.23953061 0.10097585 0.21196245
0.24664667 0.17417361 -0.27332985 -0.16611138 0.1879358 0.025408518 -0.19593325 -0.14013746
0.38862786 0.075573005 -0.15093248 -0.041471638 -0.32048923 0.009962415 -0.40058115 -0.26236328
-0.0139704775 0.08780128 -0.07310027 0.18922374 -0.19530524 0.45972547 0.2645918 -0.48085126
-0.053862993 0.048866715 0.104587086 0.13185328 0.09716311 0.07067899 -0.0677936 0.081918456
-0.2145667 -0.078504145 -0.024228597 -0.05542841 -0.08708251 -0.21505478 -0.118138 0.051095903
-0.2665494 0.07470406 0.2775625 -0.037830938 0.0046259053 -0.013145457 0.09814477 0.23691887
0.3393597 0.18980853 0.23858614 -0.017682387 -0.33179379 -0.14135586 0.22941194 -0.026762642
00000000: 0f7f 8ebe 4ab0 61bc 8faa 16bc 4579 d93e
00000010: 372a 0ebe 3016 373d 561c 41be c83f f6bd
00000020: c124 96be 6809 6cbe 7df1 2fbe 29e4 53bb
00000030: 0869 343e aa25 133e 6a74 54be 716e d6bd
00000040: 2b3d f03d 322f 723e 3252 bcbd d148 a83e
00000050: b517 96bd ae7d 0abe 17a6 b33e 9b1d e2be
00000060: f636 34be 0115 c1bd 2a1e 11be 8846 9f3e
00000070: bfc6 0abe 6b85 3abe 9e22 88be 87e8 79be
00000080: 9b3c 0abe 94eb 543e 800f 193e b734 b43d
00000090: 9896 cc3d 33e2 01be 65bb 883c c4a6 fcbe
000000a0: 5d2a 6cbe 06a1 32be 3607 8b3e f1bb 3a3e
000000b0: 55f5 69be 0edb ab3d 696c a33e 7190 c43e
000000c0: 1d93 ad3d c0bc 003e ad86 9e3e aaae 1fbe
000000d0: b433 b13d b77c b0be 56ba 96be e350 85be
000000e0: 6e97 493e 29a2 c03e 4a48 6bbe c300 3e3e
000000f0: 8585 853e ab43 1bbd 687d f1bb aa98 c03d
00000100: 08e7 2a3e ef19 763e 537c 8fbe a236 d8bd
00000110: 77bf 083e f72f 523e d780 883e c1bd 893e
00000120: 01fc 213d 16a8 c3be 311e c53d 6273 19be
00000130: d049 cabe 72b6 b43e fa0d 643e f2de f6be
00000140: 8770 fa3d 474c c5bd f883 50bd b786 02be
00000150: 47a1 f83d 8347 75be 6dcc ce3d af0c 593e
00000160: f290 7c3e 915a 323e e4f1 8bbe 1a19 2abe
00000170: 3e72 403e 8625 d03c baa2 48be 3280 0fbe
00000180: 3bfa c63e 05c6 9a3d 0b8e 1abe 2ade 29bd
00000190: 2a17 a4be 6639 233c f918 cdbe 7b54 86be
000001a0: 6ee4 64bc 28d1 b33d 98b5 95bd dec3 413e
000001b0: 19fe 47be 2361 eb3e 9478 873e 2332 f6be
000001c0: 719f 5cbd 7728 483d c131 d63d 8c04 073e
000001d0: 74fd c63d 25c0 903d 5fd7 8abd ddc4 a73d
000001e0: 5fb7 5bbe c8c6 a0bd 0d7b c6bc e708 63bd
000001f0: 5158 b2bd 5237 5cbe 56f2 f1bd f049 513d
00000200: 2a79 88be 71fe 983d ac1c 8e3e 9df4 1abd
00000210: e894 973b 0b60 57bc 2000 c93d dc9a 723e
00000220: 8ec0 ad3e 2b5d 423e ed4f 743e a7da 90bc
00000230: e0e0 a9be 97bf 10be f7ea 6a3e 543d dbbc

net.0.bias f4 [16]
-0.013600619 -0.021554854 -0.116756484 0.039900295 -0.014125461 -0.09839914 0.048026197 -0.02878363
-0.0006773857 -0.055156063 -0.06721615 -0.009971695 -0.0096714515 0.035977375 0.006554202 -0.048698984
00000000: 21d5 5ebc ce93 b0bc 061e efbd 7e6e 233d
00000010: 7a6e 67bc 7d85 c9bd 1eb7 443d a6cb ebbc
00000020: 9692 31ba 53eb 61bd 9fa8 89bd 5260 23bc
00000030: 0275 1ebc 035d 133d a2c4 d63b 9678 47bd

net.2.weight f4 [16, 16]
-0.17286141 -0.28079364 -0.15699403 -0.22594246 -0.007042724 0.20070955 0.038469233 -0.24500062
0.17024356 -0.2244797 -0.10496278 -0.14668007 0.012204468 -0.045372654 -0.19375111 -0.2809003
0.06907343 0.05952541 -0.21099827 0.06945721 -0.43132582 -0.0065709217 0.37255934 -0.23297133
0.2995391 0.20326774 -0.3246946 0.21959375 -0.17187935 -0.21460396 0.26964527 -0.22691368
-0.053814236 -0.13480093 0.2838158 0.14255162 0.24893904 0.14908588 -0.19849774 -0.015282108
-0.31945583 0.11708768 0.24625374 0.25936344 -0.17257686 0.033350553 -0.21934798 -0.23707272
-0.30766693 0.06473379 -0.13146375 0.038946882 0.106224105 0.2618359 -0.3620155 -0.1739503
-0.22978558 0.17313753 -0.15707618 0.32057264 0.24540238 0.07094313 -0.022608738 -0.10517134
0.037014324 -0.029455155 0.0034816589 0.0398713 -0.208568 -0.19321176 0.24724238 -0.20591941
0.00055477326 0.21875021 0.16530196 0.024229582 -0.23441215 0.1537322 -0.19070408 -0.06515275
-0.035561875 -0.07910072 0.0026517413 0.2139065 -0.022821877 0.36282042 0.1428787 -0.2620045
0.116419606 -0.23695 -0.21605304 0.07673873 0.04783636 0.2281637 -0.045698904 0.019699953
0.23567256 -0.26506373 0.14882514 -0.30746052 -0.0766319 -0.073214725 -0.03463746 -0.02203505
0.2992773 -0.008900833 -0.1420365 -0.13300438 -0.43313888 0.11776887 -0.11266158 -0.20821278
-0.045468617 0.21836188 0.08978864 0.15237884 -0.004299829 -0.0868389 -0.024370866 -0.015116925
0.22699416 0.10861488 -0.19465835 -0.18761174 -0.4418687 0.0200282 -0.08194413 -0.21342729
0.25539467 -0.29417947 -0.00093151716 0.10568231 0.04656143 -0.22070688 -0.35346624 0.32709703
0.023063147 0.21268676 -0.17329243 0.08998663 -0.030441469 -0.013116543 -0.17943309 0.12231878
-0.017593466 -0.02211034 -0.0059861923 -0.062015653 0.20044199 -0.20425917 0.02236836 -0.009909906
-0.09035208 0.026690684 -0.077288345 0.06763918 0.119131744 -0.13262415 0.004141776 0.05091531
0.26467246 -0.004786902 -0.33490092 -0.1307027 0.0039938395 -0.1367597 0.24077035 0.15473194
-0.19372284 0.04058157 0.14990973 0.018292915 -0.08325579 0.008599822 -0.23642604 0.06911041
0.108416185 0.24271068 0.06546869 0.07345628 0.110788874 -0.20195517 -0.12168483 -0.20806864
0.26257262 0.12770033 -0.122726314 0.1405917 0.17567214 0.2272994 0.15055703 0.13267218
-0.16726671 -0.12756081 0.22180077 0.24862984 -0.09270915 0.26130018 0.10467771 0.25025654
-0.17349607 0.070524134 -0.06814256 0.28409985 0.0403029 0.14714369 0.00666594 0.079999514
-0.02294743 0.17985593 -0.11450651 0.041065633 -0.19088589 -0.322834 -0.06498744 0.15401891
0.18318722 0.17952695 0.24552138 -0.25351414 -0.22705217 -0.03796195 -0.1077081 0.19907553
-0.057412725 -0.1050654 -0.1915867 -0.1883389 0.09816677 0.24236664 0.1514467 0.08654841
0.2101923 -0.030700585 0.052175947 0.23051284 -0.052285314 0.2038074 0.14118923 0.17581502
-0.18464568 0.14638613 0.10597561 -0.0565156 -0.12990116 -0.20815119 -0.35994217 0.29943082
0.23700215 -0.08913521 -0.23454496 0.29771417 0.31303686 0.043087974 -0.1500787 0.33314517
00000000: 9502 31be 2fc4 8fbe 0bc3 20be 765d 67be
00000010: a7c6 e6bb ce86 4d3e ea91 1d3d 71e1 7abe
00000020: 5454 2e3e 02de 65be baf6 d6bd 4d33 16be
00000030: 40f5 473c add8 39bd b166 46be 2ad2 8fbe
00000040: 5f76 8d3d ebd0 733d ee0f 58be 953f 8e3d
00000050: bdd6 dcbe e350 d7bb 19c0 be3e 0990 6ebe
00000060: 305d 993e 6b25 503e 5f3e a6be 2fdd 603e
00000070: 2401 30be 24c1 5bbe f20e 8a3e 0f5c 68be
00000080: 516c 5cbd 4109 0abe 4e50 913e 0df9 113e
00000090: e0e9 7e3e f8a9 183e fe42 4bbe cf61 7abc
000000a0: b78f a3be aacb ef3d f129 7c3e 49cb 843e
000000b0: fdb7 30be 979a 083d c29c 60be 31c3 72be
000000c0: 8586 9dbe 2693 843d 6f9e 06be c486 1f3d
000000d0: 068c d93d 5b0f 863e 185a b9be 0720 32be
000000e0: e94c 6bbe f74a 313e 94d8 20be 1922 a43e
000000f0: c34a 7b3e a24a 913d f635 b9bc 1264 d7bd
00000100: 559c 173d f04b f1bc 8b2c 643b 1750 233d
00000110: da92 55be 4ed9 45be 1b2d 7d3e 8adc 52be
00000120: 346e 113a 0e00 603e eb44 293e 1e7d c63c
00000130: bd09 70be f96b 1d3e ee47 43be ce6e 85bd
00000140: 54a9 11bd 8fff a1bd d6c8 2d3b 4e0a 5b3e
00000150: f2f4 babc 99c3 b93e cb4e 123e 7425 86be
00000160: 676d ee3d 05a3 72be 023d 5dbe 3229 9d3d
00000170: 0ff0 433d bfa3 693e c62e 3bbd cc61 a13c
00000180: 2654 713e 6fb6 87be 9e65 183e 776b 9dbe
00000190: 30f1 9cbd 9af1 95bd 02e0 0dbd d982 b4bc
000001a0: e03a 993e cdd4 11bc 0472 11be 4d32 08be
000001b0: 61c4 ddbe ce30 f13d 1dbb e6bd bb35 55be
000001c0: 4d3d 3abd 429a 5f3e 1be3 b73d 3309 1c3e
000001d0: 94e5 8cbb 98d8 b1bd 69a5 c7bc fbac 77bc
000001e0: 2871 683e 7a71 de3d 8554 47be 4b1d 40be
000001f0: 9d3c e2be 2e12 a43c 53d2 a7bd af8c 5abe
00000200: 17c3 823e b19e 96be 0f31 74ba f86f d83d
00000210: 33b7 3e3d fc00 62be 87f9 b4be 4379 a73e
00000220: edee bc3c 8fca 593e 9273 31be e94a b83d
00000230: 6360 f9bc c5e6 56bc 4fbd 37be 4582 fa3d
00000240: 2c20 90bc be20 b5bc d227 c4bb 2004 7ebd
00000250: aa40 4d3e 5129 51be da3d b73c 295d 22bc
00000260: 830a b9bd 6ca6 da3c 5a49 9ebd 6986 8a3d
00000270: 58fb f33d a0ce 07be bcb7 873b 928c 503d
00000280: 2683 873e 72db 9cbb 2278 abbe eed6 05be
00000290: c1de 823b bc0a 0cbe 818c 763e 0d72 1e3e
000002a0: 485f 46be dc38 263d f081 193e 06db 953c
000002b0: 0382 aabd 45e6 0c3c ab19 72be c289 8d3d
000002c0: 4e09 de3d 2689 783e 7314 863d 3f70 963d
000002d0: 47e5 e23d 56cd 4ebe e535 f9bd f20f 55be
000002e0: eb6f 863e e0c3 023e ef57 fbbd 45f7 0f3e
000002f0: 66e3 333e 2dc1 683e 9f2b 1a3e 37db 073e
00000300: f747 2bbe 4d9f 02be be1f 633e d298 7e3e
00000310: 4bde bdbd 23c9 853e 4461 d63d a021 803e
00000320: f4a8 31be f56e 903d 548e 8bbd 8975 913e
00000330: a714 253d d6ac 163e f56d da3b c9d6 a33d
00000340: 40fc bbbc 272c 383e 6482 eabd 7034 283d
00000350: 9777 43be 804a a5be 2318 85bd 22b7 1d3e
00000360: 6e95 3b3e ead5 373e f569 7b3e 9bcc 81be
00000370: 5d80 68be fd7d 1bbd 1096 dcbd 75da 4b3e
00000380: 9b29 6bbd 872c d7bd 4e2f 44be eadb 40be
00000390: a90b c93d f62e 783e d814 1b3e 4b40 b13d
000003a0: a63c 573e cb7f fbbc 72b6 553d 8f0b 6c3e
000003b0: 2029 56bd e3b2 503e e993 103e da08 343e
000003c0: c213 3dbe 3fe6 153e be09 d93d e77c 67bd
000003d0: cf04 05be 9625 55be 574a b8be ff4e 993e
000003e0: b1b0 723e 858c b6bd 8e2c 70be fe6d 983e
000003f0: 5e46 a03e 047d 303d 3bae 19be 0192 aa3e

net.2.bias f4 [16]
0.018650863 0.05519446 -0.015754478 -0.036760464 -0.025464932 0.104816265 -0.047606602 0.109474026
0.048373107 -0.08374938 0.06569755 -0.029105483 -0.093791805 -0.012688579 0.07316879 0.008665277
00000000: b2c9 983c 9613 623d 890f 81bc 2492 16bd
00000010: d59b d0bc e9a9 d63d 24ff 42bd eb33 e03d
00000020: e122 463d cc84 abbd 708c 863d 9f6e eebc
00000030: eb15 c0bd c2e3 4fbc 85d9 953d cef8 0d3c

net.4.weight f4 [2, 16]
0.21108879 -0.46259314 0.48932534 0.43735123 -0.29044306 0.32609928 -0.3039136 -0.08671106
0.45937037 -0.030791163 -0.3830395 -0.19812696 -0.083539054 -0.20941912 0.07786615 0.5467068
-0.017285746 -0.4149029 0.11048767 0.31746352 0.11535911 -0.40903926 -0.16764951 -0.36213014
-0.09882177 0.16449115 -0.35914373 0.20307523 0.44668108 -0.018963557 -0.2825925 -0.09163706
00000000: a927 583e 02d9 ecbe da88 fa3e 80ec df3e
00000010: f4b4 94be 7cf6 a63e 909a 9bbe 9195 b1bd
00000020: 9832 eb3e c03d fcbc c11d c4be cbe1 4abe
00000030: 8616 abbd f771 56be 4a78 9f3d faf4 0b3f
00000040: d69a 8dbc 276e d4be 5c47 e23d 948a a23e
00000050: 6641 ec3d 986d d1be 50ac 2bbe 1f69 b9be
00000060: 1163 cabd 5e70 283e b0e1 b7be f4f2 4f3e
00000070: 62b3 e43e 7659 9bbc f7af 90be 36ac bbbd

net.4.bias f4 [2]
0.0005963575 -0.1109952
00000000: e054 1c3a 7451 e3bd
