results/de/protein.data|16-16|tanh|wd0.01|bs32|noval|1|/stdict_9.pt (torch, 4562 bytes, 6 tensors)

net.0.weight f4 [16, 9]
0	0x3c832986	0.01601101
1	0x3e135b1f	0.14390229
2	0x3ec94fff	0.39318845
3	0xbef27886	-0.47357577
4	0x3da27b3a	0.0793366
5	0xbebc6f3a	-0.3680361
6	0x3ed3025e	0.41212744
7	0x3e32a3c1	0.1744528
8	0xbe97ba7e	-0.2963447
9	0xbec15397	-0.37759086
10	0xbef90109	-0.48633602
11	0x3ec39250	0.38197565
12	0x3e9a2e44	0.30113423
13	0xbe739851	-0.23788573
14	0xbceb310b	-0.028709909
15	0xbea51571	-0.3224292
16	0xbea65c9e	-0.32492536
17	0x3bf0b4a0	0.007345751
18	0xbec3c806	-0.38238543
19	0x3dbbdfca	0.09173544
20	0x3e8fb700	0.28069305
21	0xbece835b	-0.4033459
22	0xbe019b02	-0.12656787
23	0xbca93b1e	-0.020658072
24	0x3e0de81b	0.13858072
25	0xbd463505	-0.048390407
26	0xbed46a65	-0.41487423
27	0xbe3207eb	-0.17385833
28	0xbef7f259	-0.48427084
29	0xbd9ec550	-0.07752478
30	0xbe3eef0f	-0.18645881
31	0x3ee48587	0.44633123
32	0xbd4d6762	-0.05014742
33	0x3e8b94f1	0.2726207
34	0xbef2c22b	-0.47413763
35	0xbdb9e992	-0.09077753
36	0x3eacb504	0.33731854
37	0x3e90f739	0.28313616
38	0x3debd7d5	0.11515776
39	0xbe9d50c1	-0.30725673
40	0x3e6521d5	0.22376187
41	0x3ee47fbf	0.44628713
42	0xbd15beb0	-0.036558807
43	0x3e88acb7	0.2669427
44	0xbea86cd4	-0.3289553
45	0x3e49adbd	0.19695182
46	0x3d1a1c41	0.0376246
47	0x3ed7ff45	0.42186943
48	0x3e890e0d	0.26768532
49	0x3eee2a4a	0.4651664
50	0xbda8c15a	-0.08240004
51	0xbc0a3940	-0.008436501
52	0xbd6f2b48	-0.058390886
53	0xbd89b42f	-0.067238204
54	0xbeca09b4	-0.39460528
55	0xbeaaabcc	-0.33334196
56	0xbe0e4d22	-0.13896611
57	0xbeae67c3	-0.3406354
58	0xbeea86e6	-0.45806044
59	0xbe6fca91	-0.23417117
60	0x3cb80a57	0.022465868
61	0xbef60ba1	-0.48055747
62	0x3e006a8c	0.12540644
63	0x3ef76c61	0.48324874
64	0xbe245e98	-0.1605171
65	0xbe8f1434	-0.279451
66	0x3eabf913	0.33588466
67	0x3ce56847	0.028003825
68	0x3e58d9d1	0.2117684
69	0xbeb59f77	-0.35473225
70	0xbead3741	-0.33831218
71	0xbe3eb879	-0.18625058
72	0xbed60819	-0.41803053
73	0xbe35c15c	-0.17749542
74	0xbde3f594	-0.11130825
75	0x3e46bc81	0.19407846
76	0x3db00286	0.08594231
77	0xbece821d	-0.40333644
78	0x3d102dba	0.03519986
79	0xbe26a511	-0.16273905
80	0x3e249172	0.16071108
81	0x3eb44b3f	0.35213658
82	0xbe9824df	-0.2971563
83	0xbd8d84bf	-0.06910085
84	0x3dc35f70	0.09539688
85	0x3ea982e8	0.33107686
86	0xbe55d5b7	-0.20882307
87	0x3ee8a695	0.45439592
88	0xbed0f849	-0.40814427
89	0x3ec90453	0.39261112
90	0xbbf91abf	-0.0076020653
91	0x3ebe2b4b	0.37142405
92	0x3ee6bb6b	0.45064864
93	0xbe577fa2	-0.21044782
94	0xbe5b22ec	-0.2140004
95	0x3e93a53f	0.2883701
96	0xbea5d1e3	-0.32386693
97	0x3cbeb379	0.023278939
98	0x3ce8aaf6	0.028401833
99	0xbebbae09	-0.36656216
100	0xbebcb72a	-0.36858493
101	0x3eb1b273	0.34706458
102	0x3e177167	0.14789353
103	0x3b3a05a3	0.0028384707
104	0xbe755ecf	-0.23961948
105	0xbef8029f	-0.484395
106	0x3e4a0110	0.19726968
107	0xbeacffbc	-0.3378886
108	0xbea39d39	-0.3195589
109	0xbdb440d8	-0.088014305
110	0x3d5717cd	0.052512933
111	0xbdaa1414	-0.08304611
112	0xbc55093c	-0.01300269
113	0x3ed78884	0.4209634
114	0x3ed7d454	0.4215418
115	0x3ea27660	0.31730938
116	0x3c6f511a	0.014606738
117	0x3ecb9bb4	0.3976723
118	0xbcef1632	-0.029185388
119	0x3ec21e5b	0.37913784
120	0x3e54039c	0.20704502
121	0xbe3531a8	-0.17694724
122	0x3d4d5f42	0.050139673
123	0x3e5a4122	0.21313909
124	0xbe62fcef	-0.22166799
125	0xbd8e30be	-0.069428906
126	0xbdf35206	-0.11880879
127	0x3e08de63	0.13366084
128	0xbe38c823	-0.18045096
129	0xbda4dceb	-0.08049949
130	0xbd222d4c	-0.03959398
131	0x3b9bac82	0.004750789
132	0x3da78c63	0.081810735
133	0xbe2410d1	-0.1602204
134	0x3dd79d2e	0.105280265
135	0xbef1543c	-0.47134578
136	0xbe093dc5	-0.1340247
137	0x3ec17e22	0.37791544
138	0x3d6ec0ab	0.05828921
139	0xbcafdf29	-0.021468716
140	0xbd72f600	-0.059316635
141	0xbea77893	-0.32709178
142	0x3cce8243	0.025208598
143	0x3eb67568	0.3563645

net.0.bias f4 [16]
0	0xbb1e3cc0	-0.0024145097
1	0x3b0408e0	0.0020146891
2	0x3b179cf8	0.0023134332
3	0xbb04423b	-0.0020181078
4	0xba974aaf	-0.0011542643
5	0x3b20ccd4	0.002453615
6	0xbb24ec6f	-0.002516534
7	0xbb155d11	-0.0022791068
8	0x3b16615b	0.0022946212
9	0xbb121ac0	-0.0022293776
10	0x3b19f65a	0.0023492784
11	0xbb05e175	-0.0020428572
12	0xba926a90	-0.0011170674
13	0x3ae23958	0.0017259521
14	0xbb1f7a1e	-0.0024334262
15	0x3b310bb2	0.0027015028

net.2.weight f4 [16, 16]
0	0x3df05b85	0.11736206
1	0xbeb6ce7b	-0.35704407
2	0xbe29e977	-0.16592966
3	0xbdf92359	-0.12164945
4	0x3ea1e018	0.31616282
5	0xbe1332f3	-0.14374904
6	0x3e3bf13d	0.18353744
7	0xbe0bb44f	-0.13643001
8	0xba9a5043	-0.0011773187
9	0xbed12e90	-0.40855837
10	0xbbbe341b	-0.0058045513
11	0xbed4c2e9	-0.41554955
12	0x3e6685f0	0.2251203
13	0xbece9e0c	-0.40354955
14	0xbebc1c4b	-0.36740336
15	0x3df80b81	0.12111569
16	0xbd8b18a2	-0.06791808
17	0x3e9344cc	0.28763425
18	0x3e863830	0.26214743
19	0x3d33929b	0.043840986
20	0xbdee3837	-0.11631816
21	0x3e9c48f5	0.30524412
22	0x3d5c7602	0.05382348
23	0x3ec539a7	0.38520548
24	0x3e003b88	0.1252271
25	0xbeb5edfe	-0.35533136
26	0xbeb411e0	-0.35169888
27	0x3e0f8889	0.14016928
28	0xbd5777b2	-0.052604385
29	0x3ebd1c5b	0.36935696
30	0xbe8c5deb	-0.27415404
31	0x3e3a4279	0.1818942
32	0x3e6522b9	0.22376527
33	0x3e805080	0.25061417
34	0x3e0204c9	0.12697138
35	0xbe6d5c28	-0.23179686
36	0x3ec66afe	0.38753504
37	0x3dae63a7	0.08515101
38	0xbd7d3822	-0.06182111
39	0x3e9f46ab	0.31108603
40	0xbaa94718	-0.0012914864
41	0xbd654f17	-0.05598363
42	0xbd33cd82	-0.04389716
43	0x3e85fc7d	0.26169196
44	0xbd798d16	-0.060925566
45	0x3eb16c21	0.34652808
46	0x3e0cea27	0.13761197
47	0x3e62b21b	0.22138254
48	0xbea6d08d	-0.32580987
49	0x3e6982c9	0.22803797
50	0x3ea5e96f	0.32404658
51	0x3cc829b4	0.024433948
52	0x3cf86610	0.030322105
53	0xbd3efc0c	-0.04662709
54	0xbe559c29	-0.20860352
55	0xbe5f0b9f	-0.21781777
56	0x3eb658f4	0.3561474
57	0xbe6fea01	-0.23429109
58	0xbea47f93	-0.3212858
59	0xbdf31bd3	-0.118705414
60	0x3da31555	0.07963053
61	0x3ead2af5	0.33821836
62	0xbebae9fc	-0.3650664
63	0xbd3c7009	-0.046005283
64	0xbd3af47c	-0.045643315
65	0x3d484b0b	0.04889969
66	0xbe9a859b	-0.30180058
67	0xbec0808a	-0.37598068
68	0xbe9932e3	-0.29921636
69	0x3eda06fd	0.42583457
70	0xbe3fa431	-0.18714978
71	0x3ea89a58	0.32930255
72	0xbc6fbc41	-0.014632286
73	0x3e9dbd6c	0.3080858
74	0xbe9a304c	-0.30114973
75	0x3e13d2a3	0.1443582
76	0xbdeb56ff	-0.114912026
77	0xbde39e55	-0.11114184
78	0xbe87e35b	-0.26540646
79	0x3e023aff	0.12717818
80	0xbe91918b	-0.28431353
81	0xbe9b1371	-0.3028827
82	0x3e1a2357	0.15052544
83	0xbe20e31a	-0.15711632
84	0x3db6e52f	0.08930432
85	0x3e896a5a	0.26838952
86	0x3ed4a508	0.4153216
87	0x3ed14b77	0.40877888
88	0x3e8f2b1a	0.2796257
89	0x3d8128c6	0.06306605
90	0x3ec10910	0.37702227
91	0x3eb8b0a0	0.36072254
92	0xbb69b381	-0.0035659971
93	0xbcdf3149	-0.02724518
94	0x3daceb64	0.08443335
95	0xbe34b73e	-0.17648026
96	0xbdc1b269	-0.09457857
97	0x3e90fef1	0.28319505
98	0xbebb53ab	-0.3658727
99	0x3dbcea8b	0.09224423
100	0xbe6d142e	-0.23152229
101	0x3e77bb12	0.24192455
102	0x3ebb213a	0.36548787
103	0x3ec9d690	0.3942151
104	0xbeceb539	-0.40372637
105	0xbe76c979	-0.24100293
106	0xbe69b428	-0.2282263
107	0xbede0bad	-0.43368283
108	0xbe3a354e	-0.18184397
109	0xbc660313	-0.014038819
110	0xbed3f4b4	-0.4139763
111	0xbe26a8b5	-0.16275294
112	0xbd9365d9	-0.0719716
113	0xbeb9cd77	-0.3628957
114	0x3d881fcb	0.06646689
115	0xbe7740b0	-0.2414577
116	0x3e52a8a2	0.20572141
117	0xbe0c83e1	-0.13722183
118	0x3ed8c9ed	0.42341557
119	0x3dc7b956	0.09752147
120	0xbeb0e162	-0.34546953
121	0x3ed18b6d	0.40926686
122	0x3dc284a8	0.094979584
123	0xbebcb5e4	-0.36857522
124	0xbe09eaa3	-0.13468413
125	0xbdf14310	-0.11780369
126	0x3e993152	0.2992044
127	0xbdba93be	-0.09110211
128	0x3cdd00df	0.026977954
129	0xbe9e6609	-0.30937222
130	0x3e3040ec	0.17212266
131	0x3dd6987d	0.104783036
132	0xbe1c628a	-0.15271965
133	0xbd7786e2	-0.06043137
134	0x3d418692	0.047247477
135	0x3e358a90	0.17728639
136	0x3d21ee17	0.0395337
137	0x3eb681c0	0.35645866
138	0x3e8ba13f	0.27271459
139	0x3ec32bb0	0.38119268
140	0xbe763f1d	-0.24047513
141	0xbe298840	-0.16555882
142	0xbe098755	-0.13430531
143	0xbe80ddfd	-0.25169364
144	0x3dac6daf	0.08419358
145	0xbeaf9835	-0.34295812
146	0xbe6a33b7	-0.2287129
147	0x3d59941f	0.053119775
148	0xbdc4e6e1	-0.09614349
149	0xbedd8544	-0.43265736
150	0x3e531b0f	0.20615791
151	0xbd761496	-0.060078226
152	0x3e2ff470	0.1718309
153	0xbdb86743	-0.090040706
154	0xbe182e4a	-0.14861408
155	0x3e4fb1a3	0.20282607
156	0x3e9792fe	0.29604334
157	0xbd9e1115	-0.07718102
158	0x3eb62d06	0.35581225
159	0xbe72c683	-0.23708539
160	0xbc3c3c40	-0.011488974
161	0x3cd8e8d2	0.026478205
162	0xbe3159c6	-0.17319402
163	0x3c95664d	0.018237257
164	0xbe9aef83	-0.30260858
165	0x3e12f220	0.14350176
166	0xbd1963ce	-0.037448697
167	0x3d7d52eb	0.061846655
168	0xbdc65710	-0.096845746
169	0x3eab684e	0.33478016
170	0xbd2a6296	-0.041597925
171	0xbc8980d2	-0.01678506
172	0xbe4c1878	-0.19931209
173	0x3df8f757	0.12156551
174	0x3eb5f251	0.35536435
175	0x3eb919c1	0.3615246
176	0xbec39e97	-0.38206932
177	0xbd9d0cad	-0.07668433
178	0x3ec01dcf	0.37522742
179	0x3ede546d	0.43423787
180	0xbe94e3f8	-0.29080176
181	0x3e508015	0.2036136
182	0xbe73e1aa	-0.23816553
183	0xbeca75c7	-0.39542982
184	0x3e5d26b1	0.21596791
185	0xbe3eb126	-0.18622264
186	0x3e2f584e	0.1712353
187	0xbe14aa69	-0.14518131
188	0x3c92ab8d	0.017904067
189	0x3d967428	0.07346374
190	0xbe93a8ab	-0.2883962
191	0xbda332aa	-0.07968648
192	0x3e4e63b9	0.20155229
193	0xbe0132c9	-0.12617029
194	0xbed61b63	-0.4181777
195	0xbeb417f8	-0.35174537
196	0x3eb32341	0.34987834
197	0xbdd7af70	-0.10531509
198	0x3b0e2a44	0.0021692673
199	0xbed4aaf6	-0.41536683
200	0xbd210e51	-0.039320294
201	0xbe1c8734	-0.15285951
202	0x3eaea03c	0.34106624
203	0xbcf9659f	-0.030443965
204	0xbe9a3eed	-0.30126134
205	0xbe60af90	-0.21941972
206	0x3ebc3062	0.36755663
207	0x3ebb85e4	0.36625588
208	0xbd6f5628	-0.058431774
209	0x3e71100b	0.23541276
210	0xbbe3fee8	-0.0069578774
211	0xbe86e2c9	-0.26344898
212	0x3e997dde	0.29978842
213	0x3ed00352	0.40627533
214	0xbec27ed5	-0.3798739
215	0xbcaf8933	-0.021427726
216	0xbec9d3b5	-0.39419332
217	0x3e1ffb72	0.15623263
218	0x3ea6e4c4	0.3259641
219	0xbe934b16	-0.28768224
220	0xbebb8fb3	-0.3663307
221	0xbd361b5a	-0.04445968
222	0xbe973845	-0.29535118
223	0x3ed51f22	0.41625315
224	0x3db3d717	0.087812595
225	0x3de37a06	0.111072585
226	0x3e503c35	0.20335467
227	0xbddee000	-0.10882568
228	0x3e61d9a1	0.22055675
229	0x3df88ea6	0.12136583
230	0xbed596bf	-0.41716573
231	0xbe52b762	-0.20577767
232	0xbdeb200b	-0.11480721
233	0x3e9e276a	0.30889446
234	0x3e935e83	0.28783044
235	0x3e8330d3	0.25623187
236	0xbe864e83	-0.26231775
237	0xbe4ec73c	-0.2019319
238	0x3e3c9c58	0.18419015
239	0xbbe7cdf4	-0.007074112
240	0xbea9265d	-0.3303708
241	0x3cc9d7ae	0.024638977
242	0x3e0cb61d	0.13741346
243	0x3e2e7a09	0.1703874
244	0x3e44bbba	0.19212237
245	0xbe407037	-0.18792807
246	0x3e4724cf	0.19447635
247	0xbe0ac792	-0.13552693
248	0xbdac2cce	-0.08406983
249	0xbe8e9f22	-0.27855784
250	0xbec74106	-0.38916796
251	0x3eb4f416	0.35342473
252	0x3ec4f163	0.38465413
253	0xbec1d113	-0.37854823
254	0xbe45039a	-0.19239655
255	0xbe5de8c4	-0.21670824

net.2.bias f4 [16]
0	0x3b148ee5	0.002266818
1	0xbb03ad5c	-0.0020092344
2	0xbb142bd9	-0.0022609143
3	0x3b15dc35	0.002286685
4	0x3b1b840e	0.0023729834
5	0x3b04ad93	0.002024506
6	0xbb143755	-0.0022615988
7	0xbb12f824	-0.0022425735
8	0xbb07f8f1	-0.0020747746
9	0xbb0fde48	-0.0021952558
10	0x3a8074ee	0.0009800473
11	0x3b19e72f	0.0023483743
12	0xbb12bbce	-0.0022389772
13	0x3b219c2c	0.0024659736
14	0x3b19e937	0.0023484954
15	0xbb19a6c7	-0.0023445354

net.4.weight f4 [2, 16]
0	0x3e71a25f	0.23597096
1	0xbe995093	-0.29944286
2	0xbe3e16c4	-0.18563372
3	0xbea72727	-0.32647058
4	0xbd07cdf9	-0.033155415
5	0x3ee9502b	0.45568976
6	0xbd92b294	-0.07162967
7	0x3ecb9d76	0.3976857
8	0xbf07b29d	-0.5300692
9	0x3e428e2a	0.18999544
10	0xbeff0eb2	-0.498159
11	0xbc794b46	-0.0152157005
12	0x3da65f78	0.08123678
13	0x3ed6808a	0.41894943
14	0xbdebad06	-0.11507611
15	0x3da59fc0	0.080871105
16	0x3eb027d9	0.344054
17	0xbe7511cc	-0.2393257
18	0xbea4604a	-0.32104713
19	0x3ef9c41e	0.48782438
20	0x3df4951e	0.11942504
21	0x3eabd3a7	0.33559915
22	0xbe8f24d9	-0.279578
23	0xbeb9327a	-0.36171323
24	0xbeec4f57	-0.46154281
25	0xbe6c3868	-0.23068392
26	0x3dbfbabd	0.093617894
27	0x3f005552	0.5013019
28	0xbe3485fe	-0.17629239
29	0x3ef32556	0.47489423
30	0x3f1007d9	0.56261975
31	0xbf06cb25	-0.52653724

net.4.bias f4 [2]
0	0xba86ae38	-0.001027531
1	0x3b18c858	0.0023312774
