results/de/protein.data|16-16|tanh|wd0.01|bs32|noval|1|/stdict_10.pt (torch, 4572 bytes, 6 tensors)

net.0.weight f4 [16, 9]
0.40851974 0.42132497 -0.23579787 0.44326285 -0.11814481 -0.08875563 0.44090813 0.0662429
-0.3535925 -0.28821167 0.012619554 -0.015697217 0.017882012 -0.15112607 -0.052289844 0.12789765
0.18981117 0.31597498 0.40381867 0.227825 -0.051133443 -0.41790205 0.41010648 0.2787173
0.4609662 0.09545521 0.12295821 0.16442598 0.38094765 0.3103661 0.22256708 -0.092481054
-0.247405 0.07959394 0.31392485 -0.014160639 0.43030185 -0.32717028 0.2717183 0.10549015
-0.32543072 0.22583255 -0.28203484 0.3387439 0.2677086 -0.43638894 0.2531812 0.07912243
0.23611978 0.23736335 -0.0706394 -0.19016261 -0.09924607 -0.17402416 -0.4374993 0.18794069
-0.21224327 0.12201302 -0.12346161 0.3509866 0.03683868 -0.4533305 -0.0023013356 -0.0740573
-0.25808573 0.41870126 0.08778353 -0.1526087 -0.4840548 0.4450117 -0.37414178 0.04667278
0.30169967 -0.4155216 0.16255648 0.46927315 -0.19724934 -0.16408107 -0.44175133 -0.48534003
-0.13685098 0.3718019 0.0011529303 -0.3691241 0.31696612 0.050143495 0.45344168 -0.47825804
-0.4472305 0.051918067 -0.38951913 -0.42143124 0.343124 -0.40405142 -0.39249444 0.14103243
0.15760832 0.45953155 -0.15398265 0.047225755 -0.3002285 0.107095666 0.08053149 -0.22169067
0.36559612 -0.029545525 -0.098937795 -0.15607081 -0.09280579 -0.06773211 0.12557976 0.3529478
0.017761495 0.43397483 -0.14916444 0.20346957 -0.45993218 0.24440402 0.117079854 0.18230496
-0.39679033 0.39506528 -0.20260216 -0.02247452 0.318325 -0.45568332 0.3457896 -0.2633476
-0.46010733 -0.2594732 -0.3869109 0.377163 0.25192448 -0.32595462 0.18985417 0.2219074
0.024260523 0.26423073 -0.4177062 0.35113132 0.34346452 0.011162192 -0.038419504 -0.08559255
00000000: 8029 d13e e8b7 d73e ff74 71be 59f3 e23e
00000010: e8f5 f1bd 83c5 b5bd b6be e13e 5caa 873d
00000020: 130a b5be 7b90 93be 3fc2 4e3c 7397 80bc
00000030: 4c7d 923c cbc0 1abe e02d 56bd 9af7 023e
00000040: dc5d 423e 79c7 a13e 52c1 ce3e f54a 693e
00000050: 4d71 51bd 42f7 d5be 7af9 d13e 09b4 8e3e
00000060: c303 ec3e 057e c33d 84d1 fb3d 495f 283e
00000070: 920b c33e 4ee8 9e3e a0e8 633e b566 bdbd
00000080: bc57 7dbe 2602 a33d c2ba a03e 0602 68bc
00000090: 8650 dc3e dd82 a7be a91e 8b3e 380b d83d
000000a0: db9e a6be a640 673e df66 90be d76f ad3e
000000b0: 1a11 893e 5f6e dfbe f7a0 813e f10a a23d
000000c0: 62c9 713e 610f 733e 64ab 90bd fdb9 42be
000000d0: 8641 cbbd 6433 32be e9ff dfbe 8673 403e
000000e0: 4d56 59be f6e1 f93d 71d9 fcbd 84b4 b33e
000000f0: 28e4 163d ef1a e8be 01d2 16bb 5bab 97bd
00000100: d023 84be 0360 d63e dac7 b33d 7445 1cbe
00000110: 08d6 f7be 93d8 e33e 838f bfbe f52b 3f3d
00000120: 6178 9a3e 3fbf d4be 3575 263e 9244 f03e
00000130: bbfb 49be de04 28be 3b2d e2be 7d7e f8be
00000140: aa22 0cbe d25c be3e ec1d 973a d6fd bcbe
00000150: 6249 a23e 4463 4d3d 8229 e83e 3dde f4be
00000160: 65fb e4be 0aa8 543d 0d6f c7be d6c5 d7be
00000170: f3ad af3e d4df cebe 08f5 c8be ce6a 103e
00000180: 1364 213e b847 eb3e a1ad 1dbe cb6f 413d
00000190: 8db7 99be f954 db3d b2ed a43d e102 63be
000001a0: 6a2f bb3e 7509 f2bc e69f cabd 07d1 1fbe
000001b0: f610 bebd 22b7 8abd fb97 003e 93b5 b43e
000001c0: 8e80 913c f331 de3e 90be 18be 545a 503e
000001d0: 3b7c ebbe 0c45 7a3e 90c7 ef3d 27ae 3a3e
000001e0: 1a28 cbbe ff45 ca3e f176 4fbe 7c1c b8bc
000001f0: 7ffb a23e 534f e9be 560b b13e 7fd5 86be
00000200: 3093 ebbe acd9 84be 2f19 c6be 821b c13e
00000210: 3ffc 803e 86e3 a6be 2269 423e b23b 633e
00000220: 01be c63c 4049 873e 96dd d5be 7cc7 b33e
00000230: 95da af3e a0e1 363c c55d 1dbd 264b afbd

net.0.bias f4 [16]
-0.0009999997 -0.0009999998 0.0009999954 -0.0009999995 0.0009999999 0.0009999997 0.0009999998 -0.0009999997
0.0009999996 -0.0009999999 -0.0009999997 -0.0009999998 0.0009999997 -0.0009999998 -0.0009999997 0.0009999998
00000000: 6c12 83ba 6d12 83ba 4712 833a 6a12 83ba
00000010: 6e12 833a 6c12 833a 6d12 833a 6c12 83ba
00000020: 6b12 833a 6e12 83ba 6c12 83ba 6d12 83ba
00000030: 6c12 833a 6d12 83ba 6c12 83ba 6d12 833a

net.2.weight f4 [16, 16]
-0.024440026 -0.2509524 0.12736943 0.082789384 -0.020496067 0.43018037 -0.020110695 -0.34217796
0.04245041 -0.36028686 -0.35435227 -0.18435912 -0.3453679 -0.33454478 -0.095031895 0.036942247
-0.021997357 0.066365294 0.022078054 0.3621715 0.05270885 0.030824453 0.020567197 0.008079858
-0.06793293 -0.059503987 0.37468827 -0.025562137 0.336237 0.18169299 0.41771585 0.3737202
-0.31827345 -0.30834523 -0.37951776 -0.3904179 -0.101333074 -0.2630432 0.080403015 -0.25627196
0.27220616 0.42811623 0.1896302 0.12698087 -0.40808704 -0.30781835 -0.098757714 0.20978433
0.068088464 0.124024436 -0.38245612 0.31723243 -0.3090856 0.19336438 0.2759538 -0.01925201
0.25996214 0.18120852 -0.027136575 -0.41752315 -0.27079728 -0.019185508 0.26836658 0.13066165
-0.033525098 -0.2168563 0.2565928 0.052800626 0.2783394 0.13816242 -0.07778909 0.35290003
-0.13413648 -0.42837572 0.13369755 -0.27602956 -0.23176725 -0.41917136 -0.3643027 -0.06711651
-0.2589307 0.1440825 -0.28173396 0.38214418 0.39068383 -0.060649253 -0.00035073445 0.11512292
-0.026205935 -0.4095739 -0.30731505 -0.16943598 0.20687276 0.036363494 -0.37426493 -0.36321983
0.33183205 0.29444093 -0.41821206 0.31476176 -0.14690804 0.030751446 -0.07083489 0.1430269
0.26553336 0.18410845 -0.2191475 -0.15317112 -0.08109024 0.2708872 0.20542975 0.3709814
0.38558796 0.21398638 0.2205561 -0.20547672 -0.3424357 -0.2195085 0.04490481 -0.35257438
0.16495956 0.28936988 0.30353943 -0.33659607 -0.033764057 0.0039520822 0.11454336 -0.35101748
0.29163983 0.05724514 -0.30370736 0.016601093 -0.00886717 -0.09743461 -0.28653172 0.09788416
0.12934835 0.16958065 -0.28664377 0.14941595 -0.27172822 0.32388744 -0.010053463 -0.2236576
0.19688724 0.3372343 0.23733114 -0.06354503 0.035445448 -0.009471563 0.18839428 -0.42554182
0.4046539 -0.13343854 -0.19613928 -0.18836756 0.43108815 0.3106178 -0.12002387 0.3816777
0.053682424 -0.18374844 0.16420782 0.008753695 -0.082440645 0.1521009 0.16589284 -0.40467367
-0.13341747 0.17747019 0.33689675 -0.27850235 0.29592055 -0.28073162 -0.056198496 0.08606444
-0.41858125 0.39690506 0.038568545 0.2624217 -0.3956799 0.0979561 -0.35759717 -0.30297008
-0.3551162 -0.02406383 -0.24562106 0.36852187 -0.0008863342 0.14226617 0.12240836 -0.21207033
0.3932871 -0.032411996 -0.09527392 -0.2854483 -0.18675892 -0.10962569 0.42187083 -0.27088025
0.09702133 0.023791537 -0.3937553 -0.34274778 0.07266739 -0.40448985 -0.2963963 0.32812744
-0.29553506 0.050427593 0.051339637 0.3133824 -0.011018035 0.10744835 0.25448728 0.06856899
-0.16028677 0.429082 -0.028754301 0.021272847 0.08290804 -0.15639508 -0.22990292 0.063643366
-0.37726805 -0.29234922 0.29233462 0.041893505 0.23489131 0.28749955 0.22361355 -0.43120316
0.2714987 0.0019302648 0.33794618 0.165575 0.3423407 0.2287108 0.14820036 -0.31579342
0.3788993 0.16718562 0.08622211 0.13479716 0.0768935 0.26298955 -0.38941965 0.34646183
-0.17352039 -0.3371086 -0.16339737 0.27785158 -0.2916012 0.33374113 0.1876972 0.16194527
00000000: 7336 c8bc d57c 80be 226d 023e 7b8d a93d
00000010: 5ee7 a7bc 9a40 dc3e 2fbf a4bc f331 afbe
00000020: 7be0 2d3d 8577 b8be a96d b5be a3c8 3cbe
00000030: 10d4 b0be 7449 abbe 15a0 c2bd c150 173d
00000040: cd33 b4bc 87ea 873d 09dd b43c 8b6e b93e
00000050: 3ce5 573d 9083 fc3c 8a7c a83c 6161 043c
00000060: 6c20 8bbd 74ba 73bd 24d7 bf3e b067 d1bc
00000070: 4227 ac3e ba0d 3a3e dade d53e 4158 bf3e
00000080: bdf4 a2be 6ddf 9dbe 2750 c2be dbe4 c7be
00000090: b787 cfbd 99ad 86be 56aa a43d 1436 83be
000000a0: 9b5e 8b3e 0d32 db3e 6b2e 423e 4607 023e
000000b0: c9f0 d0be 5e9a 9dbe 7c41 cabd b4d1 563e
000000c0: f771 8b3d 8600 fe3d 4ad1 c3be 4a6c a23e
000000d0: 7840 9ebe 5001 463e d149 8d3e 64b6 9dbc
000000e0: c219 853e ba8e 393e 864d debc 98c5 d5be
000000f0: f1a5 8abe ed2a 9dbc 5867 893e 2bcc 053e
00000100: 9d51 09bd 940f 5ebe 2260 833e 7845 583d
00000110: 8082 8e3e 737a 0d3e e34f 9fbd 50af b43e
00000120: 135b 09be 1054 dbbe 03e8 083e bf53 8dbe
00000130: 6554 6dbe a19d d6be e285 babe 6174 89bd
00000140: 9192 84be 5d8a 133e 6f3f 90be 67a8 c33e
00000150: b607 c83e 5a6b 78bd c8e2 b7b9 91c5 eb3d
00000160: d4ad d6bc acb3 d1be 6658 9dbe a080 2dbe
00000170: 74d6 533e e3f1 143d a79f bfbe f3f7 b9be
00000180: e4e5 a93e f6c0 963e e41f d6be 7428 a13e
00000190: 106f 16be 75ea fb3c e211 91bd a575 123e
000001a0: fdf3 873e ed86 3c3e 3468 60be e4d8 1cbe
000001b0: a412 a6bd bab1 8a3e 2d5c 523e 46f1 bd3e
000001c0: c96b c53e 3f1f 5b3e 75d9 613e 7d68 52be
000001d0: bb53 afbe d6c6 60be 1bee 373d a184 b4be
000001e0: 29eb 283e 4a28 943e 8569 9b3e 5256 acbe
000001f0: 2e4c 0abd 7880 813b b695 ea3d 90b8 b3be
00000200: d151 953e e179 6a3d 887f 9bbe 04ff 873c
00000210: 9b47 11bc cc8b c7bd 49b4 92be 7e77 c83d
00000220: e573 043e 8da6 2d3e f9c2 92be 7f00 193e
00000230: f61f 8bbe 93d4 a53e 48b7 24bc 7f06 65be
00000240: cf9c 493e f9a9 ac3e ef06 733e e623 82bd
00000250: 3f2f 113d 9d2e 1bbc 6eea 403e 9ee0 d9be
00000260: cc2e cf3e 1da4 08be bcd8 48be 6de3 40be
00000270: 96b7 dc3e 4c09 9f3e 13cf f5bd 426b c33e
00000280: 1ae2 5b3d 8d28 3cbe 1826 283e a86b 0f3c
00000290: a4d6 a8bd 57c0 1b3e d0df 293e 6331 cfbe
000002a0: 979e 08be bfba 353e bb7d ac3e dc97 8ebe
000002b0: e682 973e 0ebc 8fbe 6530 66bd 8e42 b03d
000002c0: 4850 d6be 2437 cb3e 0dfa 1d3d 235c 863e
000002d0: 8e96 cabe 359d c83d fa16 b7be e51e 9bbe
000002e0: cad1 b5be 8221 c5bc 1684 7bbe e6ae bc3e
000002f0: e258 68ba 39ae 113e 3cb1 fa3d f728 59be
00000300: ed5c c93e 71c2 04bd f91e c3bd 4826 92be
00000310: bb3d 3fbe 6f83 e0bd 74ff d73e d1b0 8abe
00000320: 1eb3 c63d 78e6 c23c 4b9a c9be a37c afbe
00000330: a4d2 943d 4b19 cfbe 41c1 97be 5200 a83e
00000340: 5f50 97be 2a8d 4e3d 8349 523d a873 a03e
00000350: fd84 34bc e10d dc3d 284c 823e e66d 8c3d
00000360: 3722 24be a3b0 db3e 248e ebbc 6544 ae3c
00000370: b1cb a93d 0826 20be ac6b 6bbe 7457 823d
00000380: 4729 c1be ccae 95be e2ac 953e 8698 2b3d
00000390: 5987 703e 2433 933e f3fa 643e a9c6 dcbe
000003a0: e101 8b3e f000 fd3a 4807 ad3e 7e8c 293e
000003b0: 4847 af3e 2a33 6a3e d6c1 173e adaf a1be
000003c0: 17ff c13e b532 2b3e 3895 b03d 4408 0a3e
000003d0: 577a 9d3d 91a6 863e 0362 c7be 7263 b13e
000003e0: 54af 31be 8099 acbe a451 27be 9042 8e3e
000003f0: c14c 95be 1ee0 aa3e b233 403e fbd4 253e

net.2.bias f4 [16]
0.0009999996 0.0009999999 0.0009999995 0.0009999998 0.0009999996 0.0009999998 -0.0009999999 -0.0009999998
-0.0009999999 0.0009999997 -0.0009999998 -0.0009999997 0.0009999998 -0.0009999998 0.0009999997 0.0009999997
00000000: 6b12 833a 6e12 833a 6a12 833a 6d12 833a
00000010: 6b12 833a 6d12 833a 6e12 83ba 6d12 83ba
00000020: 6e12 83ba 6c12 833a 6d12 83ba 6c12 83ba
00000030: 6d12 833a 6d12 83ba 6c12 833a 6c12 833a

net.4.weight f4 [2, 16]
-0.09075604 0.034397095 0.15819396 0.23585288 -0.030746037 0.5424233 -0.4124745 -0.47737125
-0.56590545 0.10726701 -0.15741286 -0.19672552 0.5778763 -0.40762824 0.051691364 0.1262025
0.54633546 0.51994425 0.4325213 0.5259245 0.19364144 -0.19907391 0.25992405 0.24030253
-0.28782806 0.3632476 -0.14063251 0.050757818 0.12034675 -0.058755413 0.5468527 0.1173388
00000000: 4dde b9bd f8e3 0c3d 99fd 213e 6b83 713e
00000010: 1ddf fbbc 41dc 0a3f dc2f d3be 016a f4be
00000020: 2edf 10bf ceae db3d d630 21be 6a72 49be
00000030: b4ef 133f a6b4 d0be 53ba 533d 3a3b 013e
00000040: a4dc 0b3f 111b 053f 6f73 dd3e fda2 063f
00000050: f149 463e 08da 4bbe c414 853e de11 763e
00000060: 335e 93be 97fb b93e f801 10be 6ee7 4f3d
00000070: 5b78 f63d 84a9 70bd 8afe 0b3f 534f f03d

net.4.bias f4 [2]
0.0009999999 0.0009999999
00000000: 6e12 833a 6e12 833a
