results/de/protein.data|16-16|tanh|wd0.01|bs32|noval|1|/stdict_3.pt (torch, 4562 bytes, 6 tensors)

net.0.weight f4 [16, 9]
00000000: 3900 5b3e 408e e93d 7d25 80bd 79e5 c7be
00000010: 37c3 ee3d ae58 dbbe 535d 8d3d 2272 013d
00000020: 3555 dfbd a334 ca3e ad75 de3c b6d4 523e
00000030: 0ebd 4e3e 49cc 96be 7173 46be 7b03 ee3e
00000040: d5ef f7be e588 f1bc 64af 0abd 9553 b23e
00000050: 8aad 59bd c381 093e c696 97bc 63f6 89be
00000060: 1f55 8bbe ed46 73be b835 e5be a000 a1be
00000070: 14c8 e83d ab9f a13e ca84 eb3c 116e 62be
00000080: 5eca 5f3e a770 3cbe 5a8a dfbd 6523 8abe
00000090: f882 20be f810 e7be 6126 5d3e 7d66 3e3e
000000a0: 5c0c c13d 0570 733e 7fe4 503e 8f59 bb3c
000000b0: c49d 593d 0567 313d cca8 883e 9aa6 a53e
000000c0: cb02 b73e dd4b 943e b24a e8bd 7a8e 81bc
000000d0: 7c52 c4bd a24e 8f3e 97c5 4f3d cf2e e93e
000000e0: 838c 823e 2522 d9be 32e7 0e3e 1f59 ee3e
000000f0: f188 dc3e bdfe 9cbb bf5e 2a3e ebfa e8be
00000100: f7b3 19be a04f 7b3e 3cc2 e5be a039 dc3e
00000110: 1cc9 a2be 911b 1f3e 33c6 41bc 25a7 a53d
00000120: e419 3d3d 8126 edbe 5337 e4bd 4e18 9bbe
00000130: 6941 d23e 6831 6bbd f8a1 f6be 2dd8 e53d
00000140: 84ff 5d3e 3882 5abe 8528 3cbd 2c19 553e
00000150: 74ff 98be 5f8a 81be 03cb 29bd fc9b acbe
00000160: 6155 9a3e e99c 2e3d 6bd7 983e fa25 893e
00000170: bbe9 c2be 96a2 99be 95b4 a8be 6ab8 1bbe
00000180: b71c 31be 70bf 99bd c625 f5be 8df7 543e
00000190: 3cbf 8b3e a882 183e f9c6 a13e 2603 bc3e
000001a0: b430 f4be 4a0b 973d 4a51 e53e 5123 b8be
000001b0: 1e3c 5abe c853 00bd 895a 9fbe baac b0bd
000001c0: 6161 8abd 6249 e13e 1934 cdbc e305 853e
000001d0: dc87 b83e 26df 643e 709c d7be 0041 b93e
000001e0: 580f a83e 6e10 b1be d097 2dbe 13a9 ad3e
000001f0: c842 f2be 6bd2 ddbe fdf5 a6be 6500 233e
00000200: 985c 46be 035f ddbe f118 483e feb9 813e
00000210: 1326 413e 39a4 d3be 3c1d f23e c7ec 2abd
00000220: 4719 efbe b017 89bd 3627 a13e fbf4 613e
00000230: 800e 24bc 4029 ae3e 210c e4be 1ae4 af3e
0.21386804 0.11404085 -0.0625715 -0.3904226 0.11658328 -0.42841095 0.06902566 0.031602986
-0.10904924 0.39493284 0.027155722 0.20588955 0.20189306 -0.29452732 -0.19379975 0.4648703
-0.48425165 -0.029484222 -0.03385867 0.34829393 -0.053144015 0.13428406 -0.018504512 -0.2694579
-0.2721338 -0.23757525 -0.44767547 -0.3144579 0.11366287 0.3156713 0.028749842 -0.221123
0.2185454 -0.18402348 -0.1091506 -0.2698013 -0.1567496 -0.45130134 0.21596672 0.18593784
0.094261855 0.23773201 0.20399664 0.022869853 0.053128973 0.043311138 0.26691282 0.3235367
0.35744318 0.2896413 -0.11342372 -0.015815008 -0.09586045 0.2798968 0.050725546 0.45543525
0.25497827 -0.42408863 0.13955382 0.4655237 0.43073228 -0.0047911094 0.16637705 -0.45503935
-0.15010057 0.24542093 -0.44874752 0.43012714 -0.3179406 0.1553786 -0.0118270395 0.08088521
0.04616727 -0.4631844 -0.11143365 -0.3029198 0.4106553 -0.057420164 -0.48170447 0.11222873
0.21679503 -0.21338737 -0.04593708 0.20810384 -0.29882395 -0.2530088 -0.041453373 -0.33712757
0.30143264 0.04263011 0.2985185 0.26786786 -0.38068947 -0.30006856 -0.32950273 -0.15207067
-0.1729611 -0.07507217 -0.4788038 0.20797558 0.27294338 0.14893591 0.31597117 0.36721152
-0.47693408 0.073752 0.4478858 -0.35964444 -0.21311995 -0.0313299 -0.3112376 -0.08626695
-0.06756855 0.440013 -0.025049256 0.25981054 0.36041152 0.2235075 -0.4211154 0.36182404
0.32824206 -0.34582847 -0.16952443 0.33918056 -0.47316575 -0.433246 -0.3260955 0.15918119
-0.19371259 -0.4323655 0.19540764 0.25337213 0.1886218 -0.4133623 0.4728793 -0.041729715
-0.46698973 -0.06693971 0.31475228 0.22066109 -0.010013223 0.34015846 -0.44540504 0.34353715

net.0.bias f4 [16]
00000000: 872e c43b c250 80bb d582 c13b 4d22 c93b
00000010: 8c99 acbb 4729 df3a b7d0 96bb 46cb b8bb
00000020: 3a5e cc3b 3c49 8e3b 2852 363b 5997 31bb
00000030: e228 d53b 0c88 b43b acd3 9638 a8d8 afbb
0.005986992 -0.003915877 0.005905489 0.006138122 -0.0052673277 0.0017025851 -0.0046025175 -0.0056394665
0.0062368186 0.0043422263 0.0027819965 -0.0027098267 0.0065051178 0.005509382 7.191984e-05 -0.0053664036

net.2.weight f4 [16, 16]
00000000: 9564 d93e eab4 83be bf49 c83d ae99 9bbd
00000010: ee7a b8be 302a 01ba bfa9 13be 312b c0be
00000020: c874 a3be 8a3a 5b3b 01b7 cd3e f439 213e
00000030: a755 90be 9b51 983e 002c 093d bd49 d5be
00000040: 9e51 da3c fb4b 8b3e 7c06 81be 4881 5ebc
00000050: d9b6 61be be44 b1be 170f 7ebe a454 4b3d
00000060: f067 913e 5c2e 97bd b6c1 c5be 170f cebb
00000070: bde0 c2be beb2 ee3c 85c7 a43e 5e2b 373e
00000080: dfcb 8abe f6ff b7bd 30fa 2d3e 81d6 e33d
00000090: 86f2 ccbe 15c1 7fbe a8c0 1fbe c5c9 1c3e
000000a0: 76d1 c63e 2ce4 3e3e 85fa 243e 08ea bdbe
000000b0: dc17 923e 5432 1b3e 6053 0abe 104a 4ebe
000000c0: 68ee f23d 97af 6cbe 6080 353e 3e1c a63e
000000d0: 7da2 8fbe 811b 8cbe f63f 3fbe cf34 bfbe
000000e0: 113b 44bd 1294 873e f145 2c3e fa3e 15be
000000f0: 08c0 40bd 6ab0 3bbe 4fa0 b1be dd0d e4bd
00000100: 97a9 0d3d a898 64be 3ff2 a5be 3d4f 083e
00000110: c484 6f3d 7472 06be 7b61 003e d75c ce3e
00000120: 6261 b43c 3e64 95be 4bc6 c93e 3c9a a23e
00000130: 06da 44bd ca89 4bbe 2270 3dbe 89d0 bd3e
00000140: 06c4 6c3e 4394 6abe f8d8 6f3c b0ee c03d
00000150: 1491 df3d 241b f4bc 0072 6dbe 8954 fcbb
00000160: 8bc3 e9bd de98 0ebe aac9 57be 6c30 5bbe
00000170: b5af 53be 18f5 313e 436c b9be 12d4 d4be
00000180: 857c ba3e 353b 253e 8730 723e e4e8 3a3e
00000190: ccfa 22be 6ff1 88be b8a8 97be 42e2 07bd
000001a0: f672 d53d cad8 d2be 7ac7 aabe 7e25 773e
000001b0: 299d 7b3d a653 903e a333 c53e 050b 8a3e
000001c0: 3de9 c6bd b0e5 3fbe 5a1c 013e fbf3 b03e
000001d0: e7c9 d1be 7978 ec3d cfff adbe 3bd2 b2be
000001e0: 1021 1f3e 9171 5b3e d578 1b3e 1ede fe3d
000001f0: 4009 febd b3cd 6b3c e150 c3be 871c 8dbe
00000200: 945f f53b c974 c3bd 2bf6 84bd ec49 753e
00000210: 8d4c 263e 770c c9bd 63e9 18be 9fbf 9dbe
00000220: 7df7 673e b1c9 9abe 433b 0f3e a393 aebd
00000230: c39b ac3e 683b 8abe e981 8dbe eadf 683d
00000240: 5d19 f33b 77c0 37be d722 dc3e e4fe bfbe
00000250: b0c7 743e 4c9d 5d3e ddda bfbd d537 173e
00000260: edf6 a0bd afa0 a9be 7271 903e 33d3 ddbd
00000270: cbac 78bd 7bcb d63e 4599 d43e 191e a3be
00000280: a579 debd 6780 773e b026 8a3e addd a0be
00000290: eb6d a2be 4099 333e d1b7 9abe f97d a23e
000002a0: 4f61 a6be 6cee 7dbe 81c2 313e d3f4 6c3e
000002b0: d477 1cbe 975a 7bbe 4e8a 2f3e f91d 153e
000002c0: 542f d83d 52ee c8be 5eb5 01be 6bcd 27be
000002d0: 7d40 1c3c 701c c93e 5517 9ebe fdc3 3bbc
000002e0: 3c6c 243e f144 733e bc74 dcbe c355 b83c
000002f0: 518e af3e 530e 92be ebd4 873e a143 76bd
00000300: d17d c53e 46ca bebe 3444 963d 21e0 a13e
00000310: bf8d 9e3e 422a 57be c4b9 b1be dcdb a33b
00000320: 551c 5abe 23c6 893e b767 6bbe e5ae 553d
00000330: 1b7e c1be 0476 debb 6817 bf3e 0a0a 643e
00000340: d177 403e 982b 84be d59f bb3e b366 56be
00000350: 54e9 c83e 2e0c b6be 6607 54be 8424 02be
00000360: e4ad 933d 1cab 763e 76e7 b63d 7735 21be
00000370: ece7 b3be 4180 01be 3fd8 52be b528 89be
00000380: a05c 873e 92ce 813d 7300 6ebe ec28 4c3e
00000390: d9c1 92be 43aa 85be 07d4 47bd f469 903e
000003a0: 382c 663e ea89 97be 2e20 99be 7994 0e3e
000003b0: 5b75 cabc 2a7b 4b3d 7139 983c a332 9bbe
000003c0: 60ad a0bd d2e3 06be 7934 9abd 6664 883e
000003d0: 4c1c cdbe 720e 373d faec db3e 0c26 c9be
000003e0: 8a79 193e 7088 d83e 8a29 743e b805 713e
000003f0: eab5 22be d32f 323e 0155 443d 8404 d93e
0.4245955 -0.25723964 0.09779691 -0.075976714 -0.36031288 -0.0004927246 -0.14420222 -0.37532952
-0.31925035 0.003345164 0.40178683 0.15744764 -0.28190348 0.2974976 0.033489227 -0.4165782
0.026650246 0.27206406 -0.2520026 -0.013580628 -0.22042407 -0.3462276 -0.24810444 0.049641266
0.2839961 -0.07381889 -0.38624352 -0.00628842 -0.38062087 0.029137965 0.3218347 0.17887637
-0.27108666 -0.089843675 0.1698997 0.11124898 -0.4002878 -0.24975999 -0.15600836 0.15311344
0.3883168 0.18641728 0.1611119 -0.37092614 0.28533828 0.15155917 -0.13508368 -0.2014544
0.11861879 -0.23113857 0.17724752 0.32443422 -0.28053656 -0.27364734 -0.18676743 -0.37344977
-0.047907893 0.26480156 0.16823556 -0.14574805 -0.047058135 -0.18329015 -0.34692618 -0.11135457
0.03458556 -0.22323859 -0.32411382 0.13311477 0.058476225 -0.13129598 0.12537186 0.40305206
0.022019092 -0.2917804 0.39409098 0.31758296 -0.048059486 -0.19876781 -0.18499807 0.37073162
0.23121652 -0.2290812 0.014639132 0.09420526 0.10916343 -0.029798098 -0.23188019 -0.007700507
-0.1141425 -0.13925502 -0.21073022 -0.2140519 -0.20672496 0.17378652 -0.3621541 -0.41568047
0.36423126 0.16135867 0.23651324 0.18252903 -0.15915984 -0.267467 -0.2962091 -0.03317476
0.10422318 -0.41181022 -0.33355314 0.24135396 0.061429176 0.2818882 0.38515958 0.26961532
-0.097124554 -0.18739963 0.12608472 0.34561142 -0.40974352 0.11546416 -0.3398423 -0.34926018
0.15539956 0.21430041 0.15182813 0.12444709 -0.12404108 0.014392304 -0.38147643 -0.27560827
0.0074882004 -0.095437594 -0.06492265 0.2395398 0.1624014 -0.098168306 -0.1493278 -0.30810258
0.22653003 -0.30232003 0.1398745 -0.08524253 0.33712587 -0.26998448 -0.27638176 0.056854166
0.007418795 -0.17944513 0.4299533 -0.37499154 0.239043 0.21642035 -0.09367917 0.14767392
-0.07859597 -0.33130404 0.28211552 -0.10831299 -0.060711663 0.41952118 0.41523185 -0.318589
-0.108630456 0.24170075 0.2698264 -0.31419125 -0.31724486 0.17538929 -0.30218366 0.31736735
-0.32496116 -0.24797982 0.17359354 0.23140268 -0.15280086 -0.24546276 0.17142603 0.14562215
0.10555902 -0.39244324 -0.12666842 -0.16386954 0.00953686 0.3927951 -0.30877176 -0.0114603015
0.16056913 0.23756768 -0.4305781 0.022501832 0.34288266 -0.28526554 0.2652963 -0.06012309
0.38572553 -0.37263697 0.073372275 0.3161631 0.3096752 -0.21012214 -0.3471204 0.0050005745
-0.2129987 0.2690898 -0.22988783 0.052168746 -0.37791523 -0.006788971 0.37322545 0.22269455
0.18795706 -0.2581451 0.3664538 -0.20937614 0.39240515 -0.35556167 -0.20705947 -0.12709242
0.072109014 0.2408871 0.089308664 -0.15743051 -0.3513788 -0.12646581 -0.20590304 -0.2678887
0.26437855 0.06338228 -0.23242359 0.19937485 -0.2866352 -0.26106462 -0.04878619 0.28205836
0.22477806 -0.29597408 -0.29907364 0.13923825 -0.024714163 0.049678005 0.018582078 -0.3031207
-0.07845569 -0.13172844 -0.075295396 0.26639098 -0.4006065 0.04469151 0.42954236 -0.3928684
0.1498777 0.42291594 0.23843971 0.23537338 -0.15889707 0.17401056 0.04793263 0.42386258

net.2.bias f4 [16]
00000000: 3223 ba3b a7a7 b6bb 0c3b c73b fc9a 9d3b
00000010: 4a2f adbb c552 93bb e5ad cd3b ecd3 b03b
00000020: 2a31 743b 2683 773b 2ddb bdba dd52 973b
00000030: 53ff 14b9 0ea9 b5bb 3a9e 993b 897f ab3b
0.005680465 -0.005574185 0.006080037 0.0048097353 -0.0052851783 -0.004495951 0.0062768334 0.005396357
0.003726075 0.003776738 -0.0014484875 0.0046180324 -0.00014209496 -0.0055438345 0.0046880515 0.0052337092

net.4.weight f4 [2, 16]
00000000: 97e2 0cbf a000 953e 6691 b4be 7983 03bf
00000010: ffb7 083f f5ac fc3d c631 a6be 1d03 09bf
00000020: 2523 f8bd 4cf3 07be cdb3 4cbd 395b 2cbe
00000030: f65d 243e f3c4 c83e 5ed1 eabe 45a6 59be
00000040: 1708 fb3e ed6c 0ebf 56bc e93e 5dc8 f7bd
00000050: 1dc4 233e 24a7 9abe c676 893e adf9 8c3d
00000060: 0cdf 0dbe 877a 0a3f ccfd 03bf 9ead fe3e
00000070: 15d3 c33e d375 c2bd 793d 3dbe 036e ec3e
-0.5503325 0.2910204 -0.3526718 -0.51372486 0.53405756 0.123376764 -0.3245985 -0.53520375
-0.12116078 -0.13276404 -0.04997616 -0.16831674 0.16051468 0.3921276 -0.4586286 -0.21254833
0.4902961 -0.5563496 0.456515 -0.12098763 0.1599278 -0.30205643 0.2684843 0.068835594
-0.13854617 0.5409321 -0.5155914 0.49741834 0.3824698 -0.094951294 -0.18480481 0.46177682

net.4.bias f4 [2]
00000000: d333 b8bb b847 053b
-0.0056214123 0.0020336937
