results/de/protein.data|16-16|tanh|wd0.01|bs32|noval|1|/stdict_5.pt (torch, 4562 bytes, 6 tensors)

net.0.weight f4 [16, 9]
0	0xbe52fa74	-0.20603353
1	0xbe7530d6	-0.2394441
2	0x3e9a2a7b	0.30110535
3	0x3e84f83a	0.25970632
4	0x3e381cea	0.1797978
5	0x3eab5734	0.33464968
6	0xbc6f5852	-0.01460846
7	0xbf3d223b	-0.73880357
8	0x3e54a025	0.20764215
9	0xbda80ee3	-0.082059644
10	0xbd0e1974	-0.034692243
11	0x3e493bd6	0.19651732
12	0x3ea692b8	0.32533813
13	0xbe2175f0	-0.15767646
14	0x3cd8dc35	0.02647219
15	0xbd99517a	-0.074862435
16	0x3dbbfbe2	0.09178902
17	0xbdbdf717	-0.09275644
18	0xbcbaad5b	-0.02278774
19	0xbd9da56c	-0.07697567
20	0x3e34606f	0.17614911
21	0x3c7de650	0.015496805
22	0x3da5c5fb	0.080944024
23	0x3d941b51	0.07231773
24	0x3e069f18	0.13146627
25	0xbe9f18ee	-0.31073707
26	0x3e54c5c4	0.20778567
27	0x3da63ed0	0.08117449
28	0xbd1b3c64	-0.03789939
29	0x3df6246c	0.12018666
30	0x3df34272	0.11877908
31	0xbc554b0d	-0.013018382
32	0x3c83eebb	0.016105046
33	0x3ce5822a	0.028016169
34	0x3d7b6a2f	0.06138056
35	0x3c782da1	0.0151475975
36	0x3e1a75d1	0.15084006
37	0x3e9dfb96	0.30856007
38	0x3e8c6ef9	0.27428415
39	0xbea6167d	-0.32439032
40	0xbcf4c3fb	-0.029878607
41	0x3e18a230	0.1490562
42	0x3dff47ef	0.12464892
43	0xbe1c7433	-0.15278701
44	0xbdab1491	-0.08353532
45	0x3db5c955	0.08876292
46	0x3c3ae6c1	0.011407555
47	0x3e3b24b3	0.18275718
48	0xbd78da4c	-0.06075506
49	0xbe1c955e	-0.15291354
50	0xbe5bef9b	-0.21478121
51	0xbe019eaf	-0.12658189
52	0x3c4e10fa	0.01257729
53	0x3e53ffb0	0.20703006
54	0xbcba0d29	-0.022711353
55	0x3c135753	0.008992988
56	0xbd3d86d3	-0.046271157
57	0x3d63938d	0.055560637
58	0xbd3e1693	-0.046408247
59	0x3d8b6600	0.06806564
60	0x3d8cc66e	0.06873785
61	0x3d94bb04	0.07262233
62	0x3c822a84	0.015889414
63	0xbe554295	-0.2082618
64	0xbe4242aa	-0.18970743
65	0xbe0ff594	-0.14058524
66	0x3dd03d42	0.10167934
67	0xbe2e7ed3	-0.17040567
68	0xbdd67162	-0.10470845
69	0x3c3940a5	0.011306916
70	0x3d092edb	0.03349195
71	0x3dde5b9f	0.10857319
72	0x3c2e2664	0.01062927
73	0x3c8cda0f	0.017193822
74	0xbda0605d	-0.0783088
75	0xbe14bd51	-0.14525343
76	0xbd03e8ef	-0.032204565
77	0xbccb73f1	-0.024835559
78	0x3d2bccb4	0.041943267
79	0xbd742553	-0.059605908
80	0xba0fe75b	-0.0005489492
81	0xbc8582a9	-0.016297655
82	0x3e3b7314	0.18305618
83	0x3e294735	0.1653107
84	0xbe8f052b	-0.2793363
85	0xbe67c9f2	-0.2263563
86	0xbd50db4e	-0.050990395
87	0xbd97eacc	-0.07417831
88	0xbab8a79a	-0.0014088035
89	0x3e35ea60	0.17765188
90	0x3db1dce6	0.08684711
91	0xbd39a0aa	-0.045319237
92	0xbd7c3d3a	-0.061581828
93	0x3db9d589	0.09073932
94	0x3deaf6a1	0.11472822
95	0xbd6af818	-0.057365507
96	0xbc8a7c21	-0.016904892
97	0x3d450723	0.04810251
98	0x3d98e6a4	0.07465866
99	0x3ddf63ef	0.10907733
100	0x3d8e5f89	0.06951816
101	0x3e291d50	0.16515088
102	0xbedc7c5e	-0.43063635
103	0xbcbed95e	-0.023297008
104	0xbdc5e169	-0.09662134
105	0xbe2d1cc3	-0.16905503
106	0x3d9bf162	0.076143995
107	0x3d0f22f9	0.034945462
108	0xbe769d6c	-0.24083489
109	0xbdc212a5	-0.094762124
110	0x3bdd4073	0.0067520677
111	0x3e218d12	0.1577647
112	0xbc88cac4	-0.016698249
113	0xbde196c8	-0.11015087
114	0x3e3a399e	0.18186042
115	0x3e4c04b8	0.19923675
116	0x3d8cf0b4	0.06881848
117	0xbe5d9b0d	-0.21641178
118	0xbd0ec339	-0.034854148
119	0x3bd44450	0.00647787
120	0x3eccee19	0.40025404
121	0xbda8d0d8	-0.08242959
122	0x3daa30ce	0.0831009
123	0x3e670d60	0.22563696
124	0x3bb6556d	0.0055643828
125	0x3de8a860	0.1136024
126	0x3d785364	0.060626402
127	0x3edf06de	0.43559927
128	0x3c209bfe	0.009802816
129	0xbe8ff013	-0.2811285
130	0x3e315fa0	0.17321634
131	0xbdaaca59	-0.08339376
132	0x3e36e085	0.17859085
133	0xbd9c6117	-0.07635706
134	0x3e69ca82	0.22831157
135	0xbc028730	-0.0079668015
136	0x3e2966ac	0.16543072
137	0x3e30746c	0.17231911
138	0xbeef5e76	-0.46751755
139	0x3db8bbce	0.09020196
140	0x3e0f4f95	0.13995202
141	0x3d85e945	0.06538633
142	0xbb003246	-0.0019561215
143	0xbd1796c1	-0.037009005

net.0.bias f4 [16]
0	0xbe416120	-0.18884706
1	0x3dbea5fa	0.09309001
2	0xbd85fa62	-0.06541897
3	0x3cf881ac	0.03033527
4	0xbe55d1f0	-0.20880866
5	0x3e2658d9	0.1624483
6	0xbd17c667	-0.037054446
7	0x3be88c68	0.007096816
8	0xbce934e8	-0.02846761
9	0xbd1f7f10	-0.038939536
10	0x3d8cea49	0.06880624
11	0x3dc03f5b	0.09387084
12	0xbd4ddc2d	-0.050258804
13	0x3d355807	0.044273403
14	0xbdb091b0	-0.08621538
15	0xbd8a5da1	-0.067561395

net.2.weight f4 [16, 16]
0	0xbe20e094	-0.1571067
1	0xbba05ffe	-0.0048942557
2	0xbddc9e9d	-0.107724406
3	0x3d2a26a7	0.041540768
4	0xbd7092df	-0.058733817
5	0x3da39eff	0.079893105
6	0xbd17d373	-0.037066888
7	0xbdfd804c	-0.12377986
8	0xbd5260de	-0.05136191
9	0x3e55984f	0.20858882
10	0x3bea7748	0.0071553327
11	0x3d9e18d6	0.07719581
12	0xbd92169a	-0.07133217
13	0xbdd6d884	-0.10490516
14	0xb9aac3d1	-0.0003257082
15	0x3d979eb7	0.07403319
16	0x3da84350	0.08215964
17	0x3c42b541	0.011884035
18	0x3d8bc17d	0.06824014
19	0x3d76eb8e	0.060283236
20	0xbdeebcf3	-0.11657133
21	0xbe2a27d2	-0.16616753
22	0x3d5d853b	0.054082137
23	0x3dd0276c	0.10163769
24	0x3c992fbb	0.018699517
25	0xbde4b3bf	-0.11167096
26	0xbccc8092	-0.02496365
27	0xbd98b1b6	-0.07455771
28	0x3dccc102	0.09997751
29	0x3dc26c13	0.0949327
30	0xbda17492	-0.07883562
31	0x3cb02f48	0.02150692
32	0xbe02766a	-0.12740484
33	0xbd90a902	-0.07063486
34	0xbe14ed79	-0.14543714
35	0xbda5dee9	-0.08099157
36	0x3d222ad9	0.039591644
37	0x3d2307cc	0.039802358
38	0xbc098274	-0.008392919
39	0xbd5f9edd	-0.054594863
40	0x3d67f691	0.05663163
41	0xbd1b4795	-0.037910063
42	0xbd535f4b	-0.05160455
43	0x3e060d2a	0.13090959
44	0x3c1315d4	0.008977372
45	0xbe02cf44	-0.12774378
46	0x3dd1dfe2	0.102477804
47	0x3e079698	0.1324104
48	0xbe1fbd00	-0.15599442
49	0xbd9e4dc9	-0.0772968
50	0xbc41ca02	-0.011827948
51	0xbd95202a	-0.072815254
52	0x3db808be	0.089860424
53	0xbce1556f	-0.027506558
54	0x3be20128	0.0068971105
55	0x3dddd5c9	0.10831792
56	0x3d4b5fbc	0.049651846
57	0xbc644f62	-0.013934942
58	0xbdaf9e1c	-0.08575079
59	0xbc1c1470	-0.009526357
60	0x3da2dd35	0.07952348
61	0xbc689564	-0.014195774
62	0x3d454cb8	0.048168868
63	0x3d6d3040	0.057907343
64	0xbe56095e	-0.20902011
65	0xbd1ac48e	-0.037785105
66	0xbc1b2f49	-0.009471723
67	0xbc7393da	-0.0148667935
68	0x3e124ef5	0.14287932
69	0x3d21c9a8	0.039498955
70	0xbc9d87db	-0.01922982
71	0x3dcbd72e	0.09953152
72	0x3d7b161e	0.06130039
73	0xbd66d8a7	-0.05635896
74	0xbdbc5801	-0.09196473
75	0x3cc63954	0.024197258
76	0xbbc9ee3c	-0.006162433
77	0xbd91e33e	-0.07123421
78	0x3dbfa8a1	0.09358335
79	0x3c696b10	0.014246717
80	0xbe80618b	-0.2507442
81	0xbc7b1cc9	-0.015326687
82	0xbdaaca88	-0.08339411
83	0xbd5eecb1	-0.054424945
84	0x3e19d8f4	0.15024167
85	0x3e615ba4	0.22007614
86	0xbcb1a3a8	-0.021684483
87	0xbcac79de	-0.021054205
88	0x3cd8e4ab	0.026476225
89	0xbd3baf47	-0.045821454
90	0xbd98acf1	-0.07454861
91	0x3e6f8bbc	0.23393148
92	0xbdbe01a9	-0.092776604
93	0xbdda37a8	-0.10655147
94	0x3d88affd	0.06674192
95	0x3df7ffd0	0.12109339
96	0x3ec6ee40	0.38853645
97	0x3e6399c8	0.22226632
98	0xbcdbd26c	-0.026833735
99	0x3cf2417d	0.029572243
100	0xbea33375	-0.31875196
101	0xbd66c4e5	-0.056340117
102	0x3c950f6a	0.018195827
103	0x3dc46c6c	0.09590992
104	0xbe072159	-0.13196315
105	0xbe23e382	-0.16004756
106	0xbdfe3150	-0.12411749
107	0xbe9589d2	-0.2920671
108	0x3e39fe6f	0.18163465
109	0x3e6d7004	0.23187262
110	0xbe7df9b7	-0.2480229
111	0xbe632385	-0.22181518
112	0x3e9ee4ef	0.31034037
113	0x3dd6c1f3	0.10486212
114	0x3d9432fd	0.07236288
115	0x3deed92e	0.116625175
116	0x3d090be7	0.033458617
117	0xbdcaf672	-0.09910287
118	0x3d02114f	0.031754788
119	0xbc90e813	-0.017688787
120	0xbda2e7fa	-0.07954402
121	0x3d175285	0.03694393
122	0x3cbc9136	0.02301846
123	0xbd60a01e	-0.0548402
124	0x3c96d0e8	0.018410161
125	0x3dc5793f	0.096422665
126	0xbddd46d9	-0.10804529
127	0xbdae0102	-0.08496286
128	0x3dd50cc9	0.10402829
129	0x3d5e4380	0.05426359
130	0x3ca4d0de	0.020119127
131	0x3d1a7f71	0.037719194
132	0xbd313e34	-0.043272212
133	0xbca14d94	-0.019690312
134	0x3b1a2e66	0.002352619
135	0xbd1f7bf2	-0.038936563
136	0xbd11d9ef	-0.03560823
137	0xbc989b42	-0.01862872
138	0x3c95ecbd	0.018301362
139	0xbc90664f	-0.01762691
140	0xbcf580fe	-0.029968735
141	0x3cb0588b	0.021526596
142	0xbcf0afee	-0.029380765
143	0xbd037769	-0.0320963
144	0x3d5c0de9	0.053724203
145	0x3d38b627	0.04509559
146	0x3c1b2b47	0.009470767
147	0x3cff4013	0.031158483
148	0xbcc29e11	-0.023757013
149	0xbc9ff841	-0.019527556
150	0x3ab9edfa	0.0014185302
151	0xbd83a290	-0.06427491
152	0xbd080edc	-0.033217296
153	0x3ca492da	0.020089556
154	0x3cd0a188	0.02546765
155	0x3b400a5c	0.002930305
156	0xbd28c8bb	-0.041207056
157	0x3bea7fb4	0.0071563367
158	0xbc721412	-0.014775293
159	0xbcea078b	-0.02856805
160	0xbdda377d	-0.10655115
161	0xbdb3f3c4	-0.08786729
162	0xbd837f70	-0.06420791
163	0xbdac59de	-0.08415578
164	0x3de3eccf	0.11129152
165	0x3df46133	0.11932602
166	0xbdb41841	-0.087936886
167	0xbd0fe171	-0.035127107
168	0xbd51d856	-0.051231705
169	0x3e2b20d2	0.16711739
170	0x3d7ec93e	0.06220364
171	0x3d3e1e7c	0.04641579
172	0xbda6d593	-0.08146205
173	0xbdf4fd7c	-0.11962411
174	0x3d409da7	0.04702535
175	0xbcaa4c07	-0.020788206
176	0xbb6dd239	-0.0036288633
177	0xbbd14bca	-0.0063872086
178	0x3cbad733	0.022807693
179	0xbd771d42	-0.060330637
180	0xbddaccc7	-0.106835894
181	0x3c8cab8f	0.01717165
182	0x3c5edd47	0.013602561
183	0x3e3271c9	0.17426218
184	0x3d79302c	0.060836956
185	0x3c9305bb	0.017947068
186	0x3b69b7e1	0.003566258
187	0x3d1a342b	0.037647408
188	0x3de3efdb	0.11129733
189	0x3d3aa1f7	0.045564618
190	0xbd8607d4	-0.06544462
191	0x3a2e31c7	0.00066449906
192	0x3e7d3053	0.24725465
193	0x3e0b27f8	0.13589466
194	0xbd8ed7d1	-0.069747575
195	0xbd7a5e89	-0.061125312
196	0xbe8e30fe	-0.27771753
197	0x3d41cdea	0.047315516
198	0xbc99a5f8	-0.018755898
199	0x3e2f5d34	0.17125398
200	0xbca817f0	-0.020519227
201	0xbe68c24c	-0.22730368
202	0x3e15c624	0.14626366
203	0xbe5aa578	-0.21352184
204	0x3e444d65	0.19170149
205	0x3e43dd70	0.1912744
206	0xbe86f77b	-0.26360688
207	0xbe66890e	-0.2251322
208	0x3ddbf491	0.10740007
209	0x3d85afcf	0.065276735
210	0x3cf5bbf8	0.029996857
211	0x3d25f98b	0.040521186
212	0xbd316d7c	-0.043317303
213	0xbd75e3bb	-0.060031634
214	0xbb6696f1	-0.0035185183
215	0xbdd750cc	-0.10513458
216	0xbd55477b	-0.052070122
217	0x3d389464	0.04506339
218	0x3d4b2736	0.04959794
219	0x3c9d40c3	0.01919592
220	0xbd926ab7	-0.071492605
221	0x3bed7e03	0.007247688
222	0xbc9f41ec	-0.019440614
223	0xbd51b1bb	-0.051194888
224	0x3e8355e2	0.2565146
225	0x3cf35098	0.029701516
226	0x3da4cd6a	0.08046992
227	0xbca9c665	-0.020724485
228	0x3cf79c83	0.030225998
229	0xbda45f32	-0.080259696
230	0xbc823e21	-0.015898766
231	0x3dd36854	0.103226334
232	0xbcab7f93	-0.020934856
233	0xbd59ebb9	-0.05320332
234	0x3d909d73	0.07061281
235	0xbdf9d58a	-0.121989325
236	0x3d6512bf	0.05592608
237	0x3dad440c	0.084602445
238	0xbd6f86fd	-0.058478344
239	0xbd12cf33	-0.03584213
240	0x3e2f97e5	0.17147787
241	0x3e0c98a4	0.13730103
242	0x3db57391	0.08859933
243	0x3d2983a9	0.041385327
244	0xbdf9de2f	-0.12200581
245	0xbd5cd9fc	-0.053918824
246	0x3d1d21dc	0.03836237
247	0xbdb7e1eb	-0.08978637
248	0xbd852e3c	-0.06502959
249	0x3d7d3d91	0.061826292
250	0xbc269f97	-0.010169885
251	0x3cad708d	0.021171832
252	0xbd285c71	-0.041103784
253	0x3d52b757	0.051444378
254	0xbdba0473	-0.0908288
255	0xbe1d1e1b	-0.15343516

net.2.bias f4 [16]
0	0x3c5871f0	0.013210759
1	0xbd2b0b11	-0.0417586
2	0xbcaaf07f	-0.02086663
3	0xbe0814dd	-0.13289209
4	0xbd684142	-0.05670286
5	0xbc168447	-0.009186811
6	0x3c5506f8	0.01300215
7	0x3e0d6662	0.13808587
8	0x3dc12e78	0.09432691
9	0x3d8b463f	0.06800508
10	0xbb638b84	-0.003472061
11	0xbd432f7b	-0.047652703
12	0x3ddf9949	0.10917909
13	0x3df77f99	0.12084884
14	0xbd882eaa	-0.066495255
15	0x3d902076	0.070374414

net.4.weight f4 [2, 16]
0	0x3e89ea02	0.26936346
1	0xbe93e068	-0.28882146
2	0x3e448f55	0.19195302
3	0xbcca2a5e	-0.024678405
4	0x3e056171	0.13025452
5	0x3e9ceccd	0.30649415
6	0xbf10a4e5	-0.5650161
7	0xbe2bd3fa	-0.16780081
8	0xbc8efc5b	-0.017454317
9	0x3cd4ffd6	0.026000898
10	0x3ea74605	0.32670608
11	0xbe799ef8	-0.24377048
12	0xbf092418	-0.535707
13	0x3d4a395a	0.0493711
14	0xbe8a6fa5	-0.27038303
15	0xbdb65e82	-0.08904745
16	0x3d9e4d05	0.07729534
17	0xbceaa24e	-0.028641846
18	0x3e6e36e6	0.2326313
19	0x3ea4952e	0.32145065
20	0x3e81abc9	0.25326374
21	0x3e8cd5cc	0.27506864
22	0xbeac5f9a	-0.33666688
23	0xbebfa1fe	-0.37428278
24	0xbe30f8c4	-0.17282397
25	0xbe04ffa5	-0.12988146
26	0x3db5461b	0.08851262
27	0x3dd239ad	0.10264907
28	0xbe198897	-0.14993511
29	0xbe771f1f	-0.24132966
30	0xbdd32ff5	-0.103118815
31	0xbea44198	-0.32081294

net.4.bias f4 [2]
0	0x3db24fd8	0.08706635
1	0xbe58d44c	-0.21174735
