results/de/protein.data|16-16|tanh|wd0.01|bs32|noval|1|/stdict_8.pt (torch, 4562 bytes, 6 tensors)

net.0.weight f4 [16, 9]
000000 c7 0f 86 be 99 5f 96 bd 20 f1 92 be 7a 2a 02 3e
       -0.26183912 -0.073424526 -0.2869959 0.12711516
000010 39 21 07 be 38 37 b0 3e 27 0f b2 3e 59 6a 4c 3d
       -0.13196267 0.3441713 0.34777185 0.04990611
000020 e4 dd 55 be 95 53 93 be d4 5d 5c bd 11 2e 0d be
       -0.20885426 -0.28774706 -0.05380042 -0.13787104
000030 2f 1c 5d 3e 4c 2e d6 be de bc eb 3e 8c c1 c4 be
       0.21592782 -0.41832197 0.46042532 -0.38428915
000040 99 12 c0 3e c2 3a ae bd e4 05 81 3e 1f 7e 43 3e
       0.3751419 -0.08507301 0.25199807 0.1909108
000050 ac fe a7 3c 6c 14 bb 3d 0e 7b be 3e cd 03 01 3e
       0.02050718 0.091347545 0.37203258 0.12599106
000060 75 13 85 3e b0 07 c2 be 8b 8f b2 3e 83 a7 2c 3e
       0.25991407 -0.3789649 0.3487514 0.16860776
000070 cb 23 fe 3d 4c 9a 8a 3d 2d 8a 74 3e 58 5e e6 3e
       0.12409171 0.06767711 0.23880835 0.44993854
000080 b8 40 df bd e8 bc 8b be cb 6d fc bd 1c e0 98 be
       -0.10901016 -0.27292562 -0.12325629 -0.29858482
000090 03 52 71 3e 34 f0 77 be d5 dd 85 be cc 6b d8 3e
       0.23566441 -0.24212724 -0.26145807 0.42269742
0000a0 ca 86 e5 3e 3e ca 66 3d 6d bc ad bd 21 83 81 bd
       0.44829398 0.056345217 -0.08483205 -0.06323839
0000b0 8c a5 6d 3e ba 37 ea be d1 fc cc be fb 5c c8 3e
       0.23207682 -0.4574564 -0.40036634 0.39133438
0000c0 92 a0 f7 3e ac 7c ee bc 33 31 c6 be 0a 4f 5b 3c
       0.48364693 -0.029112183 -0.3870941 0.013385544
0000d0 42 61 69 be ac e4 76 ba ce 8a 75 3e f6 11 5e 3e
       -0.22791007 -0.000941823 0.23978731 0.21686539
0000e0 76 4e 6b bd b7 eb 5c 3d c8 84 08 3e cc 9a c4 be
       -0.057447873 0.053935733 0.13331902 -0.3839935
0000f0 b8 14 2a be 02 22 9d 3c e7 1f 8f be 15 17 5b be
       -0.16609466 0.019181255 -0.27954027 -0.21395524
000100 b0 7e 28 3e c4 5b 90 3e 1d ee e0 3b e5 22 43 be
       0.16454577 0.28195012 0.006864323 -0.1905628
000110 81 55 89 3e 1d 7f 89 be 18 80 eb bd 9b 9f ec 3e
       0.26823047 -0.26854792 -0.11499041 0.4621552
000120 45 c8 b8 3d 9f 63 0d 3d 95 1d 29 3e 54 a9 f4 bd
       0.090225734 0.034518834 0.16515191 -0.11946359
000130 67 9a d6 3e 49 94 cc be 7f fe 09 be 95 70 ad bd
       0.41914675 -0.39956883 -0.13475989 -0.08468739
000140 eb 6a 4e be 1b 52 f8 bd 89 73 9b 3e b0 a0 89 3e
       -0.20157973 -0.121250354 0.30361584 0.26880407
000150 82 26 df 3c 9c 84 da 3e dd 18 b1 be 7b 91 95 be
       0.027240042 0.42679298 -0.34589282 -0.29212555
000160 f9 a7 62 3e 27 b6 d7 bc 93 93 e4 be f1 9c ad be
       0.22134389 -0.026331974 -0.4464384 -0.339088
000170 34 b2 98 be 26 b1 c1 3e b5 2e 63 3e e9 0a c2 3e
       -0.29823458 0.37830466 0.22185786 0.3789895
000180 35 bd ba be 67 8c f4 be 4e 7c a4 be e5 ab 56 3d
       -0.36472479 -0.47763368 -0.32126087 0.052410025
000190 45 29 c6 bd a9 10 9e be 9d 98 b6 3e d3 c6 21 be
       -0.0967584 -0.30872086 0.3566331 -0.15798502
0001a0 b8 12 91 be 7b b9 67 3e 3a 2a 07 be f7 e7 9f 3e
       -0.28334594 0.22629349 -0.13199702 0.31231663
0001b0 a8 1c ef 3d 6a 05 46 3c 6c 9f d2 3d fb 79 bc be
       0.116753876 0.012086252 0.102843136 -0.36811814
0001c0 f1 34 86 be 52 c6 6b be e8 ed 8d be 43 e9 b1 3d
       -0.26212266 -0.23024872 -0.2772057 0.08687069
0001d0 bf 71 c8 3d 61 6f 50 be 3f 83 a3 3e 4f 8f 8b be
       0.0978732 -0.20354988 0.3193607 -0.27257773
0001e0 2d 8f ca 3d e6 3e 0f be 2b 93 d9 be 71 53 a3 be
       0.0989059 -0.13988838 -0.42495093 -0.31899598
0001f0 55 ea 4c 3e b6 84 46 3e ad 19 9b be cc 6e 1c be
       0.20011266 0.19386563 -0.30293027 -0.1527664
000200 38 7c ea be aa d4 86 3e 67 e3 d8 3e b6 0d 24 3e
       -0.45797896 0.26334125 0.42360994 0.16020855
000210 09 33 9b be 31 4d 84 3e 8a 28 d0 3e 38 43 cd bd
       -0.30312374 0.25840142 0.4065593 -0.100225866
000220 b2 77 a4 bd dd a1 2d 3e 01 13 81 3d 8e cd 25 be
       -0.080306426 0.16956277 0.06302453 -0.16191694
000230 23 dc e8 be 51 e1 af be b5 55 d9 3c c8 48 d7 bc
       -0.4548045 -0.3435159 0.026530126 -0.026279822

net.0.bias f4 [16]
000000 00 00 00 00 00 00 00 00 00 00 00 00 00 00 00 00
       0.0 0.0 0.0 0.0
000010 00 00 00 00 00 00 00 00 00 00 00 00 00 00 00 00
       0.0 0.0 0.0 0.0
000020 00 00 00 00 00 00 00 00 00 00 00 00 00 00 00 00
       0.0 0.0 0.0 0.0
000030 00 00 00 00 00 00 00 00 00 00 00 00 00 00 00 00
       0.0 0.0 0.0 0.0

net.2.weight f4 [16, 16]
000000 f4 12 b7 3e 75 cd 72 3c d2 56 e4 bd cb 9f d8 be
       0.35756648 0.014819493 -0.11149372 -0.42309412
000010 ee d6 cb be da 30 38 3e 8c 78 c5 3e 6c 49 d7 bb
       -0.39812416 0.17987385 0.38568532 -0.006570032
000020 74 28 c6 be 21 6d 1d 3e 4e 92 b4 3e 0a bc 92 be
       -0.38702738 0.1537366 0.35267872 -0.28659087
000030 aa 7b e9 bd 03 2b 15 3d d8 de 7c be 6f 92 cd be
       -0.1140054 0.036417972 -0.24694383 -0.40150782
000040 e3 1c 42 3e ae ec b5 be 94 98 de bd cc 70 6b be
       0.18956332 -0.35532135 -0.10868946 -0.22992247
000050 a5 ba a6 3e ee 39 ab 3d a6 a0 4d 3e 4d 21 96 be
       0.32564273 0.083606586 0.20080814 -0.2932228
000060 b0 d4 ba 3e 9e 07 1e 3d 84 ed 75 be cc 0c e8 bc
       0.36490393 0.038581483 -0.24016386 -0.028326415
000070 4c fa 9c be ee bc a3 bc ed 99 77 3e 6c 54 47 be
       -0.3065971 -0.01998755 0.24179812 -0.19465798
000080 2b 66 bb 3e 0a 62 07 3e db 2d 9b bd 9c 82 0a 3e
       0.36601385 0.13220993 -0.075771056 0.13526386
000090 6d 5f a3 bd de 1b ce bd 21 74 91 be 8f 2e 81 3e
       -0.079771854 -0.10063909 -0.28408912 0.25230834
0000a0 26 16 85 3e e5 d2 17 3e e7 1e 83 3e a5 7d dd 3e
       0.2599346 0.14826544 0.25609514 0.43259922
0000b0 e1 c1 d0 3e 86 f3 d5 be 0c 36 ca 3d 5e dc 17 bd
       0.40772918 -0.41787356 0.0987359 -0.037075393
0000c0 9c 8f 16 3e 9f fc ab bd 58 84 f7 3d d1 fc cb be
       0.1470322 -0.08397793 0.120857894 -0.3984132
0000d0 8a a9 4a 3e 33 ff d4 3e bd 7b 9f bd 17 59 b0 be
       0.19791237 0.41600952 -0.07787273 -0.3444297
0000e0 8a 4b b8 be d9 1f aa bd 6a a1 d6 bb dc cf 45 3d
       -0.35995132 -0.08306856 -0.006550004 0.048293933
0000f0 7a 89 5e 3d 3c fe a6 3e a7 e2 a0 bd 02 13 fd 3d
       0.054330327 0.3261584 -0.078557305 0.12357141
000100 73 a7 6b be c5 0d da 3e 40 27 2a 3e ca f9 75 bd
       -0.23013096 0.4258863 0.16616535 -0.06005267
000110 e3 bc 91 3e 97 f5 1c 3e 03 16 98 3d 07 e5 02 be
       0.28464422 0.1532806 0.074260734 -0.1278268
000120 ff 04 5f 3d 8b 9b fd 3c d6 87 81 be fa 09 cb 3b
       0.054448124 0.030957958 -0.25298947 0.0061962577
000130 2a a7 c1 3d 15 51 83 be 5f 68 9e 3d ec 2d 13 be
       0.09455712 -0.25647798 0.07734751 -0.14372987
000140 be 72 b8 be 71 c6 84 be 78 f4 af be 2a 3c cd 3d
       -0.3602504 -0.2593265 -0.34366202 0.10021241
000150 76 9d 87 3e 50 8e c9 3e 47 61 d9 3e 47 a5 2e 3e
       0.2648732 0.39366388 0.4245703 0.17055236
000160 9a de 58 3e b1 3b 97 bd e1 46 b7 3e a8 85 29 be
       0.21178666 -0.07384432 0.35796264 -0.16554892
000170 1a fb f0 bd ec 91 13 be 7a 9e 94 be fb dd aa be
       -0.11766644 -0.14411134 -0.29027158 -0.33372483
000180 2e c7 b4 bd 9c 2e b3 3e 6d e3 5c be 21 46 c9 be
       -0.08827053 0.34996498 -0.21571131 -0.39311317
000190 89 9e ca bd b2 e4 c8 3e 9f e4 d5 3d 23 39 e0 bc
       -0.098935194 0.3923698 0.10443997 -0.027370995
0001a0 2f 81 fd bd d2 a9 c2 3e 06 09 d5 be b2 40 7b 3e
       -0.123781554 0.38020188 -0.41608447 0.24536398
0001b0 93 c8 f0 3d a1 fa 8a 3e af 7f 80 be 4b 62 11 be
       0.117570065 0.2714434 -0.25097415 -0.14197652
0001c0 b9 57 3a be 84 1f d7 3e 0e 05 65 bd 55 67 d3 be
       -0.18197526 0.42016232 -0.055913024 -0.41289774
0001d0 42 55 5e 3e fb fb aa 3d 27 b3 72 3d af d7 93 be
       0.21712211 0.08348843 0.059252884 -0.2887549
0001e0 52 af cf be bf e3 c8 3e 4a f9 a6 be b4 83 a8 bd
       -0.40563446 0.39236256 -0.32612067 -0.082282454
0001f0 0e 89 a2 bd 82 3a 7d 3e 83 e7 ba be 17 c9 7d be
       -0.07936297 0.2472935 -0.36504754 -0.24783741
000200 a6 9d 6d be ea 92 5f be a6 a0 87 3e a8 b5 87 3e
       -0.2320467 -0.21833387 0.26489753 0.2650578
000210 84 24 49 3e f3 f8 b4 3e a5 72 93 be 58 60 e1 ba
       0.19642836 0.35346183 -0.28798404 -0.001719485
000220 d9 69 b3 be f1 3a 5e ba 62 7c bd be 45 89 d5 be
       -0.35041693 -0.0008477411 -0.3700896 -0.4170629
000230 02 a5 8b 3e 35 38 44 be ce 50 0d bd 83 b2 02 be
       0.27274328 -0.19162066 -0.03450089 -0.1276341
000240 f4 d7 af be 67 f1 30 bd 60 00 83 3d 6b 25 b1 3e
       -0.34344447 -0.04319897 0.06396556 0.3459886
000250 bc 9e 3c be 30 3c d3 3e 9f 4d 4d be 39 e9 8d 3e
       -0.18419927 0.41256857 -0.20049141 0.27716997
000260 53 a6 c1 3e e3 63 37 3d e1 48 18 be 7d ff a3 3e
       0.37822208 0.044772994 -0.14871551 0.3203086
000270 db 56 01 be d3 d2 3d be 84 93 1a be ee d1 b4 be
       -0.12630789 -0.18537454 -0.15095335 -0.35316414
000280 7a 3a 31 bd fa 5c b4 be 16 31 91 3e 8c 86 d5 be
       -0.04326866 -0.35227185 0.28357762 -0.41704214
000290 33 b5 a4 be e8 cd af 3d 1e 27 89 3e 8e 0b d4 3e
       -0.32169494 0.085841954 0.26787657 0.41415066
0002a0 cd ad b3 be 96 1f b6 3e 5a 58 9b 3e d7 70 91 be
       -0.35093537 0.35570973 0.30340844 -0.28406402
0002b0 8a dc 38 3e a9 75 f9 bd 23 44 ff 3d a6 44 c4 be
       0.18052879 -0.12180645 0.12464168 -0.38333625
0002c0 95 97 7e be c6 8d 8c be 46 f1 ac bd 68 0b 81 bc
       -0.24862511 -0.27451915 -0.08444457 -0.01575251
0002d0 36 aa 18 bc 20 f8 82 be 44 00 5b 3e 34 3f 61 3e
       -0.009317925 -0.2557993 0.2138682 0.21996766
0002e0 68 7b c2 be 1b 80 cd be a5 8f be bd af b0 f6 3d
       -0.37984776 -0.401368 -0.09304742 0.120454185
0002f0 35 dc a8 be d0 53 23 bd b0 52 c9 3c 6f 67 a9 be
       -0.32980505 -0.03987485 0.024575561 -0.33086726
000300 ac 9b cf 3e bd 91 a0 3e 4a 56 a9 3e 00 cf 34 be
       0.40548456 0.3136119 0.33073646 -0.17657089
000310 2d 74 9e be a1 c7 59 3d d1 ac 81 3e 40 e9 58 3e
       -0.3094801 0.053168897 0.2532716 0.21182728
000320 96 d4 8f be 7f 0b ae 3e ce 35 52 be 36 09 9b bd
       -0.28091878 0.33993146 -0.20528337 -0.07570116
000330 7d a6 f8 bd 19 1b 53 3e 14 db ce be 20 2c 8d be
       -0.1214113 0.20615806 -0.40401518 -0.27572727
000340 ec 9c 56 bd 09 9c 98 3e df 85 d5 bd de 19 8b 3e
       -0.052395746 0.29806545 -0.104259245 0.27168173
000350 e8 07 cb 3e 2a 4e 85 3c f0 52 95 be ac df 1d 3b
       0.3965447 0.016272623 -0.2916484 0.0024089618
000360 c7 85 2c 3e df dc bc bd 68 76 d8 be c4 f1 83 3e
       0.16847907 -0.09221815 -0.42277837 0.2577039
000370 ce 3b 41 be 08 10 9b be 36 fa 61 3e 5d 75 d5 3d
       -0.1887047 -0.30285668 0.22068104 0.10422776
000380 09 87 a1 3e fa 15 b3 bd 73 17 89 3e b9 91 d2 bd
       0.31548336 -0.08744426 0.26775703 -0.10281701
000390 e8 a6 89 be d2 a9 cc 3e 90 22 da 3e 13 00 9e 3e
       -0.26885152 0.39973313 0.42604494 0.30859432
0003a0 6d 84 f7 bd 19 76 41 be 30 c7 9c 3d 6a 38 5f 3e
       -0.12085805 -0.18892707 0.076551795 0.21798864
0003b0 9d 50 62 3d 7b b2 3a 3e e6 65 a9 bc b9 7e 7b 3e
       0.05525266 0.18232147 -0.020678472 0.2456006
0003c0 b4 59 52 3e 7b 90 7c 3e 8e cb 04 bd 79 76 b6 be
       0.20542032 0.2466449 -0.032420687 -0.35637262
0003d0 4a 0c 8b be 5a 4d 5d be b7 7e bb 3e f4 db b2 bc
       -0.27157813 -0.21611539 0.36620113 -0.021833397
0003e0 78 30 6e bd bb f9 2c be 4a f4 94 bc f9 6e 95 3e
       -0.058151692 -0.1689214 -0.018182892 0.29186228
0003f0 42 91 c9 38 65 de 4d 3e 87 ea 7d 3e 6d ed d7 be
       9.611483e-05 0.20104368 0.24796496 -0.4217333

net.2.bias f4 [16]
000000 00 00 00 00 00 00 00 00 00 00 00 00 00 00 00 00
       0.0 0.0 0.0 0.0
000010 00 00 00 00 00 00 00 00 00 00 00 00 00 00 00 00
       0.0 0.0 0.0 0.0
000020 00 00 00 00 00 00 00 00 00 00 00 00 00 00 00 00
       0.0 0.0 0.0 0.0
000030 00 00 00 00 00 00 00 00 00 00 00 00 00 00 00 00
       0.0 0.0 0.0 0.0

net.4.weight f4 [2, 16]
000000 ec c1 4e 3e 01 ae 13 3f 09 ca 95 be 75 1f c0 3d
       0.20191163 0.57687384 -0.29255703 0.09381
000010 b8 bb 54 3c bf 3f 9c 3e 86 70 0e 3e 65 15 de be
       0.012984209 0.30517384 0.13910112 -0.43375698
000020 f2 cd dc be 38 67 fc 3e 5f d2 7e be 63 e7 01 bf
       -0.43125874 0.492975 -0.24884938 -0.50743693
000030 06 a5 04 bf 3a 96 00 bf 8f fc 06 3e 9f b0 88 3d
       -0.51814306 -0.5022923 0.13182281 0.06674313
000040 97 99 ab be c1 8e 05 be cf d7 b8 3d e6 5b 57 3e
       -0.33515617 -0.13042738 0.09025537 0.2103115
000050 03 60 71 3e 2d 21 9f be 77 46 0b 3f 35 12 0a 3f
       0.23571782 -0.3108 0.54404396 0.5393403
000060 b8 ed d1 be 7e ff 08 3f 16 2a f2 be 03 1a c3 be
       -0.41001678 0.5351485 -0.47297734 -0.38105783
000070 c1 72 e9 3d 5b 63 2d 3e e6 6c 03 3f 3b 75 3e 3b
       0.11398841 0.16932432 0.5133804 0.0029061574

net.4.bias f4 [2]
000000 00 00 00 00 00 00 00 00
       0.0 0.0
