results/de/protein.data|16-16|tanh|wd0.01|bs32|noval|1|/stdict_2.pt (torch, 4562 bytes, 6 tensors)

net.0.weight f4 [16, 9]
00000000: b95c f1be 595a 913e ebc6 b8bd 609c 743e
00000010: 1ae3 6c3d 74aa 8fbd 4f55 003e 233f 703c
00000020: 89f8 413e 43a5 4dbe 4245 38bd bdde 0abd
00000030: c31b 793d 503a 43bc 0c10 d63e 9ac9 113e
00000040: bfaa 44be b03f 92be e721 aabd 8f0b 56be
00000050: adac 19be 673b a53c 337b 943e 6316 873e
00000060: 9d3a f4be 4bfd 993e 9bb9 103e a688 e83e
00000070: fb5f a03e f32a e1be c1d9 f3be abbe 7cbe
00000080: d3e1 d63e 0f0f bcbd 89af 523e de4b 5ebe
00000090: 3ce0 f03e 445e 58be 076d c13e 752d 91bb
000000a0: 553f 89be ba53 773e 3c40 89be 1e0f 0a3e
000000b0: d069 06be 7ef7 33bd 328f ecbe 09a5 77be
000000c0: 8146 8d3e 3bd0 dfbd 09dc fe3e a6ed cc3e
000000d0: ce39 63bc 0e89 acbe c77f 933e 5c01 143e
000000e0: 713c 9dbe 5e9c 9d3e 2505 933e 292b d93e
000000f0: 2800 91be 6d84 b3bd 7814 a9b8 10ff 7f3d
00000100: c638 c2be 93e9 adbe 6486 833e 5a96 fdbd
00000110: 444a 6b3e ae23 9d3c 8cdf 1b3e 8d43 ef3d
00000120: 6ef8 2b3e 9851 6e3e 4bfb e2be 7c06 723e
00000130: f793 b5be 3063 c2be 6fd3 9f3c 92cf bdbd
00000140: 29a2 983e b23e 96be 472e e3be 2605 bb3e
00000150: a86c a9bd 9707 883e f2f1 163e 3ac9 c0be
00000160: 2bd3 b53d 5b83 023e 2bb7 a2be ae40 66be
00000170: b1d8 203e 2dd3 c83d 22ec 4abe 7e53 0dbe
00000180: 3286 e93e 510b a7bd 3726 883e 9f9c 633e
00000190: ce2a 9dbe 95a8 dabe ea0a f63e f996 123d
000001a0: 2c1e b13e 8177 e43d e9fc 273e 7004 b63e
000001b0: ce1f e93e 2ba4 a6be cdde 8d3d 4b56 b63e
000001c0: 9115 b13e 4de9 963e 03aa b6be ae68 b9be
000001d0: 8c25 93be b8cc 913d d91c fe3e f26a a3be
000001e0: 46b8 8a3e b5dd 85be 25be e6be 12f4 c3bd
000001f0: 5c30 953e cebc e33e a879 96be a29a e93d
00000200: 2002 d33e 327f ab3e 1996 a13e 4777 b73e
00000210: 3bc8 a33e 6459 093e e087 b0be 6e27 cdbe
00000220: 1a58 5bbe 1a8b 89bd 3648 94be 9280 423e
00000230: 8f1a 263e 481c cdbd 1707 4a3e f52b 173e
-0.47141054 0.28389242 -0.090223156 0.23887777 0.05783377 -0.07014933 0.12532543 0.0146634905
0.18942465 -0.20082574 -0.044987924 -0.033903826 0.06081749 -0.011915758 0.41809118 0.14237061
-0.1920576 -0.28564215 -0.083072476 -0.20902847 -0.15007277 0.020169927 0.29000244 0.26384267
-0.47700968 0.3007606 0.14133303 0.45416754 0.31323227 -0.4397808 -0.4762707 -0.24682109
0.41969165 -0.0918256 0.20574774 -0.21708629 0.47046077 -0.2112971 0.37778494 -0.0044304677
-0.2680613 0.24153033 -0.2680682 0.13482329 -0.13126302 -0.0439372 -0.46203 -0.2418405
0.27592853 -0.10928389 0.49777249 0.4002506 -0.013868762 -0.33698314 0.28808424 0.14453644
-0.30710176 0.3078336 0.28714862 0.4241574 -0.28320432 -0.087654926 -8.0623606e-05 0.062499106
-0.3793394 -0.33967265 0.2568847 -0.12382193 0.22977549 0.019182052 0.15221995 0.11682806
0.16793987 0.23273313 -0.44332346 0.23635286 -0.3546445 -0.379663 0.01951 -0.092681065
0.29811218 -0.29344708 -0.44371244 0.36527365 -0.08272678 0.2656829 0.14740732 -0.37653524
0.08878168 0.1274542 -0.3178037 -0.22485611 0.15707661 0.098059036 -0.1981664 -0.13801381
0.45610195 -0.08156455 0.26591656 0.22227715 -0.3069672 -0.42706743 0.48055202 0.03578851
0.34593332 0.11155606 0.16405071 0.3555026 0.45532078 -0.32547125 0.069272615 0.3561271
0.34586766 0.2947487 -0.35676584 -0.36212677 -0.28739583 0.07119125 0.49631384 -0.3191753
0.27093714 -0.26145712 -0.45066944 -0.09568037 0.29138458 0.44479984 -0.2938969 0.11406447
0.4121256 0.3349548 0.31559828 0.3583319 0.319887 0.13413006 -0.34478664 -0.40069145
-0.21420327 -0.06715985 -0.28961343 0.18994358 0.16221069 -0.1001516 0.19729267 0.14762862

net.0.bias f4 [16]
00000000: 64a4 15bc 3109 a1ba beac f73b 48c5 0bbc
00000010: bacf 1dbb 7f40 bdb9 eb4d dabb 72c4 903b
00000020: 70f6 11bc 1fc5 763b e9ea e338 5862 0c3c
00000030: 8660 fb3b fde9 4dbb 5508 673b 4084 103c
-0.009133432 -0.0012286064 0.0075584343 -0.008530922 -0.0024080114 -0.00036096942 -0.0066621206 0.0044179494
-0.008908853 0.0037654114 0.00010867959 0.008568369 0.0076714186 -0.0031419985 0.003525277 0.008820593

net.2.weight f4 [16, 16]
00000000: afaf 863e c4e5 913e 38d8 0ebe 8471 d73e
00000010: 420e 6cbd bf84 60bc d7ea d0be 522c 8cbe
00000020: e8ff 79be 6b6f 38be 4872 9d3e ad6c 11be
00000030: da4a a5be 0280 313e d82c 043e 48da 933e
00000040: 540f 70be e6eb d53d d1a3 17be c79f b1bd
00000050: 1bde abbe 1f27 3fbe b1d6 f9bd a43e 483e
00000060: 36e6 8d3d a124 c53d 61dd d73e e97c dd3e
00000070: 4da7 9c3e 8a14 6c3b 8bf1 93be 63d9 a73e
00000080: 3961 f2bd b86a c9bc f733 babe 5cf6 99bd
00000090: 8717 8abe 8720 d13e 1f51 babe b37a a7be
000000a0: e026 cabc e084 7abe 5e0c 143e 36e6 1fbe
000000b0: 1b95 45be 9697 6a3c f4cf a53e 273c a1be
000000c0: a369 453e cebd 933e 5768 dd3e e7e0 95be
000000d0: fff3 e93d 2a87 9ebe 51a3 c23e c78a 21be
000000e0: 1c7e 803e de63 1d3b 75a5 34bd 0339 5fbb
000000f0: 873b ac3d a58a 463e 8a84 a33d 9e56 f93d
00000100: 6e3a c2be 662a 9c3e 117e bc3e eef6 b13e
00000110: dcfa 9e3e ea5a a5be 5eea 2ebe a92d be3e
00000120: 36ae a3be ec75 ce3e a916 a9be 7f7c a1be
00000130: de2e 4e3e 0afa 99be 1596 e0bd 0594 a63e
00000140: c63f aa3e d0ef d63e c8a9 a3bd 1f0a a7be
00000150: 0e1b df3e 8474 a7bd abb6 2bbe ce8c eb3d
00000160: 032f a0be d361 8c3e 279c 853e a2ae aabe
00000170: 5db4 b0be ea9c 45bd 5cf0 443e e58c bbbc
00000180: a7fc 60be 0f8a 8a3c 4db6 cbbe e430 98be
00000190: 3275 93be 349e ba3e cd78 c73e ae2c 0dbe
000001a0: a251 dd3c 6b96 3f3e 6734 313d e027 55be
000001b0: 401f 843e 4d60 883e a9bf bcbc 0691 67bd
000001c0: 83c2 ce3e 1d76 bc3e fb2f 82be 1999 d33e
000001d0: 2014 c83d b6a9 98be 64f4 673e aca6 aabe
000001e0: d5d9 d13e c525 89be d612 083e 72c6 f83d
000001f0: 9d55 bd3d d114 bd3e add9 42be 758d 30be
00000200: 50a0 bbbe 783e debc 81af 59be 45ad fa3b
00000210: 5aa1 c6bd 5ad8 083e 2eaf ba3e 0d64 f23d
00000220: eb7b 0bbe 65c2 50be 3048 bcbe b774 b53e
00000230: 9f2d bcbd 8e27 c13d 1c99 043c add3 88be
00000240: f5a0 703e 9f6c 813e 2fff f73c cb90 71be
00000250: 596c 33be 9fb8 853c 3bde 72be 2c36 6dbe
00000260: ec15 85bd fcb4 09be 08df c43d ac2f d4bd
00000270: 8e35 41bd 57a8 32be 9e9c c5be 9c42 bc3e
00000280: 8334 bd3d e0e3 c03e 0ec1 a0bd a9fc f3bd
00000290: 0915 d5be a11e 33be a20d 8c3e c050 debe
000002a0: 19d4 10be b96d 8c3e e20c 853e 5e06 193e
000002b0: d1d2 c4bd 4d1d b8bc 36c6 bdbd 6bd6 18be
000002c0: f7ad 433e 75af 21be b014 81be ddea b33d
000002d0: d402 a5be f0e2 d2bd d8d4 573e 4b41 1b3e
000002e0: 18c2 c13e e6cf 91be d345 683c 7c9a 0dbe
000002f0: 0661 81be 6deb 6ebe d204 ca3d 191a 643d
00000300: 091d 6cbe 93f4 96be 7700 b3be 9984 de3e
00000310: 2af2 83bd 638d b7bd bf75 18be 323b 53be
00000320: b7bc cfbe 737e 87be e641 823e d4bc d73d
00000330: 0fd4 11be 14e5 31be 27e8 923e 8b8b 9a3e
00000340: 72b4 d93e 8cbf ed3d cdc0 4c3e 6adb 37bd
00000350: 77fa 85be bf7b debe e8d6 813e 27bd 95bd
00000360: 7ecc 3e3e 650f 013d 19be c9be c00a 64be
00000370: 62ac e43d ba69 9fbd 1a40 dbbe f8c2 253e
00000380: f548 d13b 26e2 03be 1f11 3c3e db42 d03d
00000390: 60d9 19be 508b cc3e bc15 693e ad21 843d
000003a0: 136d bebd 8d1f c1be 86e2 a53e 758d cfbd
000003b0: 77f0 89be 06e3 883e 3918 283e 5e60 c63d
000003c0: 6d15 b3bd d3a1 04be 1eca a53d 7bee ae3e
000003d0: 147b 6c3d a99a 49be 03d8 df3e 8292 913c
000003e0: 4916 b33e 7041 d13d d7aa c23e db9e 833e
000003f0: 18ea 59be 43c5 9d3e 6279 d83a a48a b1be
0.2630591 0.2849561 -0.13949668 0.42078793 -0.057630785 -0.013703524 -0.4080417 -0.27377564
-0.24414027 -0.18011253 0.30751252 -0.14201613 -0.3228367 0.17333987 0.12907732 0.28877473
-0.23443347 0.10445385 -0.14808585 -0.08673053 -0.3356789 -0.18667267 -0.12199152 0.19555146
0.06928675 0.09626127 0.42161086 0.4325936 0.3059639 0.0036022984 -0.2889522 0.3278304
-0.1183495 -0.02458702 -0.3636777 -0.075176924 -0.26971075 0.4084513 -0.36390015 -0.327108
-0.02467674 -0.2446475 0.14457843 -0.15615162 -0.1929516 0.0143183675 0.32385218 -0.31491205
0.19278578 0.28855747 0.43243667 -0.2927315 0.11423492 -0.30962497 0.38015226 -0.15775596
0.25096214 0.0024015824 -0.044103105 -0.0034061081 0.084097914 0.19388826 0.07984264 0.12174724
-0.37935203 0.30501097 0.3681493 0.34758705 0.31050766 -0.32295924 -0.17081591 0.3714421
-0.3196885 0.40324342 -0.330251 -0.31540295 0.20135066 -0.30073577 -0.10966126 0.32534805
0.3325178 0.41979837 -0.079913676 -0.3262491 0.4357533 -0.081765205 -0.16768901 0.11501466
-0.31285867 0.27418384 0.26095697 -0.3333636 -0.34512606 -0.048245348 0.19232315 -0.022894332
-0.21971379 0.016911535 -0.39787522 -0.297248 -0.2880035 0.36448824 0.3895935 -0.13786575
0.027016465 0.18709724 0.043262865 -0.20815992 0.25805092 0.26635972 -0.02304061 -0.05653479
0.40382776 0.36808863 -0.2542723 0.41327742 0.097694635 -0.2981698 0.22651821 -0.33330286
0.40986505 -0.26786628 0.13288435 0.121472254 0.09244845 0.36929944 -0.19028349 -0.17241462
-0.36645746 -0.027129397 -0.21258356 0.00765005 -0.09698744 0.13363782 0.36461776 0.118354894
-0.1362149 -0.20386656 -0.36773825 0.3544061 -0.09188389 0.094313726 0.008093145 -0.26723996
0.234989 0.25278184 0.030273048 -0.2359039 -0.175218 0.016323386 -0.23717587 -0.23165196
-0.06498322 -0.13447946 0.09612852 -0.10360655 -0.047170214 -0.17447029 -0.38596052 0.3676957
0.092385314 0.37673855 -0.07849322 -0.119134255 -0.4161761 -0.17492153 0.2735415 -0.43420982
-0.14143409 0.27427462 0.2598639 0.14943835 -0.096105225 -0.02247491 -0.09266321 -0.14925544
0.19109331 -0.15789588 -0.25211096 0.08785031 -0.3222872 -0.10297191 0.21077287 0.15161626
0.37843394 -0.28478926 0.014176804 -0.13828462 -0.25269336 -0.23331995 0.09864201 0.05568895
-0.23057951 -0.2948347 -0.34961292 0.4346054 -0.064426735 -0.08962514 -0.14888667 -0.2062805
-0.40573665 -0.2646366 0.25440902 0.10534063 -0.1424105 -0.17372543 0.28692743 0.30184588
0.4252048 0.116088 0.19995423 -0.044886984 -0.26167652 -0.43453786 0.25359273 -0.073114686
0.18632695 0.031508822 -0.39402846 -0.22269726 0.11165692 -0.077838376 -0.42822343 0.16187656
0.006386871 -0.12879238 0.18365906 0.10169002 -0.15024328 0.39950037 0.22762197 0.06451736
-0.09298148 -0.37719384 0.32399386 -0.10134403 -0.26941273 0.26735705 0.1641549 0.09686349
-0.08744321 -0.12952356 0.080951914 0.3416632 0.057734564 -0.19687904 0.4371949 0.017770056
0.3497794 0.10217559 0.38020965 0.25707135 -0.21280706 0.3081456 0.0016515667 -0.34676087

net.2.bias f4 [16]
00000000: 867f 03bc b20a 163c 6a8b 143c b71d 143c
00000010: 2629 96bb 26b5 0c3c 9bea fdbb c6b9 14bc
00000020: 2efc b43b 17dc c3ba ef7d 0bbc dbc2 13bc
00000030: 309f 103c fd08 353a 4bed 153c 807a f1bb
-0.008026009 0.009157823 0.009066442 0.009040288 -0.004582542 0.008588111 -0.0077489144 -0.009077495
0.005523226 -0.0014942911 -0.008513912 -0.009018625 0.008827016 0.00069059414 0.009150813 -0.0073693395

net.4.weight f4 [2, 16]
00000000: 29df e2bd 52e0 02bf e8a4 94be 1c3a d4be
00000010: 55de c53e 917a e3bd 335f dfbd 7ea3 883e
00000020: 5008 663e 8ed3 bdbe a93c 643e 5cd8 813e
00000030: bd34 e6be f52d 033f 2214 b9be 5179 70be
00000040: 5914 f8be 017c 043f f72e e33d 6dc4 f53e
00000050: 8f42 393d 6116 9c3e 8505 3ebe a5be e8be
00000060: 5889 d23d 7af4 7cbd d5b9 88bd eb36 94be
00000070: 77e0 823c aca7 1f3e 50e5 583e d6e4 eebe
-0.11077721 -0.51123536 -0.29032063 -0.41450584 0.38646188 -0.11107362 -0.1090683 0.26687235
0.22464108 -0.37075466 0.22288765 0.25360382 -0.4496211 0.51242 -0.36148173 -0.23483779
-0.48453024 0.51751715 0.11092942 0.48001423 0.04522949 0.30485824 -0.18556793 -0.4545795
0.102801025 -0.06175659 -0.0667607 -0.2894815 0.015976174 0.15591305 0.21181226 -0.46658963

net.4.bias f4 [2]
00000000: 16ac f9bb cff2 0c3c
-0.007619391 0.008602812
