results/de/protein.data|16-16|tanh|wd0.01|bs32|noval|1|/stdict_4.pt (torch, 4562 bytes, 6 tensors)

net.0.weight f4 [16, 9]
000000 9c 8b e8 bc 8f 0e de be a0 01 87 3e 50 46 74 3e
       -0.028386883 -0.43370482 0.26368427 0.23854947
000010 3b 07 b8 3d 4d 4c c2 3e ea 69 50 bd be be 94 3e
       0.08985754 0.37948838 -0.050882258 0.29051775
000020 94 74 af be 50 68 c5 bd 81 86 df be 73 50 23 bd
       -0.3426863 -0.09639037 -0.43657306 -0.039871644
000030 d0 e0 a2 be 80 5b e1 3e 44 23 ae 3e ed 3b bc 3e
       -0.31812143 0.4401512 0.3401128 0.3676447
000040 68 33 15 3e a2 1e 8f be 86 96 e1 3e 74 56 f3 be
       0.14570391 -0.27953058 0.44060153 -0.47526896
000050 78 ba 9e be ff 9f 9c be 27 3b 4d be 39 8b c8 3d
       -0.3100164 -0.30590817 -0.20042096 0.097921796
000060 c6 84 bc be 82 c0 bf be 7d 42 70 be 12 0f 98 3e
       -0.36820048 -0.3745156 -0.23462863 0.29698998
000070 3e 65 b3 be 5a 83 df be 0a fc d9 be 67 c7 74 be
       -0.3503818 -0.436549 -0.42575103 -0.23904191
000080 b2 22 05 be 5b 43 f7 be ec d8 67 be 30 b8 1b 3c
       -0.13001516 -0.48293576 -0.22641343 0.009504363
000090 12 cb a8 3d aa 14 8c bd 63 3c 58 bd aa c4 a1 be
       0.082418576 -0.06839879 -0.052791964 -0.31595355
0000a0 6d 4c 81 3e 34 bf ec bd d0 87 aa be d7 32 ee bd
       0.2525362 -0.115599066 -0.33306742 -0.11630791
0000b0 43 e2 8f bd 61 0e e8 3e eb 9f 82 3e 9f ca 4c be
       -0.07025578 0.4532347 0.25512633 -0.19999169
0000c0 bb a5 89 bd d7 e0 dd 3e 30 a7 a1 3e ed 8e f6 3d
       -0.06721064 0.43335602 0.31572866 0.1203898
0000d0 d4 9a 33 be c9 9f cf 3e 37 d0 56 3e f6 39 5f be
       -0.17539531 0.40551594 0.20977865 -0.21799454
0000e0 2f e0 b1 3e d8 b6 0c 3d 4c 5d b9 be 1b 5b 5e be
       0.3474135 0.03435406 -0.36203992 -0.21714441
0000f0 58 80 ba be d3 87 cf be e0 2e 42 3c 29 1a b5 be
       -0.36426044 -0.40533313 0.011851996 -0.3537152
000100 77 46 84 3e 91 ad 5d 3e 9b a9 d6 3d 91 47 cd 3e
       0.2583501 0.21648242 0.104815684 0.40093663
000110 98 26 64 be e1 d0 94 3b 98 a1 98 3e b3 fe 2d 3e
       -0.22280347 0.004541502 0.29810786 0.16991691
000120 5e 4a 6e 3d be 40 d1 3e 31 da e4 3d 82 ad a7 3e
       0.05817639 0.40869707 0.11174429 0.32749563
000130 32 54 d8 be 0c 56 d8 be 11 1d e1 be 8a bb e4 3c
       -0.42251736 -0.4225315 -0.43967488 0.027921457
000140 56 0f d5 3e de 13 da be 88 9f 4a 3e 30 e4 db be
       0.41613263 -0.42593282 0.19787419 -0.4294753
000150 0a 19 a6 be 50 cf 29 be 5a 61 4a be 4d 7f 15 3e
       -0.32440978 -0.1658299 -0.19763699 0.14599343
000160 72 cd d0 be 2b 8e f6 3e ca 48 91 3d 69 55 2e 3e
       -0.40781742 0.4815534 0.070939615 0.17024769
000170 db a0 aa be 94 4c 8a 3e bf 42 eb bd d4 e0 79 be
       -0.33325848 0.2701155 -0.1148734 -0.24402171
000180 3d 27 a5 3d fe 01 4e 3e 84 4d 56 3d 05 d2 2f be
       0.08064125 0.20117947 0.05232002 -0.1716996
000190 bc 67 b5 3d 49 91 44 be 46 94 29 be 08 b7 3a be
       0.088576764 -0.19196047 -0.16560468 -0.18233883
0001a0 ee 5a 95 3e 30 9f af be 3e 1c 57 3e fc 09 82 3e
       0.29170936 -0.34301138 0.21006867 0.25398242
0001b0 ec f0 a6 be b9 e0 bf be 68 57 a8 be 9a 4e d4 be
       -0.32605684 -0.37476137 -0.32879186 -0.41466218
0001c0 71 3c d1 3e d9 de dc 3e e0 b7 91 bd 2f c2 e9 3e
       0.40866426 0.4313877 -0.071151495 0.45655963
0001d0 a7 85 0e 3e fb 1c f5 be 97 f1 e6 be 58 b3 72 be
       0.13918172 -0.47873673 -0.45106193 -0.23701227
0001e0 1d d9 f8 be 14 28 69 be b6 bc 04 3e d9 04 65 bc
       -0.48603144 -0.22769195 0.12962613 -0.013978207
0001f0 e8 c4 c0 bd 41 e0 f9 3c 8b 73 e5 3e 54 52 c0 3b
       -0.09412557 0.03050244 0.44814715 0.0058691893
000200 99 af 7e 3e 98 64 f2 bd 58 f1 bb be 36 52 c4 3d
       0.24871673 -0.11835593 -0.36707568 0.09585993
000210 5b db 69 3e df 49 93 3e 38 fd eb be c0 c1 80 bd
       0.22837584 0.28767297 -0.46091628 -0.06286955
000220 86 0a f1 be 7c 07 c7 3b 36 6f c7 3c 26 27 25 3e
       -0.4707834 0.0060738903 0.024345022 0.16128215
000230 6b b7 29 be 44 e0 8f bd cb 3e f6 3d e5 84 f3 be
       -0.16573875 -0.07025197 0.120236956 -0.47562328

net.0.bias f4 [16]
000000 9e e5 19 3b 29 fa 10 bb 69 a6 2d bb 07 a2 d5 ba
       0.002348281 -0.0022121763 -0.0026496893 -0.0016298898
000010 d3 69 87 39 73 09 a6 3a ca d9 16 bb 65 0a 44 3b
       0.00025828052 0.0012667611 -0.0023017996 0.0029913422
000020 de de ac ba 0f 44 d5 ba b6 49 40 3b 4c 67 06 3b
       -0.0013188978 -0.0016270893 0.002934081 0.0020508347
000030 67 f2 28 3b 6d 8e 09 3b d3 8e 26 bb 09 d9 44 3a
       0.0025779249 0.0020989433 -0.002541472 0.00075091474

net.2.weight f4 [16, 16]
000000 27 d0 5c 3e 1a ab d7 3e d0 34 9f be ca c8 d6 3e
       0.21563779 0.42122728 -0.3109498 0.41950065
000010 42 04 81 3d 33 b4 dc 3e af bb c0 3e 9e 61 bc be
       0.0629964 0.4310623 0.3764319 -0.36793226
000020 5b a0 a6 3e a0 03 46 3c 9c 34 e3 3d a1 90 23 be
       0.32544217 0.012085825 0.11094019 -0.1597314
000030 3d 9e b1 be f6 7b 1e 3d 94 4a fc 3d 33 6a 5c 3e
       -0.3469104 0.038692437 0.12318912 0.21524887
000040 31 fc ba be 21 ce d6 be e5 41 55 3e 68 eb ac bd
       -0.36520532 -0.4195414 0.20825918 -0.08443338
000050 e9 67 74 bb 7e e2 e9 bd 83 78 1a 3b 59 4a 8e 3d
       -0.003729338 -0.11420153 0.0023570366 0.069477744
000060 f2 b5 cb be 07 a7 25 3e 96 8d 3f 3d 3d 45 4f 3e
       -0.3978725 0.16176997 0.046765886 0.20241256
000070 36 f0 61 be 9c 60 a2 3e 9f c2 92 3e 9c c1 5b be
       -0.2206429 0.31714332 0.2866411 -0.21460575
000080 c2 28 c2 3e a8 32 63 3d de aa c3 3e f5 66 c9 3e
       0.3792172 0.05546823 0.382163 0.39336362
000090 2c 3b 8a 3d 5d e9 8f 3d ab e9 0a 3e 99 40 8e 3e
       0.067495674 0.070269324 0.135657 0.2778366
0000a0 07 52 ca be 41 6e 29 3b 23 68 d2 3e 3b 8e 9c be
       -0.39515707 0.002585307 0.41095075 -0.30577263
0000b0 f1 51 7b be f9 dc 38 3d a5 3c 20 3e a3 8e 6b 3e
       -0.24542977 0.04513261 0.15648134 0.2300363
0000c0 de ee b0 3c a9 80 cb 3d ed f3 45 be b5 7f d3 3e
       0.021598276 0.09936649 -0.19331332 0.4130837
0000d0 22 a1 90 be a2 b8 8e 3e 45 a0 73 3e 20 22 c0 3e
       -0.28247935 0.2787524 0.23791607 0.37526035
0000e0 27 19 c6 3e 01 33 10 be 70 84 9d 3e 4b 61 a0 be
       0.38691065 -0.14081956 0.30765104 -0.3132423
0000f0 b1 b6 9a 3e 0c ff 86 be 32 26 98 be 99 a3 94 be
       0.30217507 -0.2636646 -0.2971664 -0.29031065
000100 d3 5a d6 3e f8 70 02 3e c6 0d 99 be 73 e7 a4 be
       0.41866168 0.12738407 -0.2989332 -0.32207832
000110 c0 71 42 3d f5 c3 bf bd 4e 6e ec 3d bd 12 8a 3e
       0.04747176 -0.09363548 0.115444764 0.2696742
000120 2c 10 8c be aa f3 c7 be 67 6a 3d 3d d6 f8 93 3e
       -0.27356088 -0.39053088 0.04624405 0.28900784
000130 07 cb 86 3e d7 9e 64 bb 7e 17 f2 bd 2b 4c 10 3e
       0.26326773 -0.0034884715 -0.11820887 0.14091556
000140 6b 2d 9a 3e 0e 12 bf be ff 06 27 bd 01 a2 a7 3e
       0.30112776 -0.37318462 -0.040778156 0.32740787
000150 93 96 aa 3e 79 3a cd 3e 38 73 2b 3e 7e b6 da 3e
       0.33318004 0.40083674 0.16743171 0.42717355
000160 b9 42 d6 be 39 d8 a7 3d fe 70 7e 3d cc bf 98 3e
       -0.4184778 0.08195538 0.062119476 0.2983383
000170 16 3f ac 3d c7 01 8e 3e 78 94 c2 be 86 d3 38 bd
       0.0841047 0.2773573 -0.38003898 -0.0451236
000180 7a e8 28 3e 18 89 8f 3e 1d 5d cc 3d d3 d5 8d 3e
       0.16494933 0.28034282 0.099786974 0.27702197
000190 a4 45 0d be f5 ce 0d bd 89 97 ce 3e aa 44 95 3e
       -0.13796097 -0.034621198 0.40349987 0.2915395
0001a0 0e 60 9b 3e 77 86 c1 be 1e 0a 92 bb c6 ef c0 be
       0.3034672 -0.377979 -0.0044567725 -0.37682933
0001b0 e0 2f c9 3e b8 13 b2 3e 31 69 7a 3e 8a 11 89 be
       0.39294338 0.3478067 0.2445419 -0.26771194
0001c0 41 06 7a be 29 69 90 be 11 2d 21 3e cf 4a b4 3e
       -0.24416448 -0.2820523 0.15739848 0.35213324
0001d0 2d b4 72 bd 5e 8b cf be 36 fe c7 bd cc 2e 62 3d
       -0.05925386 -0.40536016 -0.09765284 0.05522041
0001e0 1e 6d ce 3c 7b 1c 6e 3e e9 ac 01 3e 99 1b f3 bd
       0.025198516 0.23253052 0.12663616 -0.11870498
0001f0 62 d9 9c be d9 e6 34 bc d5 b1 4c be 69 a7 b1 be
       -0.306346 -0.0110413665 -0.19989713 -0.34698036
000200 f3 70 79 be d5 4f ca be 57 10 3f 3d 41 26 ee bd
       -0.24359493 -0.39514032 0.046646442 -0.1162839
000210 b8 78 7f be 7d 3d a7 3d 49 85 07 bd 4c 39 95 be
       -0.24948394 0.08166025 -0.033086095 -0.29145277
000220 7f be 3e 3e 3f 20 d7 be f3 51 14 bd 3c 28 a8 3e
       0.18627356 -0.4201679 -0.036210965 0.32843196
000230 aa 8c b4 3e a3 ba 6a 3e 11 98 a7 bd 4b d3 c2 3d
       0.35263568 0.22922759 -0.08183301 0.09512957
000240 8d ad 9a be b9 a6 57 bc 94 1b bf 3e 95 df 3a be
       -0.30210534 -0.013162308 0.37325728 -0.18249352
000250 b7 46 cf be 9c f0 b5 3e 04 15 34 3e 2b f1 99 3e
       -0.4048364 0.35535133 0.17586142 0.3006681
000260 82 2d 10 be 8d d2 39 be 35 df 9c bd be 09 05 be
       -0.1407986 -0.18146725 -0.07659761 -0.12991998
000270 bc 3b 70 3d a4 ce c9 bd 53 fc fb bd d3 21 9c be
       0.058650717 -0.09853867 -0.123039864 -0.30494556
000280 16 36 26 be 2c ea 97 be b4 94 f6 3c 52 3a 82 3e
       -0.1623157 -0.29670846 0.030100204 0.2543512
000290 43 0d 50 3e 4f 95 a1 3d df 02 a3 be 34 f7 54 bd
       0.20317559 0.078898065 -0.31838128 -0.051993564
0002a0 b6 f6 f9 bc 7d bb a3 3e d1 66 97 3d c1 da 85 3e
       -0.030513149 0.3197898 0.073926575 0.26143458
0002b0 d9 6e be 3e 2e 7b 56 bd a5 f2 b1 be 2b e7 a8 be
       0.37193945 -0.052363567 -0.34755436 -0.32988867
0002c0 b6 7e ae 3e 45 44 37 be 1a 43 93 3c 7f 5c 23 3e
       0.34081048 -0.17897137 0.017976332 0.15953253
0002d0 1b 83 33 bc 45 92 cc be be 06 85 bd 9e ac b3 3d
       -0.010956551 -0.39955345 -0.064954266 0.087731585
0002e0 df ce 43 be 8d 97 01 3d f7 85 94 3d 79 28 2f 3e
       -0.19121884 0.03163867 0.07252114 0.17105283
0002f0 88 50 3d be 2b fb c6 3e 50 71 be 3e 31 a2 8a 3e
       -0.18487751 0.388635 0.37195826 0.27076867
000300 b7 bd 92 be 5c ce 80 be b0 98 29 3d b5 ab 6b be
       -0.28660366 -0.2515744 0.04140538 -0.2301472
000310 73 0c 5d bb 54 3a 57 be 3e 5d 3e be 34 37 5b 3d
       -0.0033729344 -0.21018344 -0.18590257 0.053519443
000320 16 5e b2 be cd b9 db 3d 02 6a e6 bc 56 bc 3c be
       -0.34837407 0.10728798 -0.02812672 -0.1843122
000330 7f 1c 5e be a5 19 85 be a3 52 af 3e 28 ed 50 3c
       -0.21690558 -0.25996128 0.34242734 0.012751855
000340 7a 00 c1 bd fe 4d 87 bd ae 97 b2 be f9 ba c6 be
       -0.09423919 -0.06606673 -0.34881347 -0.38814524
000350 d7 51 a9 be c4 91 cd bd b0 74 4f be ff 87 1f 3e
       -0.3307025 -0.10037568 -0.20259356 0.15579222
000360 f2 6f 93 3e b7 47 8f be 00 10 8e 3e d1 8e f9 bd
       0.28796345 -0.27984402 0.27746582 -0.12185443
000370 ca 61 16 be 7d a7 d7 3e 06 9d 8d be 68 14 e7 3d
       -0.14685741 0.4211997 -0.27658862 0.11283189
000380 ea 1f ff 3d 4e da 07 3e f4 be 5f be 98 74 bf 3e
       0.12457259 0.1326687 -0.21850187 0.3739364
000390 1f c3 9d be 38 5c 1c be 1d 09 df 3e 6c 77 d0 bd
       -0.30812928 -0.15269554 0.4356164 -0.10179028
0003a0 b9 48 31 be 9d 75 c7 be bd ee dc be f9 45 b2 be
       -0.17312898 -0.3895692 -0.43150893 -0.3481901
0003b0 05 3a fa bd 2e 2c 91 be 2a 15 32 3e eb 77 13 be
       -0.122180976 -0.2835402 0.17390886 -0.14401214
0003c0 7f 60 74 be df 5c 8d be 66 45 c9 3e 4c 1c ab 3c
       -0.23864935 -0.27609918 0.3931076 0.020887516
0003d0 fa 5e b5 3d 92 b2 ac 3d 03 bc c4 3e 5c 7c 5f bd
       0.08856006 0.08432497 0.38424692 -0.054561958
0003e0 7b be ed bd a9 02 1f be 5e 40 a4 be 5a 2c e9 bd
       -0.11608597 -0.15528359 -0.32080358 -0.113854125
0003f0 01 26 26 3d de f9 dc 3d f9 bf 92 3d f9 22 bf 3a
       0.040563587 0.10789846 0.07165522 0.0014582566

net.2.bias f4 [16]
000000 c1 9e 44 bb 91 8c e6 b9 e9 d8 a7 3a fe 03 3d 3b
       -0.0030001851 -0.0004397375 0.0012805733 0.002884149
000010 8c 02 37 3b 0e 2c e4 3a d6 69 44 bb 58 8d 37 bb
       0.0027925102 0.0017408149 -0.002997031 -0.0028007831
000020 c2 db a3 39 71 94 08 bb fe 51 cc 3a bf a4 1e ba
       0.00031253515 -0.002084043 0.00155884 -0.0006051771
000030 6e 21 44 bb 44 22 3e 3b 69 de 15 3a bd 2f 0b 3b
       -0.0029927152 0.0029012123 0.00057170406 0.002123817

net.4.weight f4 [2, 16]
000000 a6 42 fd 3e e1 16 cb 3d d8 f6 37 be 0c d7 a9 be
       0.4946491 0.09916473 -0.17965257 -0.3317188
000010 e6 96 05 bf bd 92 b9 be fd ac 77 3e ff 9b 0e 3f
       -0.5218338 -0.36244765 0.24187084 0.5570678
000020 4d 04 a1 bd b5 f8 df 3e a1 40 4e be d9 15 27 3e
       -0.078621484 0.43744436 -0.20141841 0.16316928
000030 dd 03 d1 3e bf cb eb be 34 35 89 bd c1 c8 6a be
       0.4082326 -0.46053883 -0.06699601 -0.22928144
000040 df 7a f3 bd ca 96 fb 3e a9 c3 90 be f7 7b de 3e
       -0.1188867 0.4913848 -0.28274277 0.43453953
000050 d1 c6 02 3d 9f b7 fd be 4d ef 0c bd 51 0e 9e bd
       0.031927887 -0.49554154 -0.034407903 -0.077175744
000060 58 3e b5 be 70 dc ec 3e 1a 2c c1 be a8 1b f8 3e
       -0.35399127 0.4626193 -0.3772896 0.484586
000070 9c 72 b1 be dc f2 c9 bd 46 8e 94 3e 2e 37 89 be
       -0.34657753 -0.09860775 0.29014796 -0.2679991

net.4.bias f4 [2]
000000 9c 49 42 bb 3c fa 8a 39
       -0.0029645925 0.0002650785
