results/de/protein.data|16-16|tanh|wd0.01|bs32|noval|1|/stdict_7.pt (torch, 4562 bytes, 6 tensors)

net.0.weight f4 [16, 9]
0	0xbe851c7d	-0.25998297
1	0xbd4bf487	-0.049793746
2	0x3e2ee9e1	0.17081405
3	0x3e78d41d	0.24299665
4	0x3d713b8e	0.058894686
5	0xbea6dcaa	-0.32590228
6	0xbe2738dc	-0.16330284
7	0xbd0d7532	-0.034535594
8	0x3e05af75	0.13055213
9	0x3e871196	0.26380605
10	0xbe8f1f08	-0.27953362
11	0x3e8d36bf	0.2758083
12	0x3eb6ced7	0.3570468
13	0x3dd30af4	0.103048235
14	0xbe077929	-0.13229813
15	0xbe773d21	-0.24144413
16	0xbea87437	-0.32901165
17	0xbe5965dc	-0.21230263
18	0xbde51e41	-0.11187411
19	0x3ea76d30	0.3270049
20	0x3deb6b9d	0.11495135
21	0xbdd80cdd	-0.105493285
22	0xbe9c9d88	-0.30588937
23	0x3ea94a91	0.33064702
24	0xbe9106e6	-0.28325576
25	0xbd902acc	-0.07039413
26	0xbb26163e	-0.0025342847
27	0xbee9c2cb	-0.45656428
28	0x3ec07c02	0.3759461
29	0xbecb52f9	-0.3971174
30	0x3e8c2ea9	0.2737935
31	0x3e45a667	0.19301759
32	0xbe300fe9	-0.17193569
33	0xbe822764	-0.25420678
34	0x3ebfd715	0.37468782
35	0xbe4d6cd0	-0.2006104
36	0x3edf7955	0.43647256
37	0x3ad75932	0.001642978
38	0x3eec58d4	0.4616152
39	0x3eaeb26a	0.34120494
40	0xbe10d081	-0.14142038
41	0xbda7c65d	-0.08192132
42	0x3ca1549a	0.019693661
43	0x3e9f8855	0.311587
44	0x3d1769e3	0.036966216
45	0xbe5a07b6	-0.21292004
46	0xbca1da19	-0.019757317
47	0xbd6187b2	-0.05506105
48	0x3ee43f70	0.4457965
49	0x3e5c170e	0.2149317
50	0xbeabb681	-0.33537677
51	0xbeaa42d1	-0.33254102
52	0xbe85a25b	-0.2610043
53	0x3e8c6963	0.27424154
54	0x3d1e82ad	0.03869884
55	0xbe14f120	-0.14545107
56	0x3df60b50	0.120138764
57	0x3ea16e5e	0.31529516
58	0x3c89488b	0.016758224
59	0x3e45e6b4	0.19326288
60	0xbd7c0994	-0.061532572
61	0x3e0085b3	0.12551002
62	0x3eb231d9	0.34803656
63	0xbdbfe071	-0.09368981
64	0xbe1aff9b	-0.15136568
65	0xbe1b88ee	-0.15188953
66	0x3e097b86	0.13426027
67	0xbe80a988	-0.25129342
68	0x3ee78115	0.4521567
69	0x3e852d4b	0.26011118
70	0xbedb1293	-0.42787609
71	0xbe29c238	-0.16577995
72	0x3ed7e097	0.42163536
73	0xbe339d16	-0.17540392
74	0xbeea4add	-0.4576024
75	0x3e9e8a99	0.30965117
76	0xbec54786	-0.3853113
77	0xbde88375	-0.113531984
78	0xbe0a6445	-0.13514812
79	0xbe84fa94	-0.25972426
80	0x3ee89092	0.45422798
81	0x3e8820fb	0.26587662
82	0xbe5b7b97	-0.21433865
83	0xbcdd66be	-0.02702653
84	0xbe2cc185	-0.16870697
85	0xbdf8a6eb	-0.12141212
86	0x3e439a81	0.19101907
87	0xbd7133c7	-0.05888727
88	0x3e257873	0.16159229
89	0xbd9bec3e	-0.07613419
90	0xbec3f3a1	-0.38271812
91	0x3ef7dc1e	0.48410124
92	0x3ef288b1	0.47369912
93	0xbe789f67	-0.24279557
94	0xbe1afbea	-0.1513516
95	0xbe91980c	-0.28436315
96	0x3e8a9539	0.27066973
97	0x3e778dd7	0.24175201
98	0x3e288ed3	0.16460733
99	0xbe1c45d9	-0.1526102
100	0x3cb70306	0.022340309
101	0x3ea27fb1	0.31738046
102	0x3e0cb62e	0.13741371
103	0x3eed4afe	0.46346277
104	0x3e530af4	0.20609647
105	0xbeb70c82	-0.3575173
106	0xbecc96d4	-0.39958823
107	0x3e978b99	0.29598692
108	0xbdb1be65	-0.08678893
109	0xbe438e9c	-0.1909737
110	0x3e83c1b2	0.25733715
111	0xbdf1e38f	-0.118109815
112	0xbebd6322	-0.36989695
113	0xbe4f692d	-0.20254965
114	0xbd5819d9	-0.052759025
115	0xbe17ce94	-0.14824897
116	0x3e0006ad	0.12502547
117	0xbe081127	-0.13287793
118	0x3ef99c27	0.48751947
119	0x3e3c9ac0	0.18418407
120	0xbe7c3b8c	-0.2463209
121	0xbe8b8db3	-0.27256545
122	0xbe519673	-0.20467548
123	0x3e98a818	0.29815745
124	0xbe3b8726	-0.18313274
125	0x3caca32a	0.021073896
126	0x3ec0923b	0.37611565
127	0xbe111aba	-0.14170352
128	0xbd10108f	-0.03517204
129	0xbe81e559	-0.2537029
130	0x3ed3cf6b	0.41369185
131	0x3e2b94ad	0.16755934
132	0xbd751ee7	-0.059843924
133	0xbe61e860	-0.220613
134	0x3ecc177c	0.39861667
135	0x3e869f9a	0.2629364
136	0x3e1a0a42	0.15042976
137	0x3e82feb5	0.2558495
138	0x3ed44ed7	0.414664
139	0x3e389a5b	0.18027632
140	0xbedb8d26	-0.42881125
141	0xbe32b3ed	-0.17451449
142	0xbe3239ba	-0.17404833
143	0x3ef9f80c	0.48822057

net.0.bias f4 [16]
0	0x00000000	0.0
1	0x00000000	0.0
2	0x00000000	0.0
3	0x00000000	0.0
4	0x00000000	0.0
5	0x00000000	0.0
6	0x00000000	0.0
7	0x00000000	0.0
8	0x00000000	0.0
9	0x00000000	0.0
10	0x00000000	0.0
11	0x00000000	0.0
12	0x00000000	0.0
13	0x00000000	0.0
14	0x00000000	0.0
15	0x00000000	0.0

net.2.weight f4 [16, 16]
0	0x3e5b3954	0.21408588
1	0xbe79df3f	-0.24401568
2	0x3e36e2cb	0.17859952
3	0xbe54467f	-0.20730017
4	0x3ecd220e	0.40065044
5	0xbdfb951e	-0.12284301
6	0x3e12c59c	0.14333194
7	0x3e93446f	0.28763148
8	0x3e9c932b	0.3058103
9	0xbdceb6c7	-0.10093456
10	0x3ec59bd1	0.3859544
11	0x3d8c2dfb	0.068447076
12	0xbd99e9c6	-0.07515292
13	0xbed21ecb	-0.41039118
14	0x3da3661c	0.0797846
15	0x3d1b77c4	0.037956014
16	0xbd6db73a	-0.058036067
17	0xbe0903de	-0.13380381
18	0x3ec89d94	0.39182723
19	0xbe02a633	-0.12758712
20	0xbe261c48	-0.16221726
21	0xbe11a384	-0.14222533
22	0xbde326af	-0.11091363
23	0xbe820934	-0.25397646
24	0x3ecd14ba	0.40054876
25	0x3ecf11cd	0.40443268
26	0xbe90d120	-0.2828455
27	0xbe8a1aa4	-0.2697345
28	0x3d9f56a9	0.07780201
29	0x3dfa6942	0.122271076
30	0xbe19ae0b	-0.15007798
31	0xbeceaf3e	-0.40368074
32	0x3ecc2b63	0.3987685
33	0xbdcf430c	-0.1012021
34	0x3ea6673f	0.32500646
35	0xbe4a7fc1	-0.19775297
36	0xbdfbefa5	-0.12301568
37	0x3e4bc2f1	0.19898583
38	0x3cf250db	0.02957957
39	0xbda078d6	-0.078355476
40	0xbde368cc	-0.11103973
41	0x3e8d224f	0.27565238
42	0x3e57c633	0.21071701
43	0x3d5b84e0	0.053593516
44	0x3ec13ab0	0.37740088
45	0x3d5ba33d	0.053622473
46	0x3ecf4586	0.4048273
47	0xbd45fbf9	-0.048336003
48	0x3ecaba15	0.39595094
49	0x3dade3a0	0.08490682
50	0xbe95609a	-0.29175264
51	0xbe4797c8	-0.19491494
52	0xbeda1b39	-0.42598894
53	0x3e3a3824	0.18185478
54	0x3e59e767	0.21279679
55	0x3ed5c137	0.41748974
56	0xbe92f913	-0.28705654
57	0xbd8a6b14	-0.06758705
58	0xbebdcc12	-0.37069756
59	0x3e91dd51	0.28489164
60	0xbd5924d1	-0.053013626
61	0xbe808fc2	-0.25109679
62	0xbda18045	-0.078857936
63	0x3e15154e	0.14558908
64	0x3ebdc9e9	0.37068108
65	0xbe33848f	-0.17531036
66	0x3c427f0c	0.011871111
67	0xbe9c8f5a	-0.3057812
68	0x3e0269b3	0.12735634
69	0x3d8144ff	0.06311988
70	0x3e2676fc	0.16256326
71	0x3e826a9d	0.25471964
72	0x3e2554de	0.16145656
73	0x3d7158b0	0.05892247
74	0xbeca8576	-0.39554948
75	0xbd4e1e47	-0.050321843
76	0xbe70c36b	-0.23512046
77	0x3cd064ae	0.025438633
78	0xbe7a861b	-0.2446522
79	0xbba45559	-0.005015057
80	0xbeacd6c6	-0.3375761
81	0x3e92b394	0.28652632
82	0xbe6217f1	-0.22079445
83	0xbe6b96c4	-0.23006731
84	0x3ec2e2ae	0.38063568
85	0x3db6b283	0.08920767
86	0xbea95890	-0.3307538
87	0xbe8580b4	-0.26074755
88	0xbc2edae7	-0.010672308
89	0xbed2fe4a	-0.41209632
90	0x3e89b252	0.2689386
91	0x3e83077e	0.25591654
92	0xbeb15fd1	-0.34643415
93	0x3d463ed2	0.048399754
94	0x3eb481dd	0.35255328
95	0xbe6998ec	-0.22812241
96	0xbebe588b	-0.37176928
97	0xbe1796cd	-0.1480362
98	0xbea45358	-0.32094836
99	0x3dd2345b	0.10263892
100	0xbe3f593d	-0.18686385
101	0xbeb71b9f	-0.3576326
102	0xbe94f566	-0.29093474
103	0x3eb028eb	0.34406218
104	0xbe8a7de9	-0.27049187
105	0x3e292093	0.16516332
106	0xbe45d95f	-0.19321202
107	0xbe54ff9c	-0.20800632
108	0x3e924b46	0.28573054
109	0x3d88f3a1	0.066870935
110	0x3ed0e2e9	0.4079812
111	0x3e072c74	0.13200551
112	0x3e90d62e	0.28288406
113	0xbe96220a	-0.29322845
114	0xbe86f25e	-0.26356786
115	0x3e191858	0.14950693
116	0xbe962ce2	-0.29331118
117	0x3da3c84b	0.07997187
118	0xbe9cce60	-0.30626202
119	0x3eb1b46c	0.34707963
120	0xbc6492bd	-0.013951001
121	0x3dcebbbb	0.100944005
122	0x3da27aee	0.07933603
123	0x3e9fafa4	0.3118869
124	0x3ebe0b28	0.37117887
125	0x3ea38cf2	0.3194347
126	0xbeb7b60b	-0.35881075
127	0xbe9396a3	-0.28825864
128	0xbe46589c	-0.1936974
129	0x3e611414	0.21980315
130	0xbeb66e62	-0.3563109
131	0xbeb7d10c	-0.35901678
132	0x3e759234	0.23981553
133	0xbe8fe028	-0.28100705
134	0x3cbb3262	0.022851173
135	0xbebfc2e6	-0.37453383
136	0xbeae740d	-0.34072915
137	0x3e5a24cf	0.21303104
138	0x3e8bd5fc	0.27311695
139	0x3e600715	0.21877702
140	0x3c03b0a3	0.008037719
141	0xbe10aa2f	-0.1412742
142	0x3d33f778	0.043937176
143	0xbcb056fb	-0.02152585
144	0xbe394c3e	-0.1809549
145	0xbea2b94c	-0.31781995
146	0xbe281bb3	-0.16416816
147	0x3e62838b	0.22120492
148	0x3ed42d2c	0.41440713
149	0x3da80651	0.0820433
150	0x3bbb8b26	0.005723375
151	0x3deda47f	0.11603641
152	0x3ecd3172	0.40076786
153	0x3df6baab	0.12047323
154	0x3eaa8662	0.3330565
155	0x3ceee299	0.029160785
156	0x3eaba9c1	0.3352795
157	0x3d1b6263	0.037935626
158	0xbea19a48	-0.3156302
159	0x3e47e084	0.1951924
160	0x3e691913	0.22763471
161	0x3def0892	0.116715565
162	0xbe74d0cf	-0.23907779
163	0x3e9fecc3	0.31235322
164	0xbe78faa1	-0.24314357
165	0x3e92af1b	0.2864922
166	0xbe9b060e	-0.30278057
167	0x3d517751	0.05113918
168	0x3e65b23f	0.22431277
169	0x3da4d585	0.08048538
170	0x3d3976ec	0.04527943
171	0x3d8c5655	0.06852404
172	0xbe9ca7ba	-0.30596715
173	0x3ec5082e	0.38482803
174	0xbd636509	-0.055516277
175	0x3ec4b03d	0.3841571
176	0x3d94ab3f	0.07259225
177	0xbd5604b8	-0.052250594
178	0xbdc57a34	-0.09642449
179	0x3e78fbfc	0.24314874
180	0xbe8c447c	-0.27396
181	0xbe4c6865	-0.19961698
182	0x3cc986f9	0.024600493
183	0x3eb4d264	0.35316765
184	0x3ecc9c17	0.39962837
185	0xbe8b57d4	-0.27215445
186	0xbedc4fd1	-0.43029645
187	0x3ebdd29d	0.37074748
188	0x3eaf144b	0.3419517
189	0x3eb06f3e	0.3445987
190	0x3ec47bb2	0.38375622
191	0x3e33e85e	0.1756911
192	0x3edc2020	0.4299326
193	0xbe0b7971	-0.13620545
194	0xbe8973a4	-0.2684604
195	0x3e3deb31	0.1854675
196	0xbe3523c0	-0.17689419
197	0xbed16280	-0.40895462
198	0x3e3f9c96	0.18712077
199	0x3d3ec7b8	0.046577185
200	0xbedbca53	-0.429278
201	0x3d53a812	0.051673956
202	0xbe0d8b50	-0.13822675
203	0x3d2c8f5c	0.042128906
204	0x3d934084	0.0719004
205	0xbeba94b6	-0.36441582
206	0xbe68b52b	-0.2272536
207	0x3d9d6cbc	0.07686755
208	0x3d6db3fa	0.058032967
209	0x3e8b1431	0.27163842
210	0xbeba03bd	-0.36330977
211	0xbdb19b33	-0.0867218
212	0x3e5a570d	0.2132227
213	0x3d845852	0.06462158
214	0xbe29a3d8	-0.16566408
215	0x3dcc7145	0.09982542
216	0x3e9e28a6	0.30890387
217	0xbe83846c	-0.25686967
218	0x3e86f057	0.2635524
219	0xbecb02e7	-0.39650652
220	0x3da701f1	0.08154667
221	0xbe1586b0	-0.1460216
222	0xbe5114f1	-0.20418145
223	0xbeaabd81	-0.33347705
224	0x3e101084	0.140688
225	0x3eb102f1	0.34572557
226	0x3ea20305	0.3164293
227	0xbec095fd	-0.37614432
228	0xbe7621bc	-0.24036306
229	0x3e9ae727	0.3025448
230	0x3e9fc7a3	0.31206998
231	0xbec7e469	-0.3904145
232	0xbed725e0	-0.42021084
233	0x3dfc601e	0.123230204
234	0x3e4fb085	0.2028218
235	0xbeb7de2e	-0.35911697
236	0x3e0a7464	0.13520962
237	0x3eca96df	0.3956823
238	0xbec3c734	-0.38237917
239	0x3e26f96e	0.16306087
240	0xbea739ef	-0.32661387
241	0x3ea4b78c	0.32171285
242	0xbe9e9e31	-0.30980065
243	0x3e7d30e6	0.24725685
244	0xbed45db4	-0.4147774
245	0x3e4e67c5	0.20156772
246	0xbe20584e	-0.15658686
247	0xbdf0e588	-0.117625296
248	0xbececd03	-0.40390787
249	0xbd6c4a4e	-0.05768805
250	0xbe9db4d0	-0.3080201
251	0xbe63298a	-0.22183815
252	0xbeda78bb	-0.42670235
253	0xbe6433bb	-0.22285359
254	0x3e9669b9	0.29377535
255	0xbd673a68	-0.056452185

net.2.bias f4 [16]
0	0x00000000	0.0
1	0x00000000	0.0
2	0x00000000	0.0
3	0x00000000	0.0
4	0x00000000	0.0
5	0x00000000	0.0
6	0x00000000	0.0
7	0x00000000	0.0
8	0x00000000	0.0
9	0x00000000	0.0
10	0x00000000	0.0
11	0x00000000	0.0
12	0x00000000	0.0
13	0x00000000	0.0
14	0x00000000	0.0
15	0x00000000	0.0

net.4.weight f4 [2, 16]
0	0xbdfd534d	-0.12369404
1	0x3db70b28	0.08937675
2	0x3dd0d5ce	0.1019703
3	0xbefd2de6	-0.4944908
4	0x3f102dfa	0.56320155
5	0xbeb4d5e0	-0.35319424
6	0x3efbc9e4	0.49177468
7	0x3df76c8e	0.12081252
8	0x3ee4613f	0.44605443
9	0x3e8d7fb4	0.27636492
10	0xbdc1ec82	-0.094689384
11	0x3ea9fd5c	0.3320111
12	0x3f08cd42	0.534382
13	0x3d65545e	0.055988662
14	0x3ec237ae	0.37933105
15	0x3e062687	0.13100635
16	0xbeaf233e	-0.34206575
17	0xbc94e665	-0.018176267
18	0xbe039670	-0.12850356
19	0x3e77dee4	0.2420612
20	0xbe09ee62	-0.13469842
21	0xbe0d62f4	-0.13807279
22	0xbe1e69e0	-0.15470076
23	0xbf0956a8	-0.5364785
24	0x3c20451c	0.009782102
25	0x3ea9af54	0.33141577
26	0xbd293faf	-0.0413205
27	0xbeb9ba58	-0.36274981
28	0x3e66a4cd	0.22523804
29	0x3e8aa56e	0.27079338
30	0x3dece06f	0.11566245
31	0xbef613e5	-0.48062053

net.4.bias f4 [2]
0	0x00000000	0.0
1	0x00000000	0.0
