results/de/protein.data|16-16|tanh|wd0.01|bs32|noval|1|/stdict_6.pt (torch, 4562 bytes, 6 tensors)

net.0.weight f4 [16, 9]
00000000: 2426 6bbe 6a27 e4bd b02b a9be c174 68be
00000010: 1fb0 e3be 1de8 19bc 42ce 933e 0e79 6f3e
00000020: 5b6d ea3e eac0 d9be f803 63bd 5654 f63e
00000030: 0fba a63d 9d64 08be 7282 dfbe e91b 6e3e
00000040: 12c0 c03e 6606 c73e 5bb1 d33e b940 ce3d
00000050: 2292 b43e e0d7 fbbd 8668 cd3e 47ea 1ebd
00000060: 5982 c6bd 64b6 74be 2704 843e 5180 473e
00000070: 8961 9d3e 0250 a2be 5a79 84be 247f eb3e
00000080: bc46 8cbe 5c31 8dbe efff 09be 39aa 1fbe
00000090: ce7e a8be d334 cd3e ce9c 6f3d 3aa6 633e
000000a0: 61f5 bb3e 9fe5 a0be bb8f c13e 08b2 76be
000000b0: 0c66 a5bd 9e94 bb3e 0c09 e53e 970c db3e
000000c0: 9d7e 8e3e ade2 e63e 76e1 34be e30d 10bd
000000d0: 121e 30be 1949 05bd 355c 62bd 957f 883e
000000e0: 0a6c ae3e fcb0 b3be 5f45 88be 531e 16be
000000f0: 5942 893d 441a 3ebe ac59 9cbe 46f2 bebd
00000100: a1b5 79be 5e90 1a3c 389e b7be 4849 01be
00000110: efb6 3bbe afb9 92bd d3c6 c23e dcf7 a53e
00000120: 284b 23be c8d3 e3be c6e7 b1be d8b7 c2be
00000130: 167e 45bd 5d6e 60be 6390 adbe ac76 e73d
00000140: 7277 083d ef33 9fbd b0e8 3abe d481 d33e
00000150: bbd2 f1be 46fe 82bc 248c 643e 1bf3 ae3e
00000160: 6089 dcbe c466 9bbd e6d8 cf3e 3952 9c3d
00000170: 251e 143e b111 59be e8bc ac3e e2ed 3bbe
00000180: 02eb 84be 1478 e13e 98c7 013e a5a4 9dbb
00000190: 4517 adbe e921 d9bd e553 c2be d6d1 a6be
000001a0: c716 92bd d761 c53d 4935 cbbe d95f f23e
000001b0: a8a2 b63e 3868 ebbe 6ab7 9a3e 6084 94be
000001c0: ece9 cdbe 0c26 e93e 4001 46be be89 27be
000001d0: a4f6 7c3d 5388 8f3e 65b9 2d3d 46c1 02be
000001e0: 86bc 183d ac1b 80be 26f0 b4be f9ee 013e
000001f0: e140 643d 7d4a 793e e998 3bbe b503 f6be
00000200: ca54 f1bd 16a7 f4be 2f02 24bd 9d04 733e
00000210: 8079 283d 828e 8f3e bb4a c23d fc2e 533e
00000220: ee5a df3e 9e9c 8c3d 068a ab3d a223 4fbe
00000230: 457a 9a3e 2485 d03e a938 b0be 1302 f33e
-0.22963768 -0.1114033 -0.33041143 -0.22700788 -0.44470307 -0.009393719 0.288683 0.23386022
0.45786557 -0.42529994 -0.055423707 0.48111218 0.081409566 -0.13319631 -0.4365421 0.23252834
0.37646538 0.3887207 0.4134625 0.100709386 0.3526774 -0.12297034 0.40118808 -0.038797643
-0.096928306 -0.23897702 0.25784418 0.19482543 0.30738476 -0.31701666 -0.25873834 0.45995438
-0.27397716 -0.2757672 -0.13476537 -0.15592279 -0.32909244 0.40079364 0.05849915 0.22231379
0.36710647 -0.31425187 0.3780497 -0.24091351 -0.080761045 0.36636823 0.44733465 0.42783043
0.27830973 0.45094815 -0.17664132 -0.035169493 -0.17198971 -0.032540414 -0.055263717 0.26659837
0.34066802 -0.35095966 -0.26615426 -0.14660005 0.06702108 -0.18564707 -0.30537164 -0.09323554
-0.24385692 0.009433834 -0.358629 -0.12625611 -0.18331502 -0.071643226 0.38042316 0.32415664
-0.15946639 -0.44497514 -0.34747142 -0.38030887 -0.048215948 -0.219171 -0.3389922 0.11301932
0.033317037 -0.077735774 -0.18252826 0.41309988 -0.47231087 -0.015990388 0.22319084 0.3416985
-0.4307356 -0.0758796 0.40595168 0.0763287 0.14464624 -0.21198155 0.33737874 -0.18352464
-0.25960547 0.44036925 0.12673795 -0.004810887 -0.33806816 -0.10602171 -0.3795463 -0.32581967
-0.07133251 0.09637802 -0.3968909 0.4733875 0.35670972 -0.4597795 0.3021806 -0.29007244
-0.4021753 0.4553684 -0.19336414 -0.16361138 0.061758652 0.28033695 0.042413134 -0.1276904
0.037289165 -0.25021112 -0.3533947 0.12688817 0.055725936 0.24344821 -0.1832005 -0.48049703
-0.1178375 -0.47783726 -0.040041145 0.23732229 0.041131496 0.28038412 0.0948691 0.20623392
0.4362406 0.0686581 0.08375935 -0.20228437 0.3017141 0.40726578 -0.34418228 0.4746252

net.0.bias f4 [16]
00000000: 43e6 24bb a536 4a3b aeda 2c3b d45c bdba
00000010: ef1e 2b3b 013f 86ba 8a40 5d3b 5084 36bb
00000020: fb71 153b fc6a 58bb 556b 01bb ec88 133b
00000030: d6ec 0cbb 3a24 113b 9558 153b ed6a 38bb
-0.002516166 0.0030855325 0.002637546 -0.0014447221 0.0026110967 -0.0010242165 0.0033760392 -0.002784986
0.0022803533 -0.0033022752 -0.0019747813 0.0022512032 -0.002150347 0.0022146837 0.0022788395 -0.0028139905

net.2.weight f4 [16, 16]
00000000: 8146 073e 9fe0 6dbd e932 ccbe af90 debe
00000010: 01ad aebe 7827 babe 847f 93be 5b80 febd
00000020: 69fe b6be f07f b8be 9b32 4dbd b80d babe
00000030: 9a5f 1cbd 47a8 9b3d 9ed7 ab3d 4196 893e
00000040: b1cf 713e 3dee 75be cc91 17be 83db ee3b
00000050: 5079 ba3e d08b 553e 08ef 78be 50fa 4fbd
00000060: 6840 a03d d165 173e b88f 24be 0965 c4be
00000070: bcf0 88be f5e5 863c db71 96be 6804 f33d
00000080: 75ab 8c3e 99aa fdbb b4ef 643e fdc0 993e
00000090: e840 8c3e 07a1 d4be 8f71 c73e 0cbc ed3d
000000a0: 883b dabe 495e d93d a7aa 9abe 13b5 ce3e
000000b0: 9e5b af3e bb7b 90be f311 a3be 04ff dd3c
000000c0: f2f9 efbd 97e4 403e 2dbd ccbe b7a4 a33e
000000d0: 719b 293d 3737 3d3c 48ed 8bbe c99b db3c
000000e0: d22b 953e 89c6 d83e fa94 8dbe 2bf7 3cbe
000000f0: 42a6 b93d 7f07 763e 48e0 babe bb93 22be
00000100: f7aa aebe f43c ca3e 01e6 1abe 2fb6 833e
00000110: 98f0 6e3e ef29 173d 87a7 a73d bdd0 903e
00000120: 2e9e 54bd 7dc7 673e 9ae4 7bbd 3001 203c
00000130: ad3a 173e 6246 c6be 7b88 50be ae6a b2be
00000140: 44d2 09be 9700 ccbc 5891 343e 1caf afbe
00000150: 17e2 b7be 1077 9b3e 4ecb 48bd c421 62be
00000160: aecf d2bd f543 c93c d91f a0be 34b2 d6be
00000170: 41fc 90be 1cde ad3e 3e27 fb3d 3bd9 dabe
00000180: 35ee 71be a099 a93e fa76 d63e 4f1f ae3d
00000190: 16ec 793e 65fa 983d 8b74 823e 4eee adbe
000001a0: 9280 8e3d 8a97 c3be 8b0b d8be 64a3 b83e
000001b0: 1783 2b3d 400d 363e 6292 78bd 1172 b5be
000001c0: 2ed0 a93e 022f cbbe f11d 93be 54ee 0f3e
000001d0: 4a18 28be 0462 e83d 1f92 cdbe af4b 273e
000001e0: 3bdc 90be e5b0 743e 565e 54bd 8adb b1be
000001f0: e789 d2bd f10c 8dbd 79eb 8a3e 94e6 46be
00000200: 8435 283d 1737 49be e8d3 3c3c 2cd3 c03e
00000210: a540 3c3e 03fa b73d 1949 cbbe f378 823e
00000220: a5b2 d63e abc1 dd3d 7273 b63e b484 453e
00000230: 0441 cf3e fc2d 57bd 7fef 19be da3b 633e
00000240: 8d92 f2bd 46e7 19bd bb55 50bd bc59 22be
00000250: ced8 a73d 91ca aabd 7763 8ebe 3ae1 ca3e
00000260: 5947 d4be 2cba 68be 94fc cc3e 2e44 8abe
00000270: c3cf bdbe f277 7d3e b4ae d63e c82a a03e
00000280: c17e 97be a21d d9be 0a91 c5be 1b35 46bc
00000290: 38b0 d23d 8728 4ebc e971 ea3d 2ab5 43be
000002a0: ec07 8b3b 5ff8 c53e 9522 14be befb a3be
000002b0: 3c69 c03e b22f 933e 847a cc3e 695a b63e
000002c0: 6026 ef3b 4fb3 6a3e 9685 763d 4712 0f3e
000002d0: 59f4 9c3c 1011 733e 012a 05be 4e70 29bd
000002e0: 44b1 763e a9e8 243e 47e3 ae3e 34fc d3bd
000002f0: 7b90 b7bd 9ac8 96be 7850 3ebe e75b d0be
00000300: c3e0 c03e 795e 9ebe 7df7 11be 1828 083e
00000310: 02e9 a53e ba01 8a3e 3fe7 c53e d949 b1bc
00000320: 6a93 3dbe d8b2 d8be 8d00 af3d 84e8 133e
00000330: 38dc b8bc 7ad3 7c3e 519d 5abd 469f 143d
00000340: 0877 c5be 6993 ce3d 2832 073e c1e9 19be
00000350: 4ab9 0d3e 6f80 d0be 166b aa3e eba7 cebe
00000360: 3976 8e3e f507 01be 2058 d7be 6275 83bd
00000370: 60db 763e 69ec a0bc 6ebb 96be d97b 93be
00000380: d41d ab3e 2703 cabe d860 66be 03aa cabe
00000390: 5e15 d7be c448 cc3e d5e2 3dbe ef02 173b
000003a0: cf09 a2bd 9a8a b6be 3cea 33bd 9358 b6be
000003b0: 2323 81be 2f28 a53e bc39 8fbe 1a72 273e
000003c0: 74f0 04be 8227 1c3e c53c a4bd 5261 873e
000003d0: 9eba c23e 4fff c33e 1e04 a93e 6113 26be
000003e0: 4d0d 853e 30c5 99be becc cdbe f8ea bf3e
000003f0: c8d8 78bd 32d7 a43e a5bf 6e3e 30db b0bd
0.13210489 -0.058075543 -0.3988259 -0.4346976 -0.34116367 -0.36358237 -0.28808224 -0.124268256
-0.35740975 -0.3603511 -0.05009709 -0.36338592 -0.03817711 0.07600456 0.08390735 0.26872447
0.23614384 -0.24016662 -0.14801711 0.0072893514 0.3642068 0.20854115 -0.24309933 -0.050775826
0.078247845 0.14784934 -0.1607045 -0.38358334 -0.26746166 0.016467074 -0.2938374 0.11866075
0.2747456 -0.007741284 0.22357064 0.3003005 0.2739327 -0.41529104 0.38953826 0.11608133
-0.42623544 0.106136866 -0.30208322 0.40372524 0.34249586 -0.282194 -0.31849632 0.02709914
-0.11717595 0.188372 -0.3998808 0.31961605 0.041408006 0.011548809 -0.2732947 0.026807683
0.29134995 0.4233897 -0.27652723 -0.18453662 0.09064914 0.24026297 -0.36499238 -0.15876667
-0.3411481 0.3949963 -0.15126802 0.25724933 0.23333967 0.036905225 0.0818625 0.28284255
-0.051908664 0.22634692 -0.06149731 0.009765908 0.14768477 -0.38725573 -0.20364563 -0.34847015
-0.13459116 -0.024902625 0.17633569 -0.34313285 -0.3591468 0.30364275 -0.04902201 -0.22083193
-0.10293518 0.024568537 -0.31274298 -0.41932833 -0.28317454 0.33958519 0.12263344 -0.4274386
-0.23626025 0.3312502 0.41887647 0.085020654 0.24406466 0.07469634 0.2547954 -0.33970875
0.069581166 -0.38201553 -0.42196307 0.36062157 0.041873064 0.17778492 -0.060686477 -0.35438588
0.3316664 -0.39684302 -0.2873378 0.14055759 -0.16415516 0.1134682 -0.40150544 0.16337465
-0.28293023 0.23895605 -0.05184778 -0.34737808 -0.10280209 -0.06887234 0.27132776 -0.19423896
0.04106666 -0.19649921 0.011525132 0.3766111 0.18384035 0.08983233 -0.39704207 0.25482902
0.4193317 0.10827955 0.35634953 0.19288903 0.4047929 -0.05253409 -0.15032767 0.221908
-0.118443586 -0.037574075 -0.05086301 -0.15854543 0.08195649 -0.08339418 -0.2781026 0.3962496
-0.41460684 -0.22727269 0.40036452 -0.27005142 -0.37072572 0.24752787 0.41930163 0.3128264
-0.29588893 -0.4240542 -0.3858722 -0.012097622 0.10287517 -0.012582905 0.11447508 -0.19112077
0.0042428877 0.38666055 -0.14466317 -0.32028002 0.37580287 0.28747326 0.39937222 0.35615852
0.007298276 0.22919963 0.06018599 0.13971816 0.019159483 0.23736978 -0.13004304 -0.041366868
0.24091059 0.16104378 0.34157774 -0.10350838 -0.08963104 -0.29449922 -0.18585384 -0.40695116
0.3767148 -0.30931452 -0.14254566 0.13296545 0.32404333 0.26954442 0.3865299 -0.021641659
-0.18513265 -0.42323947 0.08545027 0.14444166 -0.022565946 0.24690047 -0.053372685 0.036284707
-0.38567376 0.1008671 0.13202727 -0.15030576 0.13840213 -0.40722987 0.33284825 -0.40362486
0.27824572 -0.12600692 -0.42059422 -0.06418873 0.24107122 -0.01964398 -0.29439873 -0.28805426
0.33421195 -0.3945553 -0.2249788 -0.39582834 -0.4200849 0.39899266 -0.18543561 0.002304252
-0.07912027 -0.3565262 -0.043924555 -0.35614452 -0.2522212 0.3225722 -0.27973735 0.1635212
-0.1298235 0.15249446 -0.08019403 0.26441437 0.38033003 0.38280722 0.33010954 -0.1621833
0.2598671 -0.30033255 -0.40195268 0.37483954 -0.060753614 0.3219543 0.23315294 -0.08635557

net.2.bias f4 [16]
00000000: 61df 0cbb 5181 8fba 126b 46bb 94cb 123b
00000010: 2f0b 2ebb 4093 323b 068f 473b f108 fbba
00000020: 1246 20bb 0be1 3e3b b71e c83a 8c31 0fbb
00000030: 7a43 0b3b ed7e 2c3b b7ae 1dbb aa10 323b
-0.002149545 -0.0010948573 -0.0030276221 0.0022399174 -0.002655696 0.0027248412 0.003045024 -0.0019152445
-0.0024455828 0.0029125835 0.0015267943 -0.00218496 0.0021249936 0.002632077 -0.0024060437 0.0027170577

net.4.weight f4 [2, 16]
00000000: cab7 b5bd 6526 c6bd d283 01bf 7e4e e03e
00000010: adf4 a6be fd26 603e 3e32 0b3f d8fa f0be
00000020: de52 afbe 7e34 f33e 3d7c 4fbd 1332 03bf
00000030: 06c1 3c3e 0bd6 ce3e 8a92 c5be 3a0a d43e
00000040: 65d5 0f3f 2e82 0b3f 64a2 aa3e 9843 253d
00000050: 24f5 673e 78d2 43be ea1e ae3d 104f 91be
00000060: fd88 d13e 2b59 45be 215c a2be af86 a7bd
00000070: ca3a 063e 1e42 9e3d 1c02 a9be 89a2 b4be
-0.088729456 -0.09675292 -0.50591767 0.43809885 -0.32608548 0.21889873 0.5437354 -0.4706638
-0.3424291 0.47500986 -0.050655592 -0.5124828 0.18433008 0.40397677 -0.38588363 0.41414052
0.5618499 0.54495513 0.3332702 0.040347666 0.22652107 -0.19123256 0.0850199 -0.28380632
0.40924826 -0.19272296 -0.31710914 -0.08179986 0.13108364 0.077274546 -0.33009422 -0.35280254

net.4.bias f4 [2]
00000000: b65e 293b 0c08 eeba
0.0025843806 -0.0018160357
