results/de/protein.data|16-16|tanh|wd0.01|bs32|noval|1|/stdict_0.pt (torch, 4562 bytes, 6 tensors)

net.0.weight f4 [16, 9]
0.100444086 0.063635014 -0.33583653 0.2868643 -0.08421201 -0.010496991 -0.31879893 0.40538839
-0.22666642 -0.0004744634 0.13074537 -0.214387 0.440264 -0.35883558 0.25054538 0.27399665
-0.07479045 0.07674708 0.041293174 -0.44024432 0.020036768 0.47654992 0.15496562 -0.10634286
0.14438768 0.12866013 -0.16910432 0.0066656317 -0.20392299 0.096480034 -0.43863335 0.003907881
-0.24486643 0.25664535 0.17083228 -0.04566773 0.3911045 0.025040794 0.03592247 0.3297028
-0.046272274 0.018973418 -0.06805736 -0.05921132 0.37475154 -0.12917268 0.08561609 0.21461998
-0.07729243 0.06275235 0.16557856 -0.14517817 0.019507846 -0.22308245 -0.006212142 -0.2819547
-0.34222624 -0.021147106 -0.2857735 0.23688197 -0.0580999 0.019808743 0.28075677 0.08147053
-0.41175973 -0.03286398 0.37669924 -0.13069116 0.21041574 -0.045283716 -0.18025546 -0.2788298
-0.31691992 0.3207769 0.1093027 -0.47027752 0.40374872 0.3205306 0.083796814 -0.25946212
-0.103616774 0.30551037 -0.06661507 0.36363977 -0.29673445 0.2623252 0.1406268 0.010385033
0.03267301 -0.2519874 0.12441946 -0.14476524 -0.43606526 -0.19984183 0.31283596 -0.017392417
0.054969404 -0.2627092 0.050440084 0.10057141 -0.4085282 0.07031642 0.55799013 0.027239067
-0.0023910312 0.045106754 -0.31676155 0.09010898 0.01870588 0.21878332 0.19710976 0.019913655
0.3122268 -0.23884176 0.33615512 -0.14786842 0.34381664 0.07347019 0.10568533 -0.0893938
0.083321474 -0.114371136 -0.1328028 -0.08244511 -0.07588229 0.040630084 0.10689969 -0.21351215
0.14016075 0.14727588 0.24666137 0.0054707383 0.148665 -0.26960722 0.3613689 0.14606348
0.17404215 -0.1752026 0.087723374 -0.00020502435 0.0023589751 -0.041620474 -0.37949604 0.101481155
00000000: a1b5 cd3d 1353 823d c4f2 abbe e1df 923e
00000010: 5977 acbd 92fb 2bbc 9d39 a3be 118f cf3e
00000020: 3e1b 68be 66c1 f8b9 1de2 053e 4488 5bbe
00000030: 486a e13e 4cb9 b7be 7c47 803e 4a49 8c3e
00000040: bc2b 99bd 932d 9d3d 0823 293d b467 e1be
00000050: 2624 a43c 5afe f33e 4faf 1e3e 49ca d9bd
00000060: 5dda 133e 7bbf 033e af29 2dbe 5f6b da3b
00000070: 30d1 50be 5397 c53d 8d94 e0be af0d 803b
00000080: 44be 7abe 0567 833e a8ee 2e3e 160e 3bbd
00000090: d93e c83e 5a22 cd3c 7123 133d cece a83e
000000a0: ff87 3dbd 246e 9b3c a861 8bbd 9287 72bd
000000b0: 6fdf bf3e d845 04be 7d57 af3d 57c5 5b3e
000000c0: 7e4b 9ebd 4e84 803d 6d8d 293e 96a9 14be
000000d0: ebce 9f3c ba6f 64be 398f cbbb 5e5c 90be
000000e0: 4738 afbe b23c adbc e750 92be 3091 723e
000000f0: 29fa 6dbd f245 a23c 5abf 8f3e 05da a63d
00000100: 2cd2 d2be 619c 06bd b9de c03e e7d3 05be
00000110: 3977 573e 6b7b 39bd e394 38be c8c2 8ebe
00000120: 5443 a2be df3c a43e 18da df3d 37c8 f0be
00000130: 27b8 ce3e 961c a43e aa9d ab3d 38d8 84be
00000140: 0835 d4bd db6b 9c3e 7b6d 88bd fe2e ba3e
00000150: 94ed 97be 7d4f 863e 7900 103e fc25 2a3c
00000160: 22d4 053d 7e04 81be a1cf fe3d 573d 14be
00000170: f243 dfbe 56a3 4cbe 092c a03e 8b7a 8ebc
00000180: 9927 613d d281 86be 439a 4e3d 62f8 cd3d
00000190: 9c2a d1be 0e02 903d 71d8 0e3f 7724 df3c
000001a0: d9b2 1cbb dcc1 383d 922e a2be 0f8b b83d
000001b0: 133d 993c bc08 603e 24d7 493e f621 a33c
000001c0: 31dc 9f3e ef92 74be 861c ac3e d26a 17be
000001d0: bc08 b03e 8a77 963d 8d71 d83d 1914 b7bd
000001e0: 73a4 aa3d 6a3b eabd 75fd 07be fbd8 a8bd
000001f0: 2d68 9bbd bb6b 263d 3aee da3d eea2 5abe
00000200: 4d86 0f3e 7dcf 163e cc94 7c3e e143 b33b
00000210: a33b 183e f509 8abe 5805 b93e aa91 153e
00000220: 1b38 323e 4f68 33be 50a8 b33d cefb 56b9
00000230: 0999 1a3b 3b7a 2abd 4e4d c2be 5ad5 cf3d

net.0.bias f4 [16]
0.03147774 -0.030589374 -0.029459558 0.010595588 0.02878139 -0.0075873127 0.074424945 -0.03152854
-0.107301936 -0.020682564 0.005997772 0.00020751271 0.03561731 -0.014207051 -0.091113664 0.047681917
00000000: cdee 003d 9196 fabc 2c55 f1bc 1e99 2d3c
00000010: f3c6 eb3c fe9e f8bb 1b6c 983d 1224 01bd
00000020: 1ec1 dbbd 7b6e a9bc f588 c43b c597 5939
00000030: 75e3 113d b1c4 68bc cd99 babd 1d4e 433d

net.2.weight f4 [16, 16]
-0.09901142 0.22315447 0.0035317857 -0.29377195 0.03382645 0.01742692 0.3578451 0.42795593
-0.23559704 -0.29283354 -0.27066022 0.3558624 -0.013499226 0.18440071 -0.19916944 0.024922146
0.032134622 0.040429596 -0.16527773 -0.17422949 0.23549941 -0.22167481 -0.27379483 0.1889109
-0.1961289 -0.14964834 -0.11160999 -0.1973531 0.24216422 -0.29274353 -0.22528833 -0.1138321
-0.05455695 0.18596065 0.33614045 -0.10035653 -0.10533892 -0.05699257 0.32905966 -0.100861624
-0.32463616 0.10700968 0.34914613 0.13960415 0.15752488 -0.080394655 -0.28151703 0.11944559
0.0869888 -0.23270872 -0.21427225 0.29839987 0.2368078 0.19343194 0.2261139 -0.05647958
-0.1597086 0.2124735 0.27491963 0.24683234 0.24362019 0.20772004 -0.057502825 0.24892408
0.021408774 -0.08450698 0.10158767 0.1422918 -0.08603408 -0.10968887 0.18342596 0.11530751
0.029796997 0.0059624794 0.065987274 0.030462189 0.06721329 0.13677624 0.05521195 -0.09617298
-0.17695647 -0.024973672 0.02367767 -0.24542259 0.09932548 0.19079174 -0.21290128 -0.1605948
0.031282123 -0.04708182 -0.11709162 0.30063757 -0.25516066 -0.10710254 0.17696457 0.047741737
-0.21474001 -0.18137552 0.32071084 0.21586213 0.22571154 0.3009646 0.31951636 0.13368988
0.15280914 0.039089143 0.15811625 0.13925737 0.07248012 0.13036804 -0.10577549 -0.023226405
0.2690105 0.10121385 0.014965885 0.2990756 -0.17964715 0.23574068 -0.17884704 -0.35572976
0.23650691 -0.3200618 0.11573055 -0.09793099 -0.21651885 0.074488334 0.071628146 0.054623812
0.12689652 0.15416396 0.01452795 0.12853317 -0.0045885174 -0.1838947 -0.18345207 0.4000899
-0.37733272 -0.19684938 -0.10544004 0.3137318 0.09944641 -0.18524404 0.29686072 -0.18878552
0.005797083 0.17376141 -0.003770216 -0.22300185 0.0019642413 0.25642794 0.10451666 -0.018817239
-0.1104121 0.04107433 -0.10686887 0.045267407 -0.036606535 0.047274284 0.034568198 -0.11696068
-0.23878391 -0.15720262 -0.15614319 -0.070837535 0.19152707 -0.02023332 0.20727082 -0.028546011
0.25409037 0.22524217 0.14193621 0.45446947 -0.20531976 0.23256034 -0.0651886 0.0042961175
0.050639458 0.14372599 -0.08066728 -0.0649718 -0.13550253 0.13519932 0.105396286 0.28144908
0.12856838 -0.19560754 -0.21289071 0.21992856 -0.09964067 0.121648245 -0.021291051 0.078124076
0.34509277 -0.30852515 -0.2502725 0.0070185084 -0.031383228 0.15814118 0.26423767 -0.2005504
0.41487294 0.3751933 0.41347137 -0.425247 0.35014468 0.13877133 -0.31608915 -0.08711876
0.21162944 -0.07963659 0.0410893 -0.0018433781 0.15912645 0.050446257 0.03179842 0.011818147
0.123560004 0.026219565 -0.20248663 0.0062466795 0.15458527 -0.14745013 0.10389107 0.041344885
0.121622324 0.041255567 -0.014895409 -0.046911854 -0.16661808 0.16260013 -0.090112336 0.3411439
0.13172767 -0.07918736 -0.26014692 0.18169853 -0.11272939 -0.14457059 -0.024457294 -0.19133185
0.03062635 -0.26807883 -0.2330446 0.17634068 -0.15158156 -0.10992435 0.2276004 -0.018522065
0.24459255 0.33870783 0.09971368 -0.13162814 -0.18455301 -0.08677137 -0.11595525 -0.0037063747
00000000: 80c6 cabd 9b82 643e 8875 673b 4769 96be
00000010: 9b8d 0a3d e6c2 8e3c 7937 b73e 0a1d db3e
00000020: 5a40 71be 47ee 95be fa93 8abe 9933 b63e
00000030: dc2b 5dbc 8ad3 3c3e 13f3 4bbe 8729 cc3c
00000040: 989f 033d 8199 253d 913e 29be 3769 32be
00000050: c226 713e b9fe 62be d62e 8cbe dc71 413e
00000060: 04d6 48be 6a3d 19be c793 e4bd ee16 4abe
00000070: e6f9 773e 7be2 95be fcb1 66be ce20 e9bd
00000080: 1c77 5fbd 786c 3e3e 9a1a ac3e b987 cdbd
00000090: efbb d7bd 0b71 69bd 827a a83e 8a90 cebd
000000a0: b636 a6be e427 db3d 48c3 b23e 64f4 0e3e
000000b0: 344e 213e f4a5 a4bd 0023 90be e49f f43d
000000c0: 2f27 b23d 324b 6ebe 2f6a 5bbe dec7 983e
000000d0: be7d 723e 0613 463e 678a 673e 2257 67bd
000000e0: a78a 23be a792 593e 44c2 8c3e 9ec1 7c3e
000000f0: 9277 793e 90b4 543e 1588 6bbd f4e5 7e3e
00000100: 7461 af3c ff11 adbd 320d d03d f1b4 113e
00000110: a332 b0bd 8fa4 e0bd 04d4 3b3e 5826 ec3d
00000120: d518 f43c e760 c33b 5624 873d d78b f93c
00000130: 1fa7 893d 120f 0c3e ed25 623d 57f6 c4bd
00000140: 1434 35be 9695 ccbc acf7 c13c 0f50 7bbe
00000150: 286b cb3d e95e 433e cb02 5abe f772 24be
00000160: af21 003d ded8 40bd bbcd efbd 2bed 993e
00000170: 6ba4 82be 9458 dbbd 3336 353e d78c 433d
00000180: cee4 5bbe 81ba 39be 3634 a43e f60a 5d3e
00000190: ed20 673e 0818 9a3e a697 a33e 00e6 083e
000001a0: 007a 1c3e f01b 203d 3ae9 213e 7c99 0e3e
000001b0: 7570 943d 337f 053e d2a0 d8bd 4d45 bebc
000001c0: bfbb 893e 3549 cf3d 7933 753c 7020 993e
000001d0: 6cf5 37be 0166 713e ae23 37be 3622 b6be
000001e0: de2e 723e 24df a3be 2304 ed3d 0b90 c8bd
000001f0: 1eb7 5dbe 578d 983d c7b1 923d 38bd 5f3d
00000200: 29f1 013e 28dd 1d3e a406 6e3c 339e 033e
00000210: 465b 96bb e44e 3cbe dcda 3bbe 95d8 cc3e
00000220: c131 c1be e292 49be f3f0 d7bd 74a1 a03e
00000230: 8faa cb3d 9db0 3dbe 21fe 973e fe50 41be
00000240: 75f5 bd3b 83ee 313e ba15 77bb 995a 64be
00000250: 80ba 003b 864a 833e d50c d63d 9c26 9abc
00000260: bd1f e2bd 8f3d 283d 11de dabd 516a 393d
00000270: bcf0 15bd aea2 413d 6297 0d3d 1589 efbd
00000280: c583 74be b9f9 20be 00e4 1fbe 4513 91bd
00000290: ac1f 443e 59c0 a5bc cd3e 543e 53d9 e9bc
000002a0: 2218 823e e2a5 663e ba57 113e 39b0 e83e
000002b0: 583f 52be 4c24 6e3e 9a81 85bd 72c6 8c3b
000002c0: 526b 4f3d e82c 133e e334 a5bd ef0f 85bd
000002d0: 2dc1 0abe b171 0a3e 02da d73d 181a 903e
000002e0: 6ea7 033e 584d 48be 0600 5abe f434 613e
000002f0: 6810 ccbd b722 f93d 926a aebc 84ff 9f3d
00000300: 00b0 b03e 02f7 9dbe b823 80be 84fb e53b
00000310: b38b 00bd c3ef 213e 294a 873e 165d 4dbe
00000320: 3a6a d43e 5619 c03e 85b2 d33e fab9 d9be
00000330: 2a46 b33e 121a 0e3e 70d6 a1be 526b b2bd
00000340: 63b5 583e 8218 a3bd 414d 283d 819d f1ba
00000350: 0bf2 223e bca0 4e3d 0f3f 023d e7a0 413c
00000360: 070d fd3d 6aca d63c a858 4fbe f2b0 cc3b
00000370: 9a4b 1e3e 2bfd 16be d7c4 d43d 4159 293d
00000380: 2015 f93d 99fb 283d e00b 74bc a526 40bd
00000390: ee9d 2abe a680 263e d18c b8bd 6aaa ae3e
000003a0: 9ee3 063e fc2c a2bd fa31 85be 2e0f 3a3e
000003b0: abde e6bd 500a 14be aa5a c8bc 7fec 43be
000003c0: 1ce4 fa3c a141 89be 3ea3 6ebe a792 343e
000003d0: 3238 1bbe 0520 e1bd 1410 693e 96bb 97bc
000003e0: 7876 7a3e 1d6b ad3e b036 cc3d 87c9 06be
000003f0: 77fb 3cbe 30b5 b1bd f279 edbd a6e6 72bb

net.2.bias f4 [16]
0.06335537 0.03662556 0.049618218 0.073582895 -0.056325465 0.04638564 0.056229644 -0.06379985
-0.00087637635 0.05131658 0.059850883 -0.04590085 -0.051877886 0.017529216 0.06742088 0.04183702
00000000: 76c0 813d af04 163d 793c 4b3d a1b2 963d
00000010: 88b5 66bd defe 3d3d 0e51 663d 7fa9 82bd
00000020: 9fbc 65ba 5631 523d 3326 753d 8802 3cbd
00000030: e87d 54bd 6e99 8f3c f513 8a3d 4c5d 2b3d

net.4.weight f4 [2, 16]
-0.31153202 0.4008372 -0.4939275 0.47030586 -0.093779586 -0.19490814 -0.06206807 0.053529434
-0.53214747 -0.013685234 -0.051062122 -0.23410164 0.33312893 -0.114546224 -0.032285463 0.31775177
-0.2321058 -0.29414627 -0.16786526 -0.46508768 0.13592544 -0.17864175 -0.21770903 0.32249478
0.26619536 -0.17584087 -0.36064878 0.015732484 0.5026208 0.023325551 -0.44844007 -0.20913175
00000000: 2081 9fbe 893a cd3e 11e4 fcbe eecb f03e
00000010: 830f c0bd 0096 47be 173b 7ebd ae41 5b3d
00000020: d13a 08bf 0838 60bc 8426 51bd 57b8 6fbe
00000030: e08f aa3e 3697 eabd c33d 04bd 5cb0 a23e
00000040: 25ad 6dbe 579a 96be dfe4 2bbe f91f eebe
00000050: 0a30 0b3e dded 36be 1eef 5ebe 091e a53e
00000060: c24a 883e a10f 34be f5a6 b8be 69e1 803c
00000070: c2ab 003f 3a15 bf3c f099 e5be a226 56be

net.4.bias f4 [2]
-0.00023577799 -0.0888027
00000000: 2c3b 77b9 31de b5bd
